checkpoints/ensemble_refiner_5s_3labels_2025-07-21-024348.pth (torch, 74958 bytes, 32 tensors)

transformer.layers.0.self_attn.in_proj_weight f4 [27, 9]
00000000: 5ae2 a03b 3ac4 4b3d d9e5 493c d326 e3b7
00000010: eacf 082c 5c39 e9b9 0010 663d 7269 1738
00000020: 44f0 1eb4 bb54 b5ae 3250 5abd 34b1 0328
00000030: 3ef4 67bd 9952 ef36 aa44 02bd 4728 48b6
00000040: 0563 343b 934a 893d f127 ab29 f609 9f3c
00000050: 7b1f 83bc b21d 2ebc f787 b539 f014 6e3a
00000060: 58f8 653c 5a0b c83a b469 06bc ff5e 702a
00000070: c94f e5b9 000b b3aa e1f5 f43b 7288 b72f
00000080: e220 76ac 5343 9e37 f637 5e2e 51ba a03a
00000090: 1ff2 a834 448d 30bd 8e89 7abd 8e20 d42f
000000a0: 7274 273d 1e73 a43c 47bb 783c d2d4 922c
000000b0: aeba 1429 bb6a 193c 18ba 53ba c00f 713c
000000c0: be02 0f3c ea3d 51bd 4771 debc 001b 86a9
000000d0: d5eb 843d c872 202a df96 81bd 35f9 6d3c
000000e0: 6327 ad2a dd08 062a 7661 76a9 6d64 29bc
000000f0: 8b35 bb31 661e b13a a199 acbb 72ff 49b6
00000100: 420e e2a8 c067 0d3c 8199 713d 02d6 32bd
00000110: b323 ef3c 9cc8 eaa9 645c e63c 18c4 63bd
00000120: 621f 6bbd b81f 433d 07b7 d72e 03e9 2ab8
00000130: cf9f 783d e6c5 273c 0f60 e23b a5ff ca3c
00000140: 3081 3c37 e359 4dbd 65f4 b72f 6220 5c3d
00000150: 7533 65ab 7cc6 0dbd e6bb 82bd 448d 833d
00000160: 5886 cd3b 781e 9eb1 b3c7 bab5 b1c4 6a37
00000170: 27d3 383c 1c9b 653b 5079 03bc 9d69 72bc
00000180: 4ddd 283b 19a6 8f38 1080 773c d8cb 373d
00000190: 589d a53b 06c9 65bd 9aec 2b3b 639c 6ab8
000001a0: 66fa d12d 97c6 a1ac 1171 7abd d30c dd3c
000001b0: da80 0ba9 5d5b 5f35 e0af 732e 70af cc36
000001c0: 239c 233c 665d 083a 1419 19bc d67e 2ba9
000001d0: b07a a0b6 c1f2 6dbc bd76 562a e6d4 1a35
000001e0: 83d7 5e3c 30bb 2e3d f111 393d 5464 8fa9
000001f0: 9ba7 bd3c 1483 e63c df3e 0fb4 4209 a9ae
00000200: 53cd 6e28 6991 6b3d 2ca0 d22a ffc6 2db8
00000210: 9718 76ba bfe3 133b 22fb cfb7 0a1f e3ad
00000220: 9c4f 16a8 dfd3 713c 940a bcb2 6894 0f3a
00000230: 3eeb ab3b aaa3 e628 cfa5 1fbd 2c2e 763d
00000240: 991d 9238 a887 19b8 9120 d7bb c66c 20bd
00000250: ddf3 afb8 9591 e93b 6e0a bc3c b8d8 883c
00000260: 8048 f5af 5f57 87bc da6e c13b 74fe f438
00000270: 3038 da3c 0c2a 0337 8d56 4bbd d4d7 f33b
00000280: e712 003b 6e6e 76bd bdc6 e1be 8a26 4e3e
00000290: 1452 debd 98e0 d83e 5fac 94be 4aa9 853e
000002a0: d3c8 993c 4531 cbbb 9028 563e 280e c93d
000002b0: d5b6 c4be a2f2 75be d5fc aebd 21dd b6be
000002c0: ec10 973d 241d 20be 8ac2 663e 46eb 0e3c
000002d0: 3de6 063e e33d 13be af20 983d bc61 ccbe
000002e0: 97e7 8cbe 062c c0be 5bc6 66be 0325 d5bc
000002f0: 440a 8b3e d1e1 65be 6d6b 4d3d 5a83 b7bc
00000300: 3257 d13c c201 f7bd f064 913e ab9d 983e
00000310: 09cf a33c 4209 96be c156 29be 3e7a 153d
00000320: 02bc c2bd 739a a33e ab28 bc3d da64 3cbe
00000330: 849c 1d3e 33b2 a53e a536 4dbe f224 67be
00000340: 7bdd bb3e 1fd8 d13d 648b b93d 4831 8cbe
00000350: aea4 c93d bc15 4b3e c170 55be 0ca9 b63d
00000360: 21db fd3d deed d7bd 542a 133d 6a2a d1be
00000370: 3877 58be 6dce 2bbe efbd 0a3e 622c 233c
00000380: fc8a a53d ea2a a73e b4c6 983d 87eb 93bd
00000390: 129d bcbe d5cc 1dbd d441 f8bd 26be 5abe
000003a0: d450 47bd 209a 1a3e c3c9 9cbe dc43 1ebd
000003b0: 5782 953e 9c96 ae3e 7e5b 7e3e 179c 57bd
000003c0: 4462 033e 5b0a 8abe 4ff1 79be
0.0049097957 0.049747683 0.012322866 -2.7078588e-05 1.9442178e-12 -0.0004448396 0.056167603 3.609941e-05
-1.4802305e-07 -8.245978e-11 -0.053299136 7.310386e-15 -0.056629412 7.1323707e-06 -0.031803764 -2.9825767e-06
0.002752484 0.06703677 7.600854e-14 0.01941393 -0.016006222 -0.010627197 0.00034624312 0.00090820994
0.014036261 0.0015262172 -0.0082039125 2.134924e-13 -0.00043737728 -3.180442e-13 0.0074756 3.3384456e-10
-3.4976956e-12 1.8866418e-05 5.052666e-11 0.0012262558 3.1468605e-07 -0.04310347 -0.06116634 3.8585707e-10
0.040882535 0.020074423 0.015181369 4.1731974e-12 3.302452e-14 0.009363825 -0.00080767414 0.014713228
0.008728681 -0.051084436 -0.027153624 -5.955479e-14 0.06490294 1.4250677e-13 -0.063276045 0.014524748
3.0758303e-13 1.1904666e-13 -5.4707507e-14 -0.010338885 5.4485034e-09 0.0013513088 -0.0052673374 -3.0100023e-06
-2.5097224e-14 0.008630693 0.058984283 -0.043661125 0.029191827 -1.0426488e-13 0.028120227 -0.05560693
-0.057402976 0.04763767 9.80958e-11 -4.0748168e-05 0.06069928 0.010240054 0.0069084237 0.024780104
1.1235752e-05 -0.05013455 3.346116e-10 0.05374182 -8.1428554e-13 -0.034613118 -0.06383495 0.06423429
0.0062721185 -4.601869e-09 -1.39162e-06 1.3993283e-05 0.011280811 0.003503508 -0.008024529 -0.014795688
0.0025766671 6.8497095e-05 0.015106216 0.044872135 0.005054157 -0.056099914 0.0026233555 -5.5935594e-05
2.3871748e-11 -4.597943e-12 -0.061142985 0.026983654 -3.097596e-14 8.3206925e-07 5.540801e-11 6.1000974e-06
0.009985956 0.0005201906 -0.009344358 -3.807964e-14 -4.7826543e-06 -0.014523209 1.9048214e-13 5.767928e-07
0.013601187 0.042658985 0.045183126 -6.36788e-14 0.02315121 0.028138675 -1.3340785e-07 -7.686875e-11
1.3256177e-14 0.05751172 3.7414635e-13 -4.1431744e-05 -0.00093878194 0.0022566167 -2.4793266e-05 -2.5820696e-11
-8.343935e-15 0.014759987 -2.189089e-08 0.00054771313 0.005246549 2.5606108e-14 -0.038976487 0.060102627
6.9673355e-05 -3.6604382e-05 -0.0065651615 -0.039166234 -8.390073e-05 0.0071279504 0.022954192 0.016704902
-4.4616755e-10 -0.016521154 0.005903107 0.00011682222 0.02663812 7.817998e-06 -0.049643088 0.0074415
0.0019542517 -0.060163908 -0.44096938 0.20131889 -0.10855499 0.4235885 -0.2903776 0.2610572
0.018772518 -0.0062009417 0.20913911 0.09817153 -0.3842074 -0.24018338 -0.08544318 -0.35715583
0.073762745 -0.15636116 0.22535148 0.008723086 0.13173766 -0.14379077 0.07428109 -0.39918315
-0.2752044 -0.37533587 -0.22536604 -0.026018625 0.2715627 -0.22449423 0.050151277 -0.0224015
0.025554273 -0.12060882 0.28397322 0.2980779 0.019996183 -0.29303938 -0.16537 0.036493532
-0.09508516 0.31953773 0.09187444 -0.18397847 0.15391737 0.32362518 -0.20040376 -0.22572687
0.36692414 0.102463 0.0905979 -0.2738135 0.09845863 0.1983251 -0.20843793 0.08918962
0.12395311 -0.105434164 0.03592904 -0.40852672 -0.21139228 -0.16777964 0.13549016 0.009959312
0.0808315 0.32649928 0.074597746 -0.07222658 -0.36838585 -0.03852542 -0.12121931 -0.21361598
-0.048661068 0.15097857 -0.30622682 -0.038638934 0.29201004 0.3409928 0.24839589 -0.052639093
0.12830454 -0.26961026 -0.24408458

transformer.layers.0.self_attn.in_proj_bias f4 [27]
00000000: 0000 0000 0000 0000 0000 0000 0000 0000
00000010: 0000 0000 0000 0000 0000 0000 0000 0000
00000020: 0000 0000 0000 0000 0000 0000 0000 0000
00000030: 0000 0000 0000 0000 0000 0000 0000 0000
00000040: 0000 0000 0000 0000 0eb4 2dbd 92b1 ca3d
00000050: 8219 0b3e 8cc3 cf3d 235f 4abe 4b30 fabd
00000060: 6ac0 e23d b044 21be a93d 303d
0.0 0.0 0.0 0.0 0.0 0.0 0.0 0.0
0.0 0.0 0.0 0.0 0.0 0.0 0.0 0.0
0.0 0.0 -0.04240804 0.0989715 0.13583949 0.101447195 -0.19762854 -0.122162424
0.11071856 -0.15748858 0.043027554

transformer.layers.0.self_attn.out_proj.weight f4 [9, 9]
00000000: 1fb8 5ebe f318 9a3e 1d23 1bbe 667d 64be
00000010: 690c 66bd ea77 cebd 2f58 073e 3ef9 c93b
00000020: f6a9 ff3d f022 9e3e e777 93be 5da7 71be
00000030: 9d1d 37be 352b 543e 7424 a63e 4b3d e23c
00000040: 9795 6f3d 5a90 a43e ecbb 373e 65b0 82bd
00000050: 37ab cebe ba45 36be 7390 29be 235b 1bbe
00000060: 06d6 db3d 1062 5abd 3f85 a2bd 7e2d aebd
00000070: 782f 65be d3bc 91be 4ec8 d13d 81b8 063e
00000080: 7411 913e ff20 febd 9f17 9dbd 3677 32bc
00000090: d788 83be a9fb 863d cc97 4b3e 8775 673e
000000a0: 0d58 d6bc 2966 dcbd d2c2 1a3e c546 8dbb
000000b0: b0bf 0c3b d1b9 02be 7878 1fbe e895 45be
000000c0: 41be 96be dc37 273d 434e 3bbe 4a2d 083e
000000d0: eda1 a23d 14b9 0abe 103f 88be a042 353c
000000e0: 0626 b7bd 35e0 d6bb 2a74 01bb bb22 30be
000000f0: 80da 593d 3f84 aabe 0078 063e a9dd fe3d
00000100: ffa1 0d3b 442d 41be bdec 83be 863a fbbd
00000110: 8346 43be bae5 25bd 5b37 02be 867e ab3d
00000120: 9e2c 853d 9c86 58bd f100 28be a397 0a3b
00000130: 18c7 d0bd 3676 bebd aa1e 003e ca18 663e
00000140: a27f 07be
-0.21749924 0.3009716 -0.15150113 -0.2231346 -0.05616418 -0.100814655 0.13217233 0.006163745
0.12483589 0.3088603 -0.28802416 -0.23599 -0.1788239 0.20719607 0.32449687 0.027617117
0.05849227 0.32141382 0.1794278 -0.06381301 -0.40365002 -0.17800036 -0.16559009 -0.15171485
0.10734181 -0.053316176 -0.07935571 -0.08504771 -0.22381389 -0.28464374 0.10243283 0.1315632
0.28333628 -0.12408637 -0.07670521 -0.01089268 -0.25690338 0.06590969 0.19882125 0.22603427
-0.026165033 -0.10761673 0.1511338 -0.004311415 0.002147656 -0.12766196 -0.15573299 -0.19295466
-0.29442027 0.040824756 -0.18291573 0.13298526 0.07941041 -0.13547164 -0.26610613 0.011063248
-0.08942799 -0.0065574893 -0.0019753077 -0.17200749 0.053186893 -0.3330402 0.13131714 0.12444622
0.002161145 -0.18864924 -0.25766554 -0.12267022 -0.19069867 -0.040502287 -0.12716429 0.08373742
0.06502651 -0.05286275 -0.16406609 0.0021147511 -0.10194224 -0.09299891 0.12511697 0.22470394
-0.13232282

transformer.layers.0.self_attn.out_proj.bias f4 [9]
00000000: 27a4 063e d40e e6bd 3305 69bd ebba f6bd
00000010: 6d46 ea3d 3f49 20be 8228 37bd d68d 123e
00000020: 064a 34bd
0.13148557 -0.11233297 -0.056889724 -0.120473705 0.11439214 -0.15652941 -0.044716366 0.14311919
-0.044015907

transformer.layers.0.linear1.weight f4 [128, 9]
00000000: 8896 4cbd d98c 80bc c19d 513d 0b28 5ebd
00000010: f9a5 a9bc b651 8d3d 3eaf 2bbd 0673 a0bd
00000020: 5520 0e3e 55dc 31be 7c92 64bd 2996 33be
00000030: 4872 793e e86c 9f3e afc9 b13c 2885 0e3e
00000040: 3455 fa3d d803 403e 29ea 983e c6c9 063d
00000050: 7818 7abe ed9f 4c3e 9ccc 47be 63c4 9a3c
00000060: 98d5 ffbd d43f 603e 45f5 dabd b8db b13d
00000070: 347d e6bd 17e8 3b3e b97d 613d 29d0 8d3d
00000080: b262 8ebd 67fb f53c 1dfd 383e 7174 f6bd
00000090: e903 07be 190f 94be a716 9f3d 098f 2a3e
000000a0: d9d5 513e d3ae 77be 63c8 913d d3fb 9cbe
000000b0: f867 85be c3cb 35be 3e23 96be fb1e 0ebe
000000c0: 7c5c 7d3e c1e8 683e bd87 f23d 4eb5 883e
000000d0: 8733 7a3e 76bb e5bd d638 8bba 941b 68b1
000000e0: 087e b73c bfa3 3bbb 1144 223d c6fe 323a
000000f0: 84d7 013b 1a6b 0dbc 971c 543c d5dc ef3d
00000100: 2d4f f0bc 75e4 813d 8fc6 493e 8fe1 abbd
00000110: 5e97 93bd f543 47be 3646 a1be 6d8b 8bbe
00000120: 6ba5 c0be d71b 45bd 4c34 da3d 3ad9 25be
00000130: fd04 92be 150a d33d 8dc8 80be 7f91 1c3e
00000140: 8d9c 74be 824f 74bd 56ba a43d 4be1 72bd
00000150: 32c5 10be a7f7 38bd 144e 4bbd a7d6 fbbd
00000160: a524 893e 187f c1bd 9fdc bdbd 0fa0 05be
00000170: b0cb 54bb 22dc 433e c0bf 783e 828c 483e
00000180: 687b a03e e161 4bbe a030 a8be 35e9 30be
00000190: c57e 013e c046 8a3e ada3 bd3e 1356 51be
000001a0: e72d a0bd e68b c73d aa89 1fbe f098 9ebe
000001b0: 4915 24be 63d0 85be 9dcb 533d b99e 0d3e
000001c0: 11ad 2e3e 4c3e a4bd 7f32 d83c 1ef8 de3d
000001d0: 97ca 6abe 79ad 04be c2fa e0bc 02db f03d
000001e0: 448b 8c3e d97e 65be 0acf 1dbe 697a 32bd
000001f0: b7fe a5be 99f8 1cbe 16bf cdbd 4a2f 6dbe
00000200: 49a1 543e 7dfa 8ebd 6577 7dbd b70a 5d3c
00000210: 96b0 4a3e b3eb 88be a136 cabe fcba 9d3d
00000220: 06cc 583e eb05 1f3e bda7 cd3c f701 b73d
00000230: 03c0 7ebd 878e b03e f2b5 b4be 678c 09be
00000240: f9bd 91be 422a 003e 4686 7dbc 0409 833d
00000250: 2cf2 583e 2156 5b3e 9793 5d3e a5ed 8b3d
00000260: 9f2c ebbd fb24 5f3e 81e1 703d f441 64be
00000270: 38ab e33c 8ea7 7fbe d1c6 8a3d c0d4 393d
00000280: 7dc8 0f3e 2ef5 873c 0b73 8f3e b94c ba3d
00000290: c061 09be f7ca 60bd 614f 1cbe b75d 80bd
000002a0: e3ea 0fbe c522 4a3e 56b2 963e 8a1f 42be
000002b0: af28 65be 7b42 e7bd 4daa fe3c 12bb 8abc
000002c0: 40ba 45be bddb 64be b2b6 583e 3579 edbd
000002d0: 83bc 743e c736 153e df19 5a3e c70e e9bd
000002e0: 4e23 a53e a42a 883d 4e9a 653d 388a 343e
000002f0: 533d 06be 79f3 b2bd 602d 303e 9f79 293e
00000300: ac19 09be 649a 93be f71e 05be f519 8dbe
00000310: 5ebb 87bd 9da5 94bd 1b2e 5c3e 67f2 d93d
00000320: d75a 2abd 821d b5bd b26f 1ebe 1e08 783e
00000330: 72ba 85be 7b74 363d c68d 9abe 0073 64be
00000340: 1e55 1f3e 1f02 1a3e 4886 5bbe 6fb1 413d
00000350: 8d29 ddbd 1412 54be 8a80 73be 5133 1a3e
00000360: 8921 f7bd 4e4b 7dbd 989f 92be d55f 763d
00000370: 9db3 793e 6530 db3d c33f 183d 8a08 743e
00000380: b224 a93e 45b4 cebc 0f46 8bbc 523b 3e3a
00000390: 9147 0d3c 1ea1 95bd 6868 9ebc 1b00 bdbd
000003a0: d824 8bbc e5e9 0e3e eca2 883e f889 93bd
000003b0: 8d03 4e3e b272 09be d1cc 3abe c27b 56be
000003c0: 8aea 873c 0d11 85be 804d aebd 691c 90be
000003d0: 0f25 943e 3a7b 54be 7c81 713e da7c 8fbc
000003e0: 5e40 513e f7ad 3d3b e79b 68be b463 3abe
000003f0: 2250 823c 2798 09bd a780 bd3d e302 183e
-0.049948245 -0.015692161 0.051175836 -0.054237407 -0.020709025 0.06900351 -0.04191517 -0.07834439
0.13879521 -0.17369206 -0.05580376 -0.1753775 0.24360001 0.31137776 0.021702616 0.13917983
0.122232825 0.18751466 0.2986615 0.03290727 -0.24423397 0.19982882 -0.19511646 0.018892473
-0.12491912 0.21899348 -0.10691313 0.08684486 -0.11254349 0.18350254 0.05505154 0.06924469
-0.069524184 0.030027105 0.18065305 -0.12033928 -0.13185085 -0.2891777 0.077679925 0.16656126
0.20491733 -0.24187784 0.07118299 -0.30660877 -0.26055884 -0.1775351 -0.29323763 -0.13879006
0.24742311 0.22745039 0.11842296 0.26700824 0.24433719 -0.11217396 -0.0010621797 -3.377612e-09
0.022398964 -0.0028631536 0.039615694 0.00068281253 0.0019812295 -0.008631492 0.0129462695 0.11712042
-0.029334629 0.06342403 0.1970465 -0.08392631 -0.072066054 -0.19459517 -0.3149888 -0.2725481
-0.37626204 -0.048122253 0.10654506 -0.16196147 -0.2851943 0.10304657 -0.25153008 0.15289877
-0.23887844 -0.059646137 0.08043353 -0.059296887 -0.14137724 -0.045158055 -0.049635008 -0.12296801
0.2678577 -0.09448069 -0.09270596 -0.13049339 -0.003247004 0.19126943 0.24291897 0.1958485
0.31344151 -0.19861557 -0.32849598 -0.17276461 0.12646015 0.27007103 0.37038937 -0.20442991
-0.07821255 0.097434804 -0.15579858 -0.30976057 -0.16023745 -0.2613555 0.051707853 0.13830079
0.17058207 -0.08019695 0.026391266 0.10887168 -0.22928844 -0.129568 -0.02746332 0.117605224
0.2745 -0.2241167 -0.1541101 -0.04357377 -0.32420895 -0.15329207 -0.100462124 -0.2316257
0.2076465 -0.069813706 -0.06188144 0.013491324 0.19793925 -0.26742324 -0.39494804 0.0770168
0.21171579 0.15529601 0.025104398 0.08935922 -0.062194835 0.3448374 -0.35295063 -0.13432465
-0.2846525 0.1251612 -0.015473908 0.06398204 0.21186131 0.21419574 0.21638332 0.068324365
-0.1148312 0.2179145 0.058808807 -0.22290784 0.027791604 -0.24966261 0.067762025 0.04536891
0.14041324 0.016596403 0.28017458 0.09096665 -0.13416195 -0.054881062 -0.15264656 -0.06267875
-0.14054446 0.19739826 0.29432935 -0.18957344 -0.22378801 -0.11291977 0.031087065 -0.016934905
-0.1930933 -0.22349449 0.21163443 -0.11595384 0.23900037 0.14571677 0.21298932 -0.11379772
0.32253498 0.06648758 0.05605536 0.17630851 -0.13109331 -0.08737845 0.17204809 0.16550301
-0.133887 -0.28828728 -0.13000093 -0.27558866 -0.06627534 -0.07258151 0.21501963 0.10641938
-0.041590538 -0.08843519 -0.15472296 0.24221846 -0.2611881 0.04454468 -0.3018629 -0.22309494
0.15559813 0.15039872 -0.21437943 0.047288354 -0.10798941 -0.20710021 -0.23779503 0.15058638
-0.12066943 -0.061839394 -0.28637385 0.060149986 0.24384923 0.1070259 0.037170183 0.23831382
0.3303581 -0.025232444 -0.01700118 0.0007256764 0.00862302 -0.07306121 -0.019336894 -0.09228536
-0.016985342 0.13956411 0.266868 -0.0720405 0.20118542 -0.13422659 -0.18242194 -0.20945647
0.01659133 -0.2598957 -0.08510876 -0.28146675 0.28934523 -0.20750132 0.2358455 -0.017515589
0.2043471 0.0028942802 -0.22715722 -0.18202096 0.01590735 -0.03359237 0.09253054 0.14844851

transformer.layers.0.linear1.bias f4 [128]
00000000: f21c 8e3d e0de b1bd b615 02bd cccc 88bd
00000010: b43f 01be 81ba 8c3d 31ce f3bc 7dda cc3d
00000020: 2dd7 6ebd 228a 403d 5493 87be 5bc6 523e
00000030: fe20 8bbe 7ef6 8f3e 1597 ad3e 3419 0dbe
00000040: 8e88 80be 73d0 be3d b2a1 bf3d 386e abbe
00000050: 45ac b9bd 49e6 263e 3f43 9bbd f0ee 003e
00000060: 92d8 4dbe 2227 463b f4d6 753d e5b4 70be
00000070: 9c2e b8bd eeac 7a3d f938 283e cf0e 7bbd
00000080: da51 623e 057b 6a3e 0b21 cf3d d55e 23be
00000090: acb1 0dbd e8ec 873d 1aad 05bc ef17 57bc
000000a0: d6b8 843e ba56 a9be 068b 4fbe e9a8 8cbd
000000b0: 797f 263d 33d3 8ebe 496e 26be 2761 0ebe
000000c0: 1c8c 8a3d dd26 97be e821 0cbd 62f2 a13d
000000d0: a63e bd3d ceaf 5f3e 839b 993e bca6 bebd
000000e0: 145a 96be 8bcf 4bbe 222c fa3d cd78 993c
000000f0: 1e9e 81bd 6c3f 01be ba73 67be 0161 023e
00000100: 270e 0f3d d88b 3cbe 9d6c 7cbd 8676 303d
00000110: 1fe9 44be 6b69 b5bd 13e0 9dbc a76b 81bc
00000120: 2204 6bbd d7e9 b33d 6606 4e3e 41d7 dabd
00000130: e2b5 d13d 3874 24be d03c 5b3e 98c4 76bd
00000140: c06d 523d 3efe 833e 5e55 fb3d 8e0d 463e
00000150: b091 95be 72ec d23d 2943 34be 0939 763e
00000160: ef8a be3c a38b a6bb 7866 223e cade 053e
00000170: 8fda de3d 0389 60bd 0b0b 01be 6acc 713e
00000180: 1160 1e3e 9e57 75bc 85b4 b3bd d5d6 1c3e
00000190: 2c7a 06bd 7cae 0bbe e361 553e c06e 513d
000001a0: 212f 9c3d 3a48 acbc 2f11 94be 230b 4bbd
000001b0: 5b2b 4c3c 3323 8f3e e2c2 8dbe 76a6 93bc
000001c0: 25bc c23d a606 88bd 2c4a 14be cdf9 043e
000001d0: 92ed 5d3d 98a0 943e 71ce a4bb 1717 793e
000001e0: 930f b03d 3b3b 383e b250 29bc 21b3 ee3d
000001f0: cccf c73c 201a 76be edea 0ebd 6bb6 d93b
0.06939115 -0.08685088 -0.031758986 -0.06679687 -0.12621957 0.0687151 -0.029761406 0.10002611
-0.058310676 0.047006734 -0.2647959 0.20583479 -0.2717361 0.28117746 0.3390433 -0.13779145
-0.25104183 0.09317102 0.09357013 -0.33482528 -0.09066061 0.16298784 -0.075811855 0.12591147
-0.20102146 0.0030235727 0.06001945 -0.23506506 -0.08993265 0.061200075 0.16427983 -0.06129342
0.22101536 0.2289849 0.10113724 -0.15954144 -0.03459327 0.06636983 -0.008158946 -0.013128265
0.2592227 -0.3307398 -0.20267877 -0.068681546 0.04064891 -0.27895507 -0.16253008 -0.13904248
0.06765005 -0.29521838 -0.034212023 0.07907559 0.09240465 0.21844408 0.3000146 -0.09309146
-0.293656 -0.1990339 0.12215449 0.01873436 -0.063289866 -0.1262185 -0.2260274 0.12732317
0.034925606 -0.18412721 -0.06162702 0.043081783 -0.19229554 -0.088579975 -0.019271886 -0.015798403
-0.05737699 0.08784836 0.20119628 -0.10685588 0.102397695 -0.16059959 0.21409917 -0.06024608
0.051374197 0.2577991 0.12272142 0.19341108 -0.29212713 0.102990046 -0.17603745 0.24045195
0.023259608 -0.005082564 0.15859401 0.13073269 0.108815305 -0.054818165 -0.12601869 0.23613134
0.15466334 -0.014974503 -0.08774666 0.15316327 -0.032831356 -0.1364078 0.20838122 0.05113101
0.076261766 -0.021030534 -0.2891936 -0.049571168 0.012461509 0.27956542 -0.27687746 -0.01802371
0.09508542 -0.06641893 -0.1448142 0.12985916 0.054181643 0.29028773 -0.0050294925 0.24325214
0.085967205 0.17991345 -0.010334181 0.1165526 0.024391077 -0.24033403 -0.03489201 0.0066440604

transformer.layers.0.linear2.weight f4 [9, 128]
00000000: 2d42 843c b493 723d 984f 0cbb cec2 243e
00000010: 01e7 30be c221 ef3c 1ab6 4a39 d583 f6bb
00000020: 2f42 1fbd 92ae 48bd 504e 1bbe 36e6 b33c
00000030: 3ba0 82bc f992 63bd 934d c4bd 9acc c3bd
00000040: ea25 4dbd 79e6 b73d 8bfc 38bc 26b1 38bc
00000050: f456 893c 6bd9 19be b8d6 823d d841 00bc
00000060: 5ac3 983d 815d 01bd 1280 e6bd a06e d6bb
00000070: 4c36 fbbd e911 b4bd 71af d9bb 6ddc 4bbd
00000080: b62f 803c af1c 3d3d e28a c4bd c7c4 5c3c
00000090: 13c5 aebd 4a52 99bd 49ec 3a3d 21ab 0ebd
000000a0: 8a2e a93d 2ebb 873d 88db 673e 14e7 e93c
000000b0: 0030 a63d bc99 87bd 8bc1 893d c066 7a3d
000000c0: b74a 45bd 1f2a 803d 012a 7e3c 78a1 5ebd
000000d0: d3f4 28bc 8d94 8e3d e7da 36bd 4a19 8c3d
000000e0: 7cd5 a23b 48bb 643d 032b 603d 14bd c7bd
000000f0: 326b 063d a833 dc3d a727 0c3d a7fd fcbd
00000100: 5fe7 7e3d c991 01be 892c 0b3d 4643 533d
00000110: 1b69 78bd e3d5 6dbc bbac 783c e302 07bd
00000120: ea0b 2fbd c2b9 0c3d 827f 11bc ec2d 39bd
00000130: 9824 833d bd5b 90bc 4e35 aabd 3baa 8abd
00000140: 50ee 19bc ccd5 95bd 417e c93b 3619 6ebd
00000150: 6ca4 9fbd 2254 60bc 6bfa e43d 4f8e 0bbd
00000160: 0154 8ebc 0245 b4bc c40a 893d f7a8 fb3c
00000170: b288 c3bd 1a84 7b3d 4675 c73d 5ad6 c43b
00000180: d742 b6bd dfe1 733e 24fb 46bd c9bc b1bd
00000190: 5f63 4fbd 6910 3a3c b751 683d 0b2e 873d
000001a0: 77bd a73d f501 b9bb 65a0 25be 6804 273b
000001b0: bee4 c83d 028b 6f3d c801 623c fa5e 12bd
000001c0: 55f5 f7bd e708 acbc 1564 673d 01c3 5dbd
000001d0: e7d3 08ba a769 883d 6665 7e3d 2542 133e
000001e0: 82bb c23d 0607 7e3d 9c2e 9c3d 4e94 33bd
000001f0: c678 a5bd 0571 babd 4429 87bc d86a 013e
00000200: 399b 36bd 5908 c5bc e0de 16bd daca 38be
00000210: 95d4 863e 5d90 bd3b 3d3b cbae d3f5 a93d
00000220: f658 b63d 4121 5c3b 97ff 843c a707 3ebe
00000230: 328d b1ba b132 ae3d d398 d83d 7490 b93d
00000240: dd9a 9c3d d05f 36bd 5671 88bd 24d7 2f3d
00000250: 702d 823c 74ef 0d3e 6034 ae3c bd68 fa3d
00000260: f41e 96bd 7348 72bd bacf 213d ce66 243b
00000270: d47e da3d 21e0 4f3d deee babd a44b f3bc
00000280: b941 4f3d c1b7 763d ad29 a13d bcc5 b1bc
00000290: 8a9a 093e 3c5b 28bd ebb0 25bd 25a7 113d
000002a0: 20fa f4bc 4c9b ea3c c267 8cbe d795 f7bd
000002b0: 46a3 8cbd 8b76 c83c 74f6 0bbb 5c0b c3bd
000002c0: 42b1 7ebd a37c 41bd ddb1 41bc 7f1b f63c
000002d0: d399 793d 6e28 80bd dbfb 233d 3f18 da3c
000002e0: 0015 4f3c 5ec8 04bd afe1 5bbd 4218 393e
000002f0: 74bb 873d 1c58 b5bd 6afc fdbd 5060 3f3e
00000300: bbef c63b acf4 d83d 3371 44bd 74a1 1dbd
00000310: cec9 243e 7105 14be 0dec 18bd 4764 dc3c
00000320: 8c28 f83b 3dfe 583c 3ef4 5fbc 3dfd 883d
00000330: c900 923a 835e 093d a42c a13c 80a9 553c
00000340: a87c b23d 4633 eabd 06a9 813d 9f78 58bc
00000350: a112 003c c251 8c3d 798f 20be 745e 013e
00000360: 3d46 1dbe 3d7d 01be 3ec6 05bc 3f33 fd3c
00000370: bf70 be3d 719f 3ebd b8f4 38be 6c6f 773c
00000380: cc73 883a 7c4a 1ebe 9c55 84bd 8f9a 88bc
00000390: c07e 40ba 1b82 e13c fc8b 3ab9 bfdb 6dbd
000003a0: 69e7 38bd 56b9 aabc 9db1 093e b528 ae39
000003b0: 85fa 59bd 2c86 b73d 1d81 c9bd 0082 7a37
000003c0: 5dee da3d a485 65bc 3bc7 8bbd 103f 243e
000003d0: 83bb adbc 0e57 92bd 177a 2abc 60c4 cfbd
000003e0: 8b46 bdbd 3816 323c 2e63 b0bd 60b9 d53c
000003f0: 2e1d cf3c 03ff 923b 6163 8abd 87f8 4dbe
0.016144836 0.059222892 -0.0021409746 0.16089937 -0.17275621 0.029190902 0.0001933206 -0.00752304
-0.038881477 -0.04899461 -0.15166593 0.021960359 -0.015945544 -0.055560086 -0.095851086 -0.09560509
-0.050084986 0.08979506 -0.01129068 -0.011272704 0.016765095 -0.15024345 0.063886106 -0.007828198
0.07459135 -0.031583313 -0.11254896 -0.0065439492 -0.12266216 -0.087924786 -0.0066432287 -0.04977076
0.01564775 0.046169933 -0.09596802 0.01347465 -0.08533683 -0.074863985 0.045635495 -0.03483117
0.0826083 0.066274986 0.22642338 0.02855257 0.08114624 -0.066211194 0.067263685 0.061133146
-0.048166957 0.06258034 0.015512944 -0.054353207 -0.010312277 0.069619276 -0.044642355 0.06840761
0.004969297 0.055842668 0.05472852 -0.09752861 0.032817073 0.1075204 0.034217503 -0.12353068
0.06223237 -0.12653269 0.03397802 0.05157783 -0.06064711 -0.014516327 0.015177901 -0.032961737
-0.04273597 0.03435684 -0.008880498 -0.04520981 0.06403464 -0.01762187 -0.08310948 -0.0677075
-0.009395197 -0.07316169 0.006149084 -0.05812951 -0.07795033 -0.013691934 0.11180576 -0.034071263
-0.01737404 -0.022005562 0.066915065 0.030720217 -0.09547557 0.06140528 0.09739165 0.006006998
-0.088994674 0.23816632 -0.04857935 -0.08678586 -0.050631877 0.011356452 0.056718554 0.06600579
0.081904344 -0.0056459852 -0.16174467 0.0025484804 0.09809254 0.058482178 0.01379437 -0.035735108
-0.1210734 -0.021000339 0.05649193 -0.05414105 -0.0005219564 0.066607766 0.06210842 0.14380701
0.095084205 0.062018417 0.076260775 -0.043842606 -0.08079676 -0.09103588 -0.01649917 0.12638414
-0.044581626 -0.024051832 -0.036833644 -0.18046132 0.26334062 0.0057850317 -9.241894e-11 0.082988404
0.08903687 0.0033589157 0.016235156 -0.18557607 -0.0013546108 0.08505762 0.10576024 0.09060755
0.07646725 -0.044524968 -0.06662242 0.042929783 0.015890807 0.13860875 0.021265209 0.122270085
-0.073301226 -0.059151124 0.039504744 0.002508569 0.10668722 0.050750855 -0.091275916 -0.029699154
0.050599787 0.060233835 0.07869277 -0.021700732 0.13437858 -0.041102633 -0.040451925 0.035559792
-0.029904425 0.028638504 -0.2742291 -0.120891266 -0.068670794 0.024470588 -0.0021356614 -0.09523651
-0.062180765 -0.047238003 -0.011822191 0.030042408 0.060937714 -0.06257711 0.04003511 0.02662289
0.012639284 -0.032417648 -0.053682026 0.1807566 0.06627551 -0.08854696 -0.1240166 0.18689084
0.0060710586 0.105935425 -0.047959518 -0.03848405 0.16092607 -0.144552 -0.03733449 0.026903285
0.007573193 0.013244209 -0.013669072 0.06688926 0.001113915 0.0335374 0.019674607 0.0130409
0.087151825 -0.11435561 0.06331067 -0.013212352 0.0078169415 0.068515316 -0.1567973 0.12633687
-0.15358825 -0.12645431 -0.00816494 0.030908225 0.09298848 -0.046538774 -0.18062103 0.015102249
0.0010410487 -0.15458101 -0.06461641 -0.016675262 -0.0007343106 0.02752786 -0.0001779049 -0.058070894
-0.045142565 -0.020840328 0.1344666 0.00033218195 -0.05321743 0.08961138 -0.098390795 1.4931429e-05
0.106899954 -0.014008913 -0.068251096 0.16039681 -0.021207577 -0.071455106 -0.010405085 -0.101448774
-0.09241971 0.010869555 -0.08612667 0.02608937 0.025282469 0.004485966 -0.06757236 -0.20114337

transformer.layers.0.linear2.bias f4 [9]
00000000: e237 fbbc d89b 233c 786d 343d 8459 64bd
00000010: fb8f 4cbd 7589 993d 308a 8d3d 76c6 433d
00000020: 794c c83d
-0.030666295 0.0099858865 0.04404971 -0.05574943 -0.049941998 0.07496921 0.06911123 0.04779669
0.09780211

transformer.layers.0.norm1.weight f4 [9]
00000000: a76a 883f 140e 863f 2658 7a3f 790c 823f
00000010: 2180 793f 860b 6c3f 4aba 763f 0d31 803f
00000020: 81ce 7e3f
1.0657548 1.0473046 0.97790754 1.0160056 0.97461134 0.92205083 0.96378005 1.0014969
0.9953385

transformer.layers.0.norm1.bias f4 [9]
00000000: 7684 553b 107f e5bc 8477 503d 0ed7 05bd
00000010: 2452 49bd 3c12 843d 1b54 bc3c 4ce8 80bd
00000020: 65f6 9b3d
0.0032580174 -0.02801469 0.05089523 -0.032675795 -0.0491506 0.064487904 0.022989323 -0.06294307
0.076153554

transformer.layers.0.norm2.weight f4 [9]
00000000: ef19 843f 655e 863f 3973 6e3f d233 863f
00000010: 29ed 733f 5604 7c3f e128 6f3f a09e 813f
00000020: b3a3 773f
1.0320414 1.0497557 0.93144566 1.0484564 0.9528375 0.98444116 0.9342175 1.0126534
0.9673416

transformer.layers.0.norm2.bias f4 [9]
00000000: b7bd 27bc afae 573b fd8a 8d3d fac6 5fbc
00000010: bf75 81bd a35c 9c3d 6894 d5bc 89bb 82bd
00000020: 70ef b03d
-0.010238103 0.0032910516 0.069112755 -0.01365828 -0.063212864 0.076348566 -0.026071742 -0.06383426
0.08639419

transformer.layers.1.self_attn.in_proj_weight f4 [27, 9]
00000000: 5ae2 a03b 3ac4 4b3d d9e5 493c d326 e3b7
00000010: eacf 082c 5c39 e9b9 0010 663d 7269 1738
00000020: 44f0 1eb4 bb54 b5ae 3250 5abd 34b1 0328
00000030: 3ef4 67bd 9952 ef36 aa44 02bd 4728 48b6
00000040: 0563 343b 934a 893d f127 ab29 f609 9f3c
00000050: 7b1f 83bc b21d 2ebc f787 b539 f014 6e3a
00000060: 58f8 653c 5a0b c83a b469 06bc ff5e 702a
00000070: c94f e5b9 000b b3aa e1f5 f43b 7288 b72f
00000080: e220 76ac 5343 9e37 f637 5e2e 51ba a03a
00000090: 1ff2 a834 448d 30bd 8e89 7abd 8e20 d42f
000000a0: 7274 273d 1e73 a43c 47bb 783c d2d4 922c
000000b0: aeba 1429 bb6a 193c 18ba 53ba c00f 713c
000000c0: be02 0f3c ea3d 51bd 4771 debc 001b 86a9
000000d0: d5eb 843d c872 202a df96 81bd 35f9 6d3c
000000e0: 6327 ad2a dd08 062a 7661 76a9 6d64 29bc
000000f0: 8b35 bb31 661e b13a a199 acbb 72ff 49b6
00000100: 420e e2a8 c067 0d3c 8199 713d 02d6 32bd
00000110: b323 ef3c 9cc8 eaa9 645c e63c 18c4 63bd
00000120: 621f 6bbd b81f 433d 07b7 d72e 03e9 2ab8
00000130: cf9f 783d e6c5 273c 0f60 e23b a5ff ca3c
00000140: 3081 3c37 e359 4dbd 65f4 b72f 6220 5c3d
00000150: 7533 65ab 7cc6 0dbd e6bb 82bd 448d 833d
00000160: 5886 cd3b 781e 9eb1 b3c7 bab5 b1c4 6a37
00000170: 27d3 383c 1c9b 653b 5079 03bc 9d69 72bc
00000180: 4ddd 283b 19a6 8f38 1080 773c d8cb 373d
00000190: 589d a53b 06c9 65bd 9aec 2b3b 639c 6ab8
000001a0: 66fa d12d 97c6 a1ac 1171 7abd d30c dd3c
000001b0: da80 0ba9 5d5b 5f35 e0af 732e 70af cc36
000001c0: 239c 233c 665d 083a 1419 19bc d67e 2ba9
000001d0: b07a a0b6 c1f2 6dbc bd76 562a e6d4 1a35
000001e0: 83d7 5e3c 30bb 2e3d f111 393d 5464 8fa9
000001f0: 9ba7 bd3c 1483 e63c df3e 0fb4 4209 a9ae
00000200: 53cd 6e28 6991 6b3d 2ca0 d22a ffc6 2db8
00000210: 9718 76ba bfe3 133b 22fb cfb7 0a1f e3ad
00000220: 9c4f 16a8 dfd3 713c 940a bcb2 6894 0f3a
00000230: 3eeb ab3b aaa3 e628 cfa5 1fbd 2c2e 763d
00000240: 991d 9238 a887 19b8 9120 d7bb c66c 20bd
00000250: ddf3 afb8 9591 e93b 6e0a bc3c b8d8 883c
00000260: 8048 f5af 5f57 87bc da6e c13b 74fe f438
00000270: 3038 da3c 0c2a 0337 8d56 4bbd d4d7 f33b
00000280: e712 003b 6e6e 76bd b6fd d0be 0ce9 f43d
00000290: 1165 56bc cb55 c13e 2f74 9cbe cb46 933e
000002a0: 5e2e 24bc c823 0abd eca7 923e e75f 6a3c
000002b0: b277 b1be 56ad 91be da4d e7bd 6279 a0be
000002c0: 2b0f ba3d 8c39 33be e15a 843e 3c85 81bd
000002d0: 4324 d93d 1f59 13be f219 823d 683d aabe
000002e0: beb3 a3be ed1f b0be 5fbd 16be 6490 4abd
000002f0: b831 0f3e bb20 46be 8b9b 463d 567d 92bd
00000300: 460f 9b3d dbc7 21be 33cc 813e ac38 b43e
00000310: 0f0b b7bc 9b72 9dbe d804 13be aa5a 4c3d
00000320: baba 08be c302 b23e ba5b 153d e6ea 71be
00000330: 8f5b 043e 5827 963e c921 52be 7514 3abe
00000340: e3c8 aa3e 4542 c23d c36a cb3d c23e 9bbe
00000350: 4e2b 543d 16a2 423e 49f4 64be da22 f83d
00000360: dae9 483e abed 4ebe 5944 4c3c 9b54 9ebe
00000370: cbce 6dbe 64d1 d6bd 45b9 823e 3781 56bd
00000380: dcad 393c dd2a c33e 5c06 5cbd d7be b6bd
00000390: 1016 a1be 0643 98bc 2ad1 22be 9a46 27be
000003a0: 11f5 a1bd 4bbf c23d 0a02 98be 91a9 aabd
000003b0: 2b22 c13e 6e25 ad3e c8b7 683e 0069 81bd
000003c0: d37d 0e3e 3de0 8dbe 56ba 4cbe
0.0049097957 0.049747683 0.012322866 -2.7078588e-05 1.9442178e-12 -0.0004448396 0.056167603 3.609941e-05
-1.4802305e-07 -8.245978e-11 -0.053299136 7.310386e-15 -0.056629412 7.1323707e-06 -0.031803764 -2.9825767e-06
0.002752484 0.06703677 7.600854e-14 0.01941393 -0.016006222 -0.010627197 0.00034624312 0.00090820994
0.014036261 0.0015262172 -0.0082039125 2.134924e-13 -0.00043737728 -3.180442e-13 0.0074756 3.3384456e-10
-3.4976956e-12 1.8866418e-05 5.052666e-11 0.0012262558 3.1468605e-07 -0.04310347 -0.06116634 3.8585707e-10
0.040882535 0.020074423 0.015181369 4.1731974e-12 3.302452e-14 0.009363825 -0.00080767414 0.014713228
0.008728681 -0.051084436 -0.027153624 -5.955479e-14 0.06490294 1.4250677e-13 -0.063276045 0.014524748
3.0758303e-13 1.1904666e-13 -5.4707507e-14 -0.010338885 5.4485034e-09 0.0013513088 -0.0052673374 -3.0100023e-06
-2.5097224e-14 0.008630693 0.058984283 -0.043661125 0.029191827 -1.0426488e-13 0.028120227 -0.05560693
-0.057402976 0.04763767 9.80958e-11 -4.0748168e-05 0.06069928 0.010240054 0.0069084237 0.024780104
1.1235752e-05 -0.05013455 3.346116e-10 0.05374182 -8.1428554e-13 -0.034613118 -0.06383495 0.06423429
0.0062721185 -4.601869e-09 -1.39162e-06 1.3993283e-05 0.011280811 0.003503508 -0.008024529 -0.014795688
0.0025766671 6.8497095e-05 0.015106216 0.044872135 0.005054157 -0.056099914 0.0026233555 -5.5935594e-05
2.3871748e-11 -4.597943e-12 -0.061142985 0.026983654 -3.097596e-14 8.3206925e-07 5.540801e-11 6.1000974e-06
0.009985956 0.0005201906 -0.009344358 -3.807964e-14 -4.7826543e-06 -0.014523209 1.9048214e-13 5.767928e-07
0.013601187 0.042658985 0.045183126 -6.36788e-14 0.02315121 0.028138675 -1.3340785e-07 -7.686875e-11
1.3256177e-14 0.05751172 3.7414635e-13 -4.1431744e-05 -0.00093878194 0.0022566167 -2.4793266e-05 -2.5820696e-11
-8.343935e-15 0.014759987 -2.189089e-08 0.00054771313 0.005246549 2.5606108e-14 -0.038976487 0.060102627
6.9673355e-05 -3.6604382e-05 -0.0065651615 -0.039166234 -8.390073e-05 0.0071279504 0.022954192 0.016704902
-4.4616755e-10 -0.016521154 0.005903107 0.00011682222 0.02663812 7.817998e-06 -0.049643088 0.0074415
0.0019542517 -0.060163908 -0.40818566 0.11958513 -0.01308562 0.37760767 -0.3055739 0.28764948
-0.01002082 -0.03372553 0.2864374 0.014305091 -0.34661633 -0.28452557 -0.11294146 -0.31342608
0.09084924 -0.17502421 0.25850585 -0.063242406 0.106026195 -0.14389466 0.06352605 -0.33249974
-0.3197307 -0.34399357 -0.14720677 -0.049454108 0.1398381 -0.19348423 0.04848818 -0.07152812
0.075712726 -0.15798895 0.25351104 0.35199487 -0.02234414 -0.307515 -0.14357316 0.04989115
-0.1335248 0.34767732 0.03646443 -0.23624763 0.12925552 0.29326892 -0.205207 -0.18171866
0.3335639 0.09485296 0.099324726 -0.30321318 0.05179911 0.19007143 -0.22358812 0.121160224
0.19620457 -0.2020785 0.012467467 -0.30923924 -0.23223417 -0.10489157 0.25531974 -0.052369323
0.011332955 0.3811864 -0.053717002 -0.089231186 -0.31462145 -0.018586647 -0.15900102 -0.16335526
-0.07908071 0.095091425 -0.29689056 -0.083331235 0.3772138 0.3381762 0.22726357 -0.06318855
0.13915186 -0.27710143 -0.19992957

transformer.layers.1.self_attn.in_proj_bias f4 [27]
00000000: 0000 0000 0000 0000 0000 0000 0000 0000
00000010: 0000 0000 0000 0000 0000 0000 0000 0000
00000020: 0000 0000 0000 0000 0000 0000 0000 0000
00000030: 0000 0000 0000 0000 0000 0000 0000 0000
00000040: 0000 0000 0000 0000 370b 5c3d e577 3fbd
00000050: 040d 563b bc23 76bc 7f39 7abd aa81 c83c
00000060: 6618 393c 9f3c 513d 215a 17bc
0.0 0.0 0.0 0.0 0.0 0.0 0.0 0.0
0.0 0.0 0.0 0.0 0.0 0.0 0.0 0.0
0.0 0.0 0.053721633 -0.0467452 0.0032661567 -0.015023168 -0.06108999 0.024475891
0.011297321 0.051083203 -0.009237797

transformer.layers.1.self_attn.out_proj.weight f4 [9, 9]
00000000: a1cb 87be a0d8 9e3e 58d0 80be be99 8fbe
00000010: c370 a1bc e5f7 32be 1129 0c3e 63ca fabd
00000020: fa59 e23d 59dc a73e 265b a4be f626 2dbe
00000030: 684e 44be 89cf 7b3e c761 9e3e 2abd 993c
00000040: 6dcf f53d b1d9 b53e 2081 313e 1986 7ebd
00000050: 69c5 a6be 62cb 88be ec88 59be 8177 1bbe
00000060: 9331 713d 9199 613d 0355 2dbe 621e a6bd
00000070: 75c4 7abe dbed 82be a1fb e53c aabf 023e
00000080: 0d1f 893e 9962 06be a65f ef3a 8d70 58bd
00000090: cd99 a3be f495 fb3d 1791 1c3e 7aa5 4a3e
000000a0: 77f9 873b 09fd 0abe c30e 503e 07e9 c8bc
000000b0: 689f 93bb a35d 17be 1048 03be da5d 80be
000000c0: 0c85 a7be f466 c23d 6be8 5cbe a0c5 113e
000000d0: 6de6 8f3d a01f ddbd 40a7 97be e218 8e3d
000000e0: 7d7e 20be d430 833b 7d8e 3f3d e935 57be
000000f0: afc2 5abc 174f a3be ef6d a33d 9e43 e03d
00000100: 9a80 95bc cc53 53be c069 98be a560 01be
00000110: a90c 55be 013f 39bd 94d0 11be 8b50 0d3e
00000120: 7820 d63d 71d5 2abd ea2e 3cbe 3aee 993d
00000130: b265 f2bd f186 03bd 9c41 343e 89a4 2e3e
00000140: ef6d a6bd
-0.26522544 0.31024647 -0.25158954 -0.28046983 -0.01970709 -0.17477377 0.1368754 -0.122456335
0.11052318 0.327853 -0.3210079 -0.16909394 -0.19170535 0.24590887 0.30933973 0.018766958
0.12002454 0.35517648 0.17334414 -0.062139604 -0.32572487 -0.2671767 -0.21243638 -0.15182306
0.05888517 0.055078093 -0.1692696 -0.08111264 -0.24489005 -0.25572094 0.028074088 0.12768427
0.26781502 -0.1312355 0.0018262758 -0.05284171 -0.31953278 0.12284461 0.15289722 0.19789687
0.0041496116 -0.13573088 0.20318131 -0.024525179 -0.0045050867 -0.14781813 -0.12820458 -0.25071603
-0.32718694 0.09492293 -0.21573035 0.14235544 0.07026372 -0.107970476 -0.2961979 0.0693834
-0.15673251 0.0040036235 0.046766747 -0.21016659 -0.01335208 -0.31896278 0.079799525 0.10950397
-0.018249799 -0.20637435 -0.2976818 -0.12634523 -0.2080561 -0.0452261 -0.14239722 0.13800256
0.10455412 -0.04170746 -0.18377271 0.07516141 -0.11835803 -0.032111112 0.17603153 0.17054953
-0.08126437

transformer.layers.1.self_attn.out_proj.bias f4 [9]
00000000: f8c7 12bd fbd1 4dbc 2dbe 813d c09c 0cbd
00000010: 3b98 a4bc bb21 04bc ca9b e1bc 7b4e fcbc
00000020: d5a3 b13d
-0.035835236 -0.01256227 0.06335101 -0.034329176 -0.02009212 -0.008064683 -0.027540106 -0.030799141
0.086738266

transformer.layers.1.linear1.weight f4 [128, 9]
00000000: 0632 74be 9410 eebd 5b8d 963d 17ef 87bd
00000010: 2541 e33c b422 dc3c 4ae8 eebc 8308 0abe
00000020: eebb f73d ce7d 5fbe 7de0 a83c 1091 0cbe
00000030: 1c4d 843e 311d 893e 330a a43b 99bd c43d
00000040: 287b cf3d b9c8 0e3e 0c0a 993e 5830 3d3d
00000050: aa92 80be da19 433e e4d8 1dbe 6c70 ca3a
00000060: a0f8 c6bd 06a1 533e 4ac1 31be b2e9 9b3d
00000070: dbf9 88bd b8fe f13d 54f5 6dbd 1192 d63d
00000080: 2007 a0bd 1be4 aa3c 95d1 113e 7028 a4bd
00000090: a2e6 01be 9b75 8fbe 63af a33d 02c2 fb3d
000000a0: 8e45 003e 8b81 01be ab31 c03c e4f6 a6be
000000b0: ef4e 1cbd aca5 6abe eeff 5cbe f04e dfbd
000000c0: 533a 7f3e f7d7 693e 9ada 133d 9601 5b3e
000000d0: ae9b 803e 9a0f 1bbe 8a74 3dbd b889 4a3c
000000e0: 5a9c 1a3e 0b1d a2bd 3a5f e03d e862 553d
000000f0: 7ab3 3c3d 319a 96bd ae55 d93d eb55 eb3d
00000100: f2f6 f5bb 5781 463d 7f65 473e 31fe 10be
00000110: c436 8bbb 6fe6 2cbe ec77 abbe 4ed7 41be
00000120: 1544 b7be ff4f a3bd fe89 1c3e 63ed f0bd
00000130: 46cb 9fbe c574 f53d e8c0 38be e165 353e
00000140: e3c3 92be 0c95 273a 019b 593d 9573 c2bd
00000150: 0811 ffbd 91d7 173c 9b40 bcbd 999f f1bd
00000160: 218e 913e 0272 e5bd d37a 26bc 1d6f 72be
00000170: 3077 d9bc 62d0 e13d b729 4c3e 462a 5f3e
00000180: d3a6 8e3e 6916 81be 4896 67be e87f 87be
00000190: c066 543e 6852 a53e 2562 373e 283d 7abe
000001a0: d3b4 e0bc 61b8 b4bd 71fd 22be ec44 66be
000001b0: 7815 49be 5cc4 9fbe 32d9 133d 487e b93d
000001c0: 5367 553e c68a adbd 8e49 d7bc 0233 013e
000001d0: 121b 75be 70ec cebd faf9 913d 5ca9 753d
000001e0: b0a6 7f3e 2693 1dbe 9d1f febd c07f 03bd
000001f0: 73e6 8dbe 00da 0bbe cbd0 c6bd 8794 6ebe
00000200: 0500 623e 3d82 20be bc4f 06be b7bb d03d
00000210: f831 113e 49dd 7cbe 3e27 82be 63ed c93d
00000220: d360 6c3e 526a fe3d 8204 033d d498 943d
00000230: 0ade c0bc e56e a23e 5922 c6be 183f 1d3d
00000240: 4ba9 6bbe 1d25 b43d a20b 95bd 684e 9d3d
00000250: b067 863e f284 373e 92d3 563e 7626 db3d
00000260: 947a 1fbe 536c 613e 90fe fa3d 0cb3 7bbe
00000270: de48 7c3d fe2f 74be ff64 ff3c 8aca a53d
00000280: 8c90 093e 1fda f33b 084f a73e b0a8 5d3d
00000290: 3134 05be 5fb9 22bc a9fa 16be 0367 adbd
000002a0: 91f0 93bd d00b 3a3e 2c3b 6e3e 5ba8 02be
000002b0: 81b9 70be 88ce 1ebe 13e4 653d ef8a dc3c
000002c0: 9cd6 81be 847c 3abe 1794 693e e5fe 10be
000002d0: bd86 873e caa0 f23d 2bd9 373e bacf 19be
000002e0: 654e bb3e c155 b03d 0e58 3b3d 5227 503e
000002f0: df53 0fbe 92c2 58bd 37b9 213e b73d 0a3e
00000300: 5b46 cfbc 12df 8cbe bae2 21be 6ce6 2abe
00000310: 2140 7cbd a33d c3bd 9bfe 6e3e 9d11 113c
00000320: dcda 92bd 0b4c 07be 2f6a 0bbe c7a3 533e
00000330: 133f 58be 13d4 393d 4444 97be 55d7 27be
00000340: 534b fc3d 0fb2 223e b4a6 43be 994a 083c
00000350: c1d4 87bd c512 2abe bdf7 81be 73ff 393e
00000360: 74f8 2cbe 2c88 4e3d be1b 95be e6ca 813d
00000370: e270 8f3e 5b4b df3c 7491 2f3d 3fb5 8d3e
00000380: 6fb4 853e 3114 a6bd 3907 05be e1e0 aebd
00000390: 3d07 f63d 4ff0 4dbe aa94 1d3d 4bf9 6dbe
000003a0: 6911 94bd 0172 aa3e 0841 6b3e da8e e83d
000003b0: 8184 2f3e 7d84 01be 1095 1ebe a466 30be
000003c0: d84e b5bc 085c 11be d68d 67bd 7f98 94be
000003d0: c6b6 9d3e bad0 41be 21b9 2d3e 46b9 33bd
000003e0: 7ffd 873e 1cca 62bd ab04 68be 3634 12be
000003f0: f442 413c 06cd 5abe 9a89 1b3e bf1c a53e
-0.23847207 -0.11624256 0.0735118 -0.066374 0.027741024 0.026872016 -0.029163498 -0.1347981
0.120963916 -0.21825334 0.020614857 -0.13727212 0.2584008 0.26780084 0.0050060987 0.096064754
0.10130912 0.13943757 0.29890478 0.046188682 -0.25111896 0.1905283 -0.15414768 0.0015444881
-0.0971539 0.20666894 -0.1735889 0.07612933 -0.06688281 0.11816162 -0.05809529 0.10477079
-0.07813859 0.020860722 0.14240105 -0.08015525 -0.12685636 -0.28019413 0.07992437 0.122928634
0.12526533 -0.12647073 0.023461184 -0.32610238 -0.038161214 -0.22914761 -0.21582004 -0.10903728
0.24924593 0.2283629 0.036097147 0.21387324 0.25118774 -0.1514267 -0.04625372 0.012361936
0.15098706 -0.07915696 0.10955663 0.052096277 0.0460696 -0.073536284 0.10612045 0.11490997
-0.007506245 0.04846319 0.19472311 -0.14159466 -0.004248472 -0.16884778 -0.3348993 -0.18929788
-0.3579413 -0.079742424 0.15287015 -0.11764028 -0.31209773 0.11985163 -0.18042338 0.17714645
-0.28665075 0.0006392754 0.05312634 -0.09494702 -0.1245442 0.009267704 -0.0919201 -0.11798019
0.28428748 -0.11203386 -0.0101611195 -0.23675199 -0.02654609 0.11026074 0.19937788 0.2179347
0.27861652 -0.2521241 -0.22615921 -0.26464772 0.20742321 0.32289433 0.17908533 -0.24437392
-0.027429974 -0.0882423 -0.15916993 -0.22487229 -0.19637096 -0.31204498 0.036095805 0.09057289
0.20840196 -0.084737346 -0.02628019 0.12617114 -0.23936108 -0.101036906 0.07127757 0.059975967
0.2496593 -0.15388164 -0.124083735 -0.032104254 -0.2771488 -0.13657379 -0.09707793 -0.23298846
0.2207032 -0.15674682 -0.13116354 0.10192054 0.14179218 -0.24693789 -0.25420564 0.09859731
0.2308381 0.12422623 0.03198672 0.07255712 -0.023543376 0.3172523 -0.3869808 0.03839025
-0.23013799 0.08796141 -0.072776094 0.076809704 0.26250982 0.17921808 0.20979145 0.10700695
-0.15574104 0.22013979 0.12255585 -0.2458002 0.06159293 -0.23846433 0.031176088 0.08095272
0.13434047 0.0074417735 0.32677484 0.05411595 -0.1300819 -0.009931891 -0.14744057 -0.084669136
-0.07223619 0.18168569 0.2326476 -0.12759535 -0.23508264 -0.15508473 0.05612571 0.026921717
-0.25359046 -0.18211561 0.22810398 -0.14159735 0.26469985 0.11847074 0.17953937 -0.15020648
0.36583248 0.08610106 0.045738272 0.203275 -0.13996838 -0.05291993 0.1579331 0.13500105
-0.025302103 -0.2751394 -0.15809146 -0.16689461 -0.061584596 -0.09533241 0.23339312 0.008854297
-0.0717065 -0.13212602 -0.13614725 0.20667945 -0.21117811 0.045368265 -0.2954427 -0.16390736
0.123190545 0.15888236 -0.19106561 0.008318567 -0.066323765 -0.16608723 -0.25384322 0.18163852
-0.16891652 0.050422832 -0.29122728 0.06337528 0.2801581 0.027257612 0.042863324 0.27677342
0.26114222 -0.0810932 -0.12991036 -0.08538986 0.12013099 -0.20111202 0.038471855 -0.23239629
-0.07229883 0.33290103 0.22974026 0.11355372 0.1714039 -0.12648197 -0.1548655 -0.17226654
-0.022132322 -0.14195263 -0.05653175 -0.29022595 0.30803508 -0.18927279 0.16965152 -0.043877862
0.2656059 -0.055368528 -0.2265803 -0.1427773 0.011795748 -0.21367273 0.1518921 0.32248494

transformer.layers.1.linear1.bias f4 [128]
00000000: 2a43 043c a629 8ebd 09b7 713c 5bf6 efbc
00000010: 6b88 01be 54b7 9c3d 82b4 d1bd af84 4d3d
00000020: 7243 38bd 3a5e 8e3d 1656 73be 8edc 253e
00000030: 1580 83be fe51 b03e 0b38 953e 97c8 e2bd
00000040: 62aa 5dbe 713f f43d 659f a63d 1a95 a6be
00000050: da6b 9ebd eab4 333e 811a 93bd e21f b23d
00000060: 6f13 1bbe 8dcb c8bb a770 513d 3eaa 7fbe
00000070: 04b6 2bbe 07a2 933d 0120 373e 7ccb 1bbe
00000080: e971 8b3e 7efc 883e 219e ea3d 99ea dcbd
00000090: 0e52 af3b a02b bb3d c0bb 46bd 819e 9fbb
000000a0: 0e3a 663e 1181 9abe ee58 50be 4464 10bd
000000b0: acef 7f3b 60d0 83be 2ae6 ffbd 95a3 aebd
000000c0: eb23 a23d e1e6 8dbe 8b72 80bd 7118 a43d
000000d0: 225c c33d 4db8 6a3e 8bcb 9c3e 6c1b aebd
000000e0: cd65 89be 0adb 49be 3096 593e 6c0a 6c3d
000000f0: 1a3e e6bd 2c73 efbd d758 53be 72b9 f63d
00000100: fcf4 493d 8a14 25be 23ef 4ebd b90c 65bc
00000110: ef18 e0bd d4a6 e5bd 0c2c 86be f5d6 d239
00000120: cb8f 6bbd 4141 aa3d abca 523e c904 e6bd
00000130: f637 073e abd7 20be 3d6c 5d3e c581 6abd
00000140: 9cc1 533d d443 953e ff28 233e e5fc 543e
00000150: d67b 67be 8357 4b3e 25e0 81be e541 693e
00000160: c412 813d 8c36 03bb 3ad4 2a3e 5aeb e63d
00000170: 4fee d83d 8e95 26be b223 febd 61f5 593e
00000180: 4dc9 3b3e 9308 1bbd 06dc 53bd 959b d03d
00000190: a668 23bc 021d c0bd c44a 313e bc12 1f3c
000001a0: 5c4a 4f3d 7d28 ecbd 7ef2 9fbe 1012 7bbd
000001b0: 62c7 933c c817 9a3e 829a 4bbe 04d8 92bd
000001c0: 8640 723d a841 4fbe 1b02 47bd 0da9 1d3e
000001d0: 288b b1bd 8b47 913e 0448 f9bd 2072 773e
000001e0: a082 25bd 63ef 213e 9b2d 663d ad4e b23d
000001f0: a90a cc3b 843d 4fbe 6b06 e1bc b564 16bb
0.008072654 -0.069415376 0.014753112 -0.029292276 -0.12649696 0.076521546 -0.10239507 0.050175365
-0.044986196 0.06951566 -0.23763308 0.16197416 -0.25683656 0.34437555 0.2914432 -0.11073416
-0.21647027 0.11926163 0.08135871 -0.3253563 -0.07735415 0.17549482 -0.071827896 0.086974874
-0.15144132 -0.006127781 0.051132824 -0.24967286 -0.16768652 0.07208639 0.17883302 -0.15214342
0.27235344 0.26755136 0.11455942 -0.107869335 0.005350358 0.0913918 -0.048518896 -0.00487119
0.22483084 -0.30176595 -0.20346424 -0.03525187 0.0039052768 -0.25744915 -0.12495072 -0.085272945
0.07917007 -0.2771521 -0.06271847 0.08012474 0.09539057 0.22921868 0.3062404 -0.08501324
-0.2683548 -0.19712463 0.21248698 0.057627127 -0.11242314 -0.11691889 -0.20639358 0.1204709
0.0493059 -0.16121116 -0.050521027 -0.013980084 -0.10942256 -0.112134606 -0.2620548 0.00040214477
-0.05751018 0.083132274 0.20585124 -0.112313814 0.13204941 -0.15707271 0.21623321 -0.057252664
0.051698312 0.2915331 0.15933608 0.20799597 -0.22605833 0.19857602 -0.2536632 0.22779043
0.063024074 -0.0020021526 0.1668252 0.112753585 0.10592329 -0.16267988 -0.12409152 0.21285011
0.18338509 -0.037849974 -0.051723503 0.10185925 -0.009973681 -0.09380533 0.17313677 0.0097090565
0.050608024 -0.1153116 -0.31239694 -0.061296523 0.01803941 0.3009627 -0.19883159 -0.07170108
0.059143566 -0.2023989 -0.048585992 0.15396519 -0.0866912 0.28374895 -0.12171939 0.24164629
-0.040407777 0.15813975 0.056195837 0.087064125 0.0062268567 -0.2023831 -0.02746888 -0.002294821

transformer.layers.1.linear2.weight f4 [9, 128]
00000000: 0a9e 40bc cb8f 8e3d d327 88bc 1466 003c
00000010: c0a8 37bc 23a8 3f3d 5dff 2b3d e9c6 283c
00000020: 877f 9a3c 101a 4dbd 936a bdbd dc28 ccbb
00000030: d117 273c 9b19 c9bc 9b54 04bc 1c16 2fbc
00000040: ad77 7abd 4fdf 903d c243 8abd 45b1 87ba
00000050: 2d41 343d c494 a2bd c098 203d f275 5a3d
00000060: 33b5 9c3d 4eaf 803c 7607 b1bd 0ac3 4e3b
00000070: 9d44 9d3d 165f a6bd 618e eabc 5567 4dbd
00000080: 3a67 c93c 9726 803d ab7f 40bd cc00 713d
00000090: a219 05bd 4ef8 e9bd 33c9 bf3d 49b0 59bd
000000a0: d5e8 403d 9238 8f3d 5103 db3d 43f1 da3c
000000b0: ff83 dd3c 8891 12bd 5fc9 9e3d 8d31 c23a
000000c0: 208a d1bd 33c5 843d 9448 303d 19db 1bbc
000000d0: 9915 f33c a277 823d 3feb 21bd 3688 0a3d
000000e0: 8594 6e3d b98d 1f3d 114d 8d3d 2ed0 afbd
000000f0: fb28 9b3d 58f0 ec3c d770 053c a47d 44bd
00000100: b0b9 e13c fe0f 88bd b556 563c 1432 603c
00000110: 7110 9bbd cdab 933c 1fde 9d3d e2bb e23c
00000120: 9fd5 28bd b781 dd3c a565 d8bc 44db b1bc
00000130: 920f b93c 90c0 42bd 409c a2bd f659 083d
00000140: 50f9 933d 94fb adbd 6005 0abd 01f1 61bd
00000150: 446e 683d e685 07bd 13cf 0abe 758a 023d
00000160: c1db a8bd 6775 bfbc d9e9 933d 01c5 2a3d
00000170: 15ff 1ebd 6fd1 7c3d 6784 21bc 649b 55bc
00000180: 2730 b3bd f79f cf3d 000e bdbd 1f53 d7bc
00000190: d673 7abd fe5b c6bc 8b0c cb3c fe5d e43c
000001a0: 77bb ea3c 637e 33bc 6137 78bd f48f 933a
000001b0: 70da 753d 9b48 0f3d a788 d1bd 878d 2dbd
000001c0: ea0d 09bd e3c1 bebd 36af 7d3b f501 febb
000001d0: de44 21bd 8637 2a3d 6aa4 453d 407d 783d
000001e0: 3a0a 1e3d c01a 5e3d 3aa0 2c3d c043 54bd
000001f0: b039 46bd 0aa3 73bd 2b3f 69bd fc4e 6cbd
00000200: a5a4 1d3d c64d f2bc 2db6 56bd 6b3c 56bd
00000210: 613d d73d da25 6dba aad3 d33c c6d2 253d
00000220: fdc9 5e3d d161 03bd ade5 9ebc c0de 04bc
00000230: f7a9 2dbd ed89 5d3d 8c35 b43c 145a aa3c
00000240: 415a 6c3d 4251 a0bc a155 b6bc 0aad 3cbc
00000250: 6570 3abd 4ee1 b43d f0ee 82bc bd73 763d
00000260: da7d 94bd 8182 48be d5be c53c 92c4 b4bc
00000270: 100b 13be 7592 543c 4a31 acbd a7f3 17bd
00000280: 2445 573c ae5f 433d d31e e1bc 873c 9dbd
00000290: fffe 853d 76df e23d 133d 4dbe b837 163d
000002a0: 052d 4cbc a21a 0bbd 8616 3bbe 9ef7 13be
000002b0: 16d4 9f3b 24be 90bc 6631 89bc 9dad 5abc
000002c0: 5490 653d 0912 9cbd 5f2d 193d fd12 7dbd
000002d0: af95 c93c a640 76bd 0300 be3b 0061 773d
000002e0: e8b6 54bd cde6 82bc 8dba 0d3c 8e8b e33d
000002f0: aeba c8bd 1846 7c3c 2af7 d0bd 559d 2e3e
00000300: bea2 0f3d f988 303d cdfa 95bc 117d 153e
00000310: 3c7d 863e 56fc 1dbe 29b5 00be 71d6 f7bc
00000320: 090d 2d3d 5944 623c 53dc 96bc bf54 c53d
00000330: 3d77 923d 2e50 c83d e1d2 43bd 2f85 92bd
00000340: 108c 62bc a9ad f5bd 0cbf 063e 1fc6 20bd
00000350: 0a2f e6bd 4194 f03c e04e 033e 0be0 873c
00000360: 039e a0bd f0f0 0fbe 1aa4 2a39 c402 a33c
00000370: 5e53 fa3c bea6 233e f48b 8cbd 37f5 553c
00000380: bed5 17bc 80be 23bd 0074 1d3c 2fa5 19be
00000390: ebd5 203d 79d7 973d a471 533d 0594 cb3d
000003a0: 04a2 e6bc eba8 c13b f3c0 213c b973 dd3c
000003b0: f5ed 31bd 0969 b03d b29b b73d a1a2 833d
000003c0: 1936 013d cd85 2dbd 85cc 5a3d b72c 403d
000003d0: d40e 053e 3c72 60bd 2f99 d13d 473b 57bd
000003e0: 5c32 a6bd d29a 61bc e783 dcbd 0907 44bc
000003f0: 0560 5a3c 8035 82bd 493b 5abd d942 fc3d
-0.011756429 0.0696102 -0.016620552 0.007836837 -0.011209667 0.046791207 0.04199158 0.01030133
0.018859638 -0.050073683 -0.09248843 -0.0062304568 0.010198549 -0.024548342 -0.008076812 -0.010686424
-0.061149288 0.07073843 -0.06751205 -0.0010352513 0.04400747 -0.07938531 0.039208174 0.053335138
0.076517485 0.015708592 -0.08644001 0.0031549358 0.076791026 -0.08123605 -0.028632345 -0.050147373
0.024585355 0.062573604 -0.046996754 0.05883865 -0.03249515 -0.114243135 0.093645476 -0.053146634
0.047097046 0.06993212 0.10693992 0.02672637 0.02704048 -0.03578332 0.07753252 0.0014815793
-0.102314234 0.06482925 0.043037966 -0.009512686 0.029673385 0.063704744 -0.03953099 0.033821307
0.058247108 0.038953517 0.06899465 -0.08584629 0.07576176 0.028923199 0.008144579 -0.047971383
0.027554363 -0.06643675 0.013082196 0.013683815 -0.07571495 0.018026257 0.07708382 0.02767748
-0.04121935 0.027039392 -0.026415655 -0.021711 0.022590432 -0.047546923 -0.079399586 0.03328892
0.07225287 -0.0849525 -0.033696532 -0.05516148 0.056745782 -0.03308668 -0.13555555 0.031870324
-0.0824504 -0.023371411 0.07222337 0.041691784 -0.038817484 0.06172317 -0.009858227 -0.013037536
-0.08749419 0.10137933 -0.09231186 -0.026284752 -0.061145626 -0.024213787 0.024786254 0.02787685
0.028653843 -0.010955426 -0.06059969 0.0011258111 0.06002277 0.03498135 -0.102311425 -0.0423713
-0.033460535 -0.09314325 0.003870917 -0.007751698 -0.039372317 0.041556858 0.0482525 0.060666323
0.03858397 0.05422473 0.04214499 -0.051822424 -0.04839486 -0.059481658 -0.056945007 -0.057692513
0.038487095 -0.0295781 -0.05241983 -0.052303713 0.10509754 -0.0009046473 0.025857765 0.040484212
0.05439185 -0.032075707 -0.019396627 -0.008109748 -0.04239842 0.054086614 0.02199819 0.020794906
0.05770326 -0.019569997 -0.022257628 -0.011515865 -0.045517344 0.08832036 -0.015983075 0.06016897
-0.07250567 -0.19581033 0.024138847 -0.022066388 -0.14359689 0.012974371 -0.08407839 -0.0370976
0.013139043 0.04769867 -0.027480518 -0.0767756 0.06542777 0.11077778 -0.20042829 0.03667423
-0.012461905 -0.033960946 -0.18270311 -0.14449927 0.0048775775 -0.017668791 -0.016747188 -0.013347057
0.056045845 -0.076206274 0.037396785 -0.061785687 0.024607508 -0.060120247 0.0057983412 0.06039524
-0.051932245 -0.015979195 0.008650434 0.11110602 -0.09801231 0.015397571 -0.10203393 0.17052205
0.035067312 0.043099377 -0.018308068 0.1459849 0.2626742 -0.1542829 -0.12569107 -0.03025362
0.04224876 0.013810241 -0.018415606 0.09635305 0.07151649 0.09780918 -0.04780853 -0.07154309
-0.013827339 -0.11996014 0.13158816 -0.039251443 -0.11239441 0.029367568 0.12823057 0.016586324
-0.07842638 -0.14056754 0.00016273596 0.01989878 0.03055733 0.15981576 -0.068626314 0.013058952
-0.009267269 -0.039976597 0.009610176 -0.15004419 0.039266508 0.07414145 0.051622048 0.09940342
-0.028153427 0.005910029 0.009872663 0.02703272 -0.043439824 0.08613784 0.089652434 0.064275034
0.031545732 -0.04236393 0.0534177 0.046917643 0.12993938 -0.054796442 0.102342956 -0.052546766
-0.08115074 -0.013769822 -0.10767346 -0.011964568 0.013328557 -0.063578606 -0.053279195 0.12317438
