checkpoints/ensemble_refiner_1s_2labels_2025-07-07-124424.pth (torch, 64590 bytes, 32 tensors)

transformer.layers.0.self_attn.in_proj_weight f4 [18, 6]
-0.03172926 -0.0019509114 -0.035746742 0.062932834 0.098560564 -0.01775581 0.11224235 0.03180129
-2.432562e-13 0.09295555 0.026451008 -0.024781154 0.094087884 5.7036854e-14 -0.00033121754 -0.09092631
-0.0041291076 -0.020785956 -0.12234781 -0.111594856 0.03950742 -3.4283426e-07 -0.016235122 -0.060461387
0.021617312 0.0056845876 -0.09368999 3.9786082e-05 -2.4250225e-13 0.00205796 0.047737256 0.005963408
-0.020734526 0.0029038298 -3.3710247e-13 0.00037820113 0.09595663 -1.7217327e-13 -0.0050495677 -0.12039261
-0.020646507 -0.00019799793 -0.05514595 -0.11185147 0.089092575 0.00014929287 -0.08359283 2.9479685e-05
-0.05879073 -0.00012386173 0.028961584 -0.11677352 0.0015016965 0.021266505 -0.03700338 -2.0840162e-05
-0.047590148 0.00690607 0.06362942 3.0862903e-11 0.08657493 -0.060190845 -0.056615535 0.0016170879
-0.0037271092 0.06789096 -0.024237623 -0.037174497 -0.114479765 4.8019356e-06 0.005577907 0.08341002
0.23653322 0.8026467 0.025852473 0.053236317 0.07689095 0.0063224733 0.15164575 -0.39261195
0.43839228 0.4574486 0.0765281 -0.14255603 -0.22853218 -0.64618737 0.090958156 0.1503893
0.55130666 0.4164672 -0.089674115 0.120659605 -0.15070456 0.3084325 -0.06926007 -0.31423357
0.3462658 0.15691729 0.07822719 -0.1559551 -0.18242632 -0.310871 -0.12363109 -0.23688382
-0.080404036 0.2087394 0.4046182 0.4308025
00000000: 8af6 01bd b9b5 ffba 2d6b 12bd eee2 803d
00000010: 1fda c93d a274 91bc 51df e53d 1242 023d
00000020: eaf0 88aa 7b5f be3d c9af d83c d901 cbbc
00000030: 26b1 c03d 826f 8029 44a7 adb9 9337 babd
00000040: 774d 87bb 4f47 aabc 7d91 fabd d88b e4bd
00000050: 88d2 213d c80e b8b4 85ff 84bc 5ca6 77bd
00000060: ca16 b13c c745 ba3b 8ae0 bfbd fbdf 2638
00000070: 4284 88aa d7de 063b 2488 433d b168 c33b
00000080: 74db a9bc 2e4e 3e3b 96c5 bdaa 4c49 c639
00000090: e984 c43d 91d9 41aa d876 a5bb 6790 f6bd
000000a0: dd22 a9bc aa9d 4fb9 b8e0 61bd 6212 e5bd
000000b0: 2b76 b63d 808b 1c39 b832 abbd 244b f737
000000c0: 8cce 70bd e1e0 01b9 d840 ed3c f526 efbd
000000d0: 93d4 c43a 1837 ae3c db90 17bd e8d1 aeb7
000000e0: e3ed 42bd 504c e23b 2450 823d 8abc 072e
000000f0: 324e b13d ad8a 76bd b1e5 67bd 77f4 d33a
00000100: 8442 74bb 6a0a 8b3d fb8d c6bc 4944 18bd
00000110: 5e74 eabd 5020 a136 e0c6 b63b dfd2 aa3d
00000120: c435 723e 417a 4d3f 91c8 d33c 530e 5a3d
00000130: 0179 9d3d c02c cf3b 0649 1b3e 6f04 c9be
00000140: f474 e03e b436 ea3e c4ba 9c3d 35fa 11be
00000150: 5704 6abe 896c 25bf 4548 ba3d a7ff 193e
00000160: 6f22 0d3f 303b d53e 10a7 b7bd 621c f73d
00000170: 4c52 1abe ddea 9d3e 39d8 8dbd 39e3 a0be
00000180: c049 b13e edae 203e 9435 a03d b2b2 1fbe
00000190: f7cd 3abe 7c2a 9fbe 4c32 fdbd ac91 72be
000001a0: dfaa a4bd c8bf 553e 1e2a cf3e 2592 dc3e

transformer.layers.0.self_attn.in_proj_bias f4 [18]
0.0 0.0 0.0 0.0 0.0 0.0 0.0 0.0
0.0 0.0 0.0 0.0 0.07236979 -0.0034452872 -0.014470483 0.13108021
-0.06468586 -0.050440013
00000000: 0000 0000 0000 0000 0000 0000 0000 0000
00000010: 0000 0000 0000 0000 0000 0000 0000 0000
00000020: 0000 0000 0000 0000 0000 0000 0000 0000
00000030: 9d36 943d 54ca 61bb 9b15 6dbc e439 063e
00000040: 057a 84bd 309a 4ebd

transformer.layers.0.self_attn.out_proj.weight f4 [6, 6]
-0.27132535 -0.15664063 -0.03236288 -0.2748287 -0.28397882 -0.24561994 0.36378002 -0.24242474
-0.32346952 -0.1353742 -0.27008483 -0.23355408 0.2931362 -0.23609836 0.020577358 0.20061705
0.28018948 0.29715893 0.19970089 0.07335472 -0.28303534 0.06474512 0.14149293 0.020070232
-0.40215302 -0.013972762 0.12377203 -0.027379714 0.22647291 0.2627078 -0.17113504 0.116641104
-0.10538288 0.12753335 0.08799736 -0.1350067
00000000: 28eb 8abe 6766 20be f08e 04bd 59b6 8cbe
00000010: ac65 91be cb83 7bbe 6041 ba3e 313e 78be
00000020: cc9d a5be 899f 0abe 8f48 8abe cd28 6fbe
00000030: f315 963e c5c3 71be d991 a83c 8e6e 4d3e
00000040: ff74 8f3e 3725 983e 647e 4c3e 003b 963d
00000050: 02ea 90be 1799 843d 86e3 103e 546a a43c
00000060: 00e7 cdbe 03ee 64bc 317c fd3d 6c4b e0bc
00000070: 84e8 673e a381 863e 063e 2fbe 88e1 ee3d
00000080: fbd2 d7bd 1a98 023e f637 b43d 323f 0abe

transformer.layers.0.self_attn.out_proj.bias f4 [6]
-0.08997185 0.004098242 0.06724544 -0.0409858 -0.08075564 0.015888449
00000000: 2943 b8bd 8c4a 863b fab7 893d bae0 27bd
00000010: 3763 a5bd 7e28 823c

transformer.layers.0.linear1.weight f4 [128, 6]
-0.19227898 -0.1885434 0.3760553 -0.15081243 -0.119943246 0.18929558 -0.15442161 0.44292477
0.32457182 0.14188944 -0.30872703 -0.009542449 0.18397662 -0.07522028 0.3528832 -0.09579767
0.09397989 0.10400266 -0.13613065 -0.114593446 -0.051024888 -0.41183054 -0.021785086 0.24299516
0.054729052 0.16423985 0.09970406 -0.2082694 0.10424397 0.0031559605 -0.023993652 0.02114416
0.20508283 0.12422909 0.26985535 0.13664383 -0.29351476 0.2958001 0.109429196 0.2982604
0.111021 -0.26246887 -0.34493726 -0.18038607 -0.21526207 0.41800204 -0.017021336 0.1529946
-0.29293278 0.3270414 0.3162231 -0.24097568 -0.0445053 0.17230982 0.005451101 -0.22248267
0.19464862 0.2749627 0.18180346 -0.13567959 -0.017133629 0.21366607 0.20364465 0.32408562
0.12543651 -0.14212722 0.17813325 0.14076631 0.31857532 0.2393473 -0.026246492 0.38688943
-0.46228686 0.3469678 -0.10184429 -0.025803903 0.1446822 -0.11346278 -0.10971693 -0.111147694
0.21587087 -0.025415756 -0.24917711 0.35044345 -0.28589857 -0.030184474 -0.056939088 -0.18724874
-0.37156913 -0.029703872 0.19827634 -0.4198088 -0.0977863 0.032717958 0.22777747 -0.29306266
-0.26001558 -0.14356287 -0.3521616 0.23289213 -0.29584795 0.14892322 0.32397926 -0.25962576
0.21327238 0.065519184 0.028283123 0.030184975 0.05042351 -0.31929508 -0.3384061 -0.049212243
0.192815 -0.3425817 -0.020642737 0.06102102 -0.24435881 0.29447225 0.47166583 -0.5287604
-0.15145095 -0.2850877 0.0010387007 0.33255148 0.50673836 -0.08778486 -0.04452811 0.28832522
0.2999937 0.0715792 0.19305466 0.19721478 -0.15178388 -0.048583318 0.27146763 0.30565065
-0.00922265 -0.21347019 -0.020014837 -0.16075025 0.34409714 -0.042375974 -0.23108095 0.20995605
-0.38360855 0.55620605 -0.2555061 -0.12826039 0.048342638 0.10390692 0.34497342 -0.35884807
0.33208343 0.12067388 -0.093406774 0.27201593 0.030856086 -0.09941672 -0.3851255 0.1111541
-0.26015213 -0.30463412 -0.27854675 0.34562135 -0.0068703354 -0.112115584 -0.054472774 -0.32065558
0.17242686 0.13205336 -0.27084967 -0.03194041 -0.31446216 -0.19985603 -0.027041804 -0.15461662
-0.26393208 0.013801402 0.10399749 0.18170926 -0.25396892 0.38679132 -0.15044233 0.10920054
-0.27679065 -0.26716673 0.10152792 -0.13732444 -0.035501435 0.27470657 -0.20319441 -0.23547843
0.086890705 -0.088524826 -0.181186 -0.21487133 0.2943073 -0.09629665 0.20024784 0.25002337
-0.105156146 -0.22987792 -0.14715454 -0.15576063 -0.18059792 -0.17179951 -0.3536727 0.19135067
0.31157622 0.11380177 -0.028424688 0.100521535 -0.32575095 0.12712851 0.19882171 0.03250483
-0.0071098814 -0.02838024 0.2890763 -0.20550439 -0.3053457 0.278215 -0.061769594 -0.100553416
0.2472163 -0.033761065 0.21551748 0.2981701 -0.056825586 0.09077632 -0.017812004 0.27131525
-0.3288091 0.22014156 -0.5078197 0.3501374 0.16321445 0.30288434 -0.2934447 0.015056507
0.17287952 -0.17161244 0.30766603 -0.013485902 -0.27057523 0.28932658 0.31210658 -0.014042714
0.025435325 0.008515928 -0.18745294 0.002644737 0.102810636 -0.026899964 -0.12445151 0.04294615
00000000: c8e4 44be 8511 41be 528a c03e 936e 1abe
00000010: cea4 f5bd b3d6 413e b320 1ebe 09c7 e23e
00000020: 472e a63e 774b 113e 7811 9ebe ef57 1cbc
00000030: 5e64 3c3e 170d 9abd 1bad b43e 9231 c4bd
00000040: 8778 c03d 59ff d43d d565 0bbe f8af eabd
00000050: 79ff 50bd 74db d2be a376 b2bc b9d3 783e
00000060: 922b 603d 7e2e 283e a431 cc3d 9344 55be
00000070: dd7d d53d 3bd4 4e3b 568e c4bc 8436 ad3c
00000080: 3c01 523e d26b fe3d 7b2a 8a3e 5cec 0b3e
00000090: 9147 96be 1c73 973e 6a1c e03d 96b5 983e
000000a0: fa5e e33d 5262 86be 9e9b b0be 20b7 38be
000000b0: a96d 5cbe 5d04 d63e 5470 8bbc 9eaa 1c3e
000000c0: 49fb 95be f871 a73e ffe7 a13e 54c2 76be
000000d0: 304b 36bd fc71 303e 269f b23b 7fd2 63be
000000e0: f851 473e e9c7 8c3e b02a 3a3e 97ef 0abe
000000f0: d35b 8cbc 47cb 5a3e 3988 503e 8dee a53e
00000100: 6e72 003e cc89 11be 9068 363e 0b25 103e
00000110: 4e1c a33e 7517 753e e202 d7bc 5f16 c63e
00000120: ddb0 ecbe c3a5 b13e bd93 d0bd b562 d3bc
00000130: 9227 143e 2d5f e8bd 45b3 e0bd 67a1 e3bd
00000140: 410d 5d3e b434 d0bc 4928 7fbe 536d b33e
00000150: 4c61 92be 6e45 f7bc f638 69bd 22be 3fbe
00000160: 4f3e bebe 8955 f3bc f408 4b3e 2ef1 d6be
00000170: 2f44 c8bd 4403 063d 7f3e 693e 4f0c 96be
00000180: c320 85be 2502 13be 864e b4be 467b 6e3e
00000190: 6279 97be 547f 183e 9ce0 a53e abed 84be
000001a0: 1364 5a3e ec2e 863d 02b2 e73c 7b46 f73c
000001b0: e288 4e3d a57a a3be 9043 adbe c792 49bd
000001c0: 4c71 453e de66 afbe f51a a9bc 2df1 793d
000001d0: 3239 7abe 11c5 963e 2f7e f13e d75c 07bf
000001e0: f515 1bbe 04f7 91be 0325 883a 3044 aa3e
000001f0: 9bb9 013f 8cc8 b3bd 1c63 36bd 5d9f 933e
00000200: c698 993e 1e98 923d 1fb0 453e acf2 493e
00000210: 3c6d 1bbe 4dff 46bd cefd 8a3e 3e7e 9c3e
00000220: 991a 17bc ee97 5abe 28f6 a3bc b79b 24be
00000230: 802d b03e 6e92 2dbd 7ca0 6cbe b8fe 563e
00000240: 5768 c4be 8563 0e3f b2d1 82be b156 03be
00000250: ee02 463d 27cd d43d 5ba0 b03e efba b7be
00000260: d706 aa3e de23 f73d 0d4c bfbd ac45 8b3e
00000270: e7c5 fc3c fe9a cbbd 2b2f c5be c3a4 e33d
00000280: a932 85be 01f9 9bbe ae9d 8ebe 48f5 b03e
00000290: 8d20 e1bb db9c e5bd d81e 5fbd f82c a4be
000002a0: ab90 303e ff38 073e cfac 8abe f3d3 02bd
000002b0: 2f01 a1be 0fa7 4cbe c686 ddbc d253 1ebe
000002c0: 1b22 87be 471f 623c a3fc d43d fe11 3a3e
000002d0: 3708 82be 8309 c63e 8e0d 1abe 88a4 df3d
000002e0: 81b7 8dbe 14ca 88be dfed cf3d c79e 0cbe
000002f0: f469 11bd 57a6 8c3e 3212 50be 4221 71be
00000300: c1f3 b13d 814c b5bd d388 39be 3b07 5cbe
00000310: 72af 963e 2e37 c5bd c50d 4d3e 1003 803e
00000320: 1b5c d7bd 1e65 6bbe aeaf 16be b77f 1fbe
00000330: a9ee 38be 36ec 2fbe 9714 b5be 6ef1 433e
00000340: eb86 9f3e e710 e93d e4da e8bc 3cde cd3d
00000350: d4c8 a6be fa2d 023e eb97 4b3e c923 053d
00000360: 02fa e8bb ad7d e8bc cf01 943e be6f 52be
00000370: 4656 9cbe 3272 8e3e 1d02 7dbd f3ee cdbd
00000380: 4526 7d3e 0b49 0abd 9db0 5c3e c0a9 983e
00000390: f2c1 68bd efe8 b93d 7bea 91bc d5e9 8a3e
000003a0: ab59 a8be ca6c 613e 7900 02bf 3645 b33e
000003b0: b021 273e a813 9b3e 623e 96be 91af 763c
000003c0: 5407 313e 2cbb 2fbe 6786 9d3e f9f3 5cbc
000003d0: d688 8abe 9d22 943e 6fcc 9f3e 6913 66bc
000003e0: be5d d03c 6486 0b3c aaf3 3fbe 5353 2d3b
000003f0: 628e d23d 505d dcbc 6fe0 febd 4de8 2f3d

transformer.layers.0.linear1.bias f4 [128]
-0.3187458 -0.08833512 0.10443813 0.30594465 0.26866347 -0.27406415 -0.028719021 -0.39426568
0.002519526 -0.11612107 0.26060414 0.03217679 -0.056724828 -0.23756854 0.14649616 0.27537692
0.22705416 0.33227775 -0.12154709 0.14082627 0.14506808 0.2772744 -0.04157401 -0.097112074
-0.07242266 0.2995491 -0.12435504 0.019418487 0.1953842 -0.02842194 0.23193626 -0.053711824
-0.01964728 0.10052463 0.14440688 0.07044271 -0.09964446 -0.2720117 -0.33547467 -0.29104242
0.11470512 0.1534214 0.008734008 -0.36612985 0.24332778 0.09191792 0.13731132 -0.04167184
0.21693076 -0.021341978 0.1254036 0.20863599 -0.24479136 -0.040303573 -0.2313663 -0.09478492
-0.34423003 0.1256117 -0.41199765 0.16458939 0.18618411 0.21737115 0.19137177 0.24780698
-0.2692677 -0.0631209 -0.12804975 -0.021761267 0.15001497 -0.21975926 0.12970199 0.23842481
0.19262214 -0.31004927 0.1788415 0.23098536 -0.0028087562 0.28453618 0.16819869 -0.16575682
0.17344044 0.065653585 -0.27406132 -0.1421988 0.10471634 -0.15272768 0.3089026 0.023853756
-0.26923415 -0.1632472 -0.26292828 -0.38557175 -0.25234506 -0.02170246 -0.29574564 0.056227494
-0.4494873 0.24167366 -0.22396041 -0.04302537 -0.40664747 -0.12617871 -0.2892823 -0.015994472
0.26395965 0.33516532 -0.006906294 -0.12338166 0.1581701 -0.31938004 -0.019885223 0.3194578
0.34759527 0.1537813 0.01643557 -0.35306278 -0.23640583 -0.030371362 -0.23743546 0.12409061
0.12463747 -0.12498292 0.19652644 0.21693821 -0.1854475 0.062407568 -0.0042299246 0.002202912
00000000: a632 a3be 0be9 b4bd a9e3 d53d c7a4 9c3e
00000010: 428e 893e 2352 8cbe 2744 ebbc 31dd c9be
00000020: a21e 253b e2d0 edbd e86d 853e cfcb 033d
00000030: 4b58 68bd 2b45 73be 1703 163e 34fe 8c3e
00000040: e380 683e 4f20 aa3e aeed f8bd c334 103e
00000050: ba8c 143e e9f6 8d3e 8249 2abd b2e2 c6bd
00000060: 5552 94bd 805e 993e dbad febd 8513 9f3c
00000070: cc12 483e 21d5 e8bc b380 6d3e ee00 5cbd
00000080: 55f3 a0bc dbdf cd3d 66df 133e 4444 903d
00000090: 6512 ccbd 1e45 8bbe 56c3 abbe 8303 95be
000000a0: 85ea ea3d 801a 1d3e 1619 0f3c 5f75 bbbe
000000b0: eb2a 793e 763f bc3d 579b 0c3e 17b0 2abd
000000c0: 1923 5e3e 5fd5 aebc cd69 003e aca4 553e
000000d0: 96aa 7abe 5c15 25bd 4aeb 6cbe 991e c2bd
000000e0: eb3e b0be 5aa0 003e 5bf1 d2be 1f8a 283e
000000f0: 0ca7 3e3e 8b96 5e3e f6f6 433e 1dc1 7d3e
00000100: 75dd 89be 8845 81bd 791f 03be af44 b2bc
00000110: 869d 193e 9208 61be 99d0 043e a225 743e
00000120: bd3e 453e c7be 9ebe 3a22 373e 6d87 6c3e
00000130: 1c13 38bb baae 913e 473c 2c3e 28bc 29be
00000140: 5f9a 313e 6375 863d c451 8cbe 909c 11be
00000150: 8575 d63d a564 1cbe 7b28 9e3e f468 c33c
00000160: 0fd9 89be 462a 27be 899e 86be a969 c5be
00000170: 5f33 81be 5bc9 b1bc f96b 97be cd4e 663d
00000180: 3323 e6be 4d79 773e e155 65be 5f3b 30bd
00000190: 1934 d0be fe34 01be cf1c 94be d706 83bc
000001a0: b825 873e ca9a ab3e 314e e2bb 86af fcbd
000001b0: 58f7 213e c885 a3be 56e6 a2bc f98f a33e
000001c0: 02f8 b13e d878 1d3e e3a3 863c a5c4 b4be
000001d0: 5f14 72be 5dcd f8bc 4822 73be 3823 fe3d
000001e0: ee41 ff3d 0cf7 ffbd 3a3e 493e 0d25 5e3e
000001f0: f3e5 3dbe 149f 7f3d 2e9b 8abb bb5e 103b

transformer.layers.0.linear2.weight f4 [6, 128]
-0.11911403 -0.11589805 -0.08587903 0.023099346 -0.013274599 -0.054997146 -0.064212486 -0.1114054
-0.06675078 -0.034756858 0.020899279 -0.009383097 -0.2105342 0.014113477 -0.04219104 0.07340459
0.011364587 -0.10495593 0.16437256 0.14737731 0.12614408 -0.020355089 0.03634091 0.015045375
-0.25429907 -0.07609486 -0.14517748 -0.021314772 -0.027801136 0.03431557 -0.061482467 -0.10624384
0.0021295352 -0.07957583 -0.100128256 -0.104951404 0.061945815 0.018280221 0.07719404 -0.25310805
0.034650788 0.007089967 0.008176052 0.09909662 -0.1191062 0.06287511 -0.03847036 0.0256119
0.15119871 0.069778174 -0.15154144 0.06787464 -0.021413006 0.10748287 0.038490556 0.09370893
-0.0012911814 0.031276915 0.08426492 -0.031307433 -0.04248417 0.049992576 -0.11825655 -0.026417326
0.030255884 -0.030635182 -0.07189655 -0.016621493 0.009929568 0.058390766 0.044400424 0.059057977
0.05070941 0.03190656 -0.10967915 0.0059876963 -0.024725268 0.016375994 -0.011511039 0.02211397
0.017690394 -0.08003575 -0.0019679768 0.17766239 -0.12817042 0.0760396 0.1003505 0.057734415
-0.17039067 0.018721903 -0.29471618 0.1445588 0.006419648 3.9039074e-13 -0.33720466 0.11752717
-0.27024862 -0.009247907 0.049309768 -0.040737364 0.080597326 0.017865824 0.09781588 -0.100746915
-0.01878939 -0.04113613 0.031810492 0.086995564 0.0041747503 -0.18748462 -0.10834975 -0.022358809
0.12700176 0.10903698 0.004644285 0.10503837 0.10631254 -0.0001708183 0.10307384 -0.066353254
-0.03604092 -0.033055454 -0.00082048756 -0.11881142 0.02963325 -0.11613973 0.018987412 0.099877656
0.040706996 0.21801117 -0.027573563 -0.0346524 -0.030228034 0.02720557 -0.40498394 0.040186796
0.05427062 -0.074902475 0.035802297 0.06411601 -0.4468088 -0.0690523 0.0077830055 -0.113003254
0.019191768 -0.051200137 -0.04214261 -0.19710548 -0.1524621 0.0509482 0.06594736 -0.046692822
0.14918147 0.011546287 0.008887219 -0.017737154 -0.028334534 0.02979562 -0.06604549 0.06500534
0.010786968 0.009546287 0.07336037 0.003371653 -0.034775794 -0.04093764 0.023978375 0.11117066
-0.007420004 -0.042088363 -0.05667809 0.020581923 0.06188266 0.048907008 0.1015557 -0.08494075
0.010747328 -0.004228246 -0.0066555506 -0.08927316 -0.03346405 -0.01973956 0.08317919 -0.034847155
0.02116974 0.12882774 -0.09421032 -0.040686086 0.090275675 -0.0074159913 0.013223968 -0.030452374
0.118743576 -0.0035034525 0.0057335147 -0.0130442735 0.020308739 0.0994228 -0.009721968 -0.036375772
-0.04263422 0.0069838995 0.008976838 0.015253627 0.014429456 -0.059975877 -0.0062554376 0.07266657
0.09303351 0.0802333 0.016958775 -0.1403962 -0.00036732617 0.04258924 -0.09186635 -0.05041151
0.017859587 0.018437214 -0.12863101 0.01949784 -0.5218645 -2.0763046e-13 0.026398072 -0.18849748
0.31038088 0.048371654 0.021941416 -0.026528813 -0.18373786 -0.037274733 0.0054202313 0.021628752
0.07706746 -0.040203225 0.056024503 -0.122739375 -0.19271794 0.205078 -0.031136187 -0.075917095
-0.004996503 -0.036338042 -0.026560187 0.034254383 0.041887566 -0.00015007457 -0.01575886 -0.07200698
0.10765445 -0.1037791 -0.03420868 0.022181662 0.24664856 0.033143792 0.0050721616 0.089612566
00000000: 0ef2 f3bd f55b edbd 58e1 afbd d73a bd3c
00000010: b47d 59bc b044 61bd d681 83bd 8428 e4bd
00000020: a2b4 88bd 355d 0ebd f734 ab3c 90bb 19bc
00000030: 4796 57be 373c 673c 83d0 2cbd 2555 963d
00000040: 8832 3a3c 22f3 d6bd 4851 283e 14ea 163e
00000050: ea2b 013e b7bf a6bc 35da 143d e080 763c
00000060: 7d33 82be 9fd7 9bbd 68a9 14be 519c aebc
00000070: 35bf e3bc 7c8e 0c3d 0ad5 7bbd 5f96 d9bd
00000080: ac8f 0b3b a7f8 a2bd 0b10 cdbd c3f0 d6bd
00000090: e5ba 7d3d 67c0 953c e917 9e3d 6197 81be
000000a0: fced 0d3d f452 e83b d9f4 053c 2bf3 ca3d
000000b0: f4ed f3bd aac4 803d 1993 1dbd 0cd0 d13c
000000c0: d6d3 1a3e dce7 8e3d ae2d 1bbe dc01 8b3d
000000d0: 546a afbc fb1f dc3d 46a8 1d3d 78ea bf3d
000000e0: dc3c a9ba 391c 003d 1693 ac3d 393c 00bd
000000f0: e203 2ebd 04c5 4c3d 7d30 f2bd 2669 d8bc
00000100: 30db f73c a2f6 fabc 803e 93bd cc29 88bc
00000110: a0af 223c 282b 6f3d 38dd 353d c7e6 713d
00000120: acb4 4f3d 74b0 023d 769f e0bd 7034 c43b
00000130: a58c cabc f326 863c cc98 3cbc 5b28 b53c
00000140: 72eb 903c c9e9 a3bd 2cf9 00bb 21ed 353e
00000150: 1b3f 03be a6ba 9b3d 9084 cd3d ec7a 6c3d
00000160: e47a 2ebe ad5e 993c 0ae5 96be 3907 143e
00000170: e95b d23b 3cc5 db2a 17a6 acbe 16b2 f03d
00000180: 075e 8abe 8984 17bc 0af9 493d 39dc 26bd
00000190: 3610 a53d 595b 923c b153 c83d 6654 cebd
000001a0: 35ec 99bc 5c7e 28bd b84b 023d bb2a b23d
000001b0: 58cc 883b f8fb 3fbe 79e6 ddbd d229 b7bc
000001c0: c00c 023e c84e df3d 162f 983b 5b1e d73d
000001d0: 64ba d93d b01d 33b9 6118 d33d 37e4 87bd
000001e0: a59f 13bd 2865 07bd fd15 57ba 6753 f3bd
000001f0: 6ec1 f23c abda edbd 7d8b 9b3c a88c cc3d
00000200: 61bc 263d 523e 5f3e f4e1 e1bc adef 0dbd
00000210: c8a0 f7bc 37de de3c 0e5a cfbe e99a 243d
00000220: df4a 5e3d 7866 99bd 6ea5 123d 414f 833d
00000230: 1fc4 e4be 4b6b 8dbd 9508 ff3b 406e e7bd
00000240: 0e38 9d3c 3cb7 51bd bb9d 2cbd 05d6 49be
00000250: 061f 1cbe 0faf 503d 690f 873d f940 3fbd
00000260: 07c3 183e a32c 3d3c b39b 113c 824d 91bc
00000270: d31d e8bc f215 f43c dc42 87bd 8521 853d
00000280: d3bb 303c 0868 1c3c f63d 963d f3f6 5c3b
00000290: 1071 0ebd 3aae 27bd 4c6e c43c 71ad e33d
000002a0: 8123 f3bb d964 2cbd 4927 68bd 6c9b a83c
000002b0: ac78 7d3d b752 483d 6ffc cf3d 6af5 adbd
000002c0: 9015 303c 198d 8abb ce16 dabb d9d4 b6bd
000002d0: 9a11 09bd dcb4 a1bc da59 aa3d e4bb 0ebd
000002e0: 2a6c ad3c 6beb 033e 57f1 c0bd 74a6 26bd
000002f0: 74e2 b83d d801 f3bb 58a9 583c 4277 f9bc
00000300: d52f f33d 2e9a 65bb 35e0 bb3b a6b7 55bc
00000310: 835e a63c 2e9e cb3d e448 1fbc c3fe 14bd
00000320: 38a1 2ebd 32d9 e43b 9613 133c 59ea 793c
00000330: 8669 6c3c 44a9 75bd 6afa ccbb 36d2 943d
00000340: 5a88 be3d 5b51 a43d 21ed 8a3c 05c4 0fbe
00000350: af95 c0b9 0e72 2e3d 6d24 bcbd 4d7c 4ebd
00000360: 454e 923c a409 973c d9b7 03be efb9 9f3c
00000370: e998 05bf 68c5 69aa c540 d83c 7c05 41be
00000380: 3eea 9e3e 5b21 463d 7cbe b33c f452 d9bc
00000390: c725 3cbe 64ad 18bd 329c b13b c82e b13c
000003a0: 8bd5 9d3d 23ac 24bd f379 653d c85e fbbd
000003b0: da57 45be f8ff 513e 5111 ffbc 6c7a 9bbd
000003c0: b4b9 a3bb 33d7 14bd c094 d9bc 534e 0c3d
000003d0: 4c92 2b3d 565d 1db9 ba18 81bc 6578 93bd
000003e0: f079 dc3d 238a d4bd 671e 0cbd 51b6 b53c
000003f0: 7191 7c3e c9c1 073d 6034 a63b cb86 b73d

transformer.layers.0.linear2.bias f4 [6]
0.05437547 0.013060608 0.026896466 0.06983223 0.051372357 -0.07433554
00000000: d0b8 5e3d 29fc 553c fa55 dc3c 3304 8f3d
00000010: d26b 523d 3b3d 98bd

transformer.layers.0.norm1.weight f4 [6]
1.1052066 1.2108597 0.8741118 0.93055487 1.0889938 0.94399685
00000000: 6977 8d3f 73fd 9a3f cac5 5f3f d838 6e3f
00000010: 2664 8b3f c7a9 713f

transformer.layers.0.norm1.bias f4 [6]
-0.010977051 -0.00033888227 -0.055533096 -0.0017470812 0.03121574 -0.022972684
00000000: 17d9 33bc 02ac b1b9 ac76 63bd 51fe e4ba
00000010: 27b8 ff3c 3631 bcbc

transformer.layers.0.norm2.weight f4 [6]
1.092364 1.1231626 0.8679928 0.94677544 0.9987662 0.8722914
00000000: 95d2 8b3f cbc3 8f3f c734 5e3f e05f 723f
00000010: 24af 7f3f 7d4e 5f3f

transformer.layers.0.norm2.bias f4 [6]
0.009246566 0.009282686 -0.008227869 -0.026361883 0.043430764 -0.017695658
00000000: e97e 173c 6816 183c 2fce 06bc e0f4 d7bc
00000010: 75e4 313d 7cf6 90bc

transformer.layers.1.self_attn.in_proj_weight f4 [18, 6]
-0.03172926 -0.0019509114 -0.035746742 0.062932834 0.098560564 -0.01775581 0.11224235 0.03180129
-2.432562e-13 0.09295555 0.026451008 -0.024781154 0.094087884 5.7036854e-14 -0.00033121754 -0.09092631
-0.0041291076 -0.020785956 -0.12234781 -0.111594856 0.03950742 -3.4283426e-07 -0.016235122 -0.060461387
0.021617312 0.0056845876 -0.09368999 3.9786082e-05 -2.4250225e-13 0.00205796 0.047737256 0.005963408
-0.020734526 0.0029038298 -3.3710247e-13 0.00037820113 0.09595663 -1.7217327e-13 -0.0050495677 -0.12039261
-0.020646507 -0.00019799793 -0.05514595 -0.11185147 0.089092575 0.00014929287 -0.08359283 2.9479685e-05
-0.05879073 -0.00012386173 0.028961584 -0.11677352 0.0015016965 0.021266505 -0.03700338 -2.0840162e-05
-0.047590148 0.00690607 0.06362942 3.0862903e-11 0.08657493 -0.060190845 -0.056615535 0.0016170879
-0.0037271092 0.06789096 -0.024237623 -0.037174497 -0.114479765 4.8019356e-06 0.005577907 0.08341002
0.26461294 0.53132224 0.07261831 0.023706485 0.14200965 -0.02861003 0.1097146 -0.28689682
0.45705527 0.4063932 0.069727786 -0.16505162 -0.26721644 -0.3969748 0.016125007 0.2147524
0.39715305 0.4979937 -0.18880257 -0.07060107 -0.25415212 0.42756975 -0.0664585 -0.29686198
0.28845373 0.34981418 0.122443706 -0.19378674 -0.16622075 -0.35680348 -0.13152665 -0.10783061
-0.0795871 0.24467483 0.37651676 0.38496035
00000000: 8af6 01bd b9b5 ffba 2d6b 12bd eee2 803d
00000010: 1fda c93d a274 91bc 51df e53d 1242 023d
00000020: eaf0 88aa 7b5f be3d c9af d83c d901 cbbc
00000030: 26b1 c03d 826f 8029 44a7 adb9 9337 babd
00000040: 774d 87bb 4f47 aabc 7d91 fabd d88b e4bd
00000050: 88d2 213d c80e b8b4 85ff 84bc 5ca6 77bd
00000060: ca16 b13c c745 ba3b 8ae0 bfbd fbdf 2638
00000070: 4284 88aa d7de 063b 2488 433d b168 c33b
00000080: 74db a9bc 2e4e 3e3b 96c5 bdaa 4c49 c639
00000090: e984 c43d 91d9 41aa d876 a5bb 6790 f6bd
000000a0: dd22 a9bc aa9d 4fb9 b8e0 61bd 6212 e5bd
000000b0: 2b76 b63d 808b 1c39 b832 abbd 244b f737
000000c0: 8cce 70bd e1e0 01b9 d840 ed3c f526 efbd
000000d0: 93d4 c43a 1837 ae3c db90 17bd e8d1 aeb7
000000e0: e3ed 42bd 504c e23b 2450 823d 8abc 072e
000000f0: 324e b13d ad8a 76bd b1e5 67bd 77f4 d33a
00000100: 8442 74bb 6a0a 8b3d fb8d c6bc 4944 18bd
00000110: 5e74 eabd 5020 a136 e0c6 b63b dfd2 aa3d
00000120: 597b 873e bc04 083f e9b8 943d 1a34 c23c
00000130: fa6a 113e 955f eabc 0cb2 e03d 24e4 92be
00000140: 2603 ea3e c512 d03e 71cd 8e3d 4b03 29be
00000150: 98d0 88be 4840 cbbe 9718 843c 0ee8 5b3e
00000160: a557 cb3e 08f9 fe3e 7655 41be 4b97 90bd
00000170: 3a20 82be 6cea da3e 651b 88bd 4bfe 97be
00000180: 35b0 933e d81a b33e c4c3 fa3d 0870 46be
00000190: c635 2abe f2ae b6be ecae 06be 4bd6 dcbd
000001a0: 90fe a2bd 0a8c 7a3e cec6 c03e 8619 c53e

transformer.layers.1.self_attn.in_proj_bias f4 [18]
0.0 0.0 0.0 0.0 0.0 0.0 0.0 0.0
0.0 0.0 0.0 0.0 0.0116979545 0.024799874 0.017447365 0.008836124
0.020558883 0.030627063
00000000: 0000 0000 0000 0000 0000 0000 0000 0000
00000010: 0000 0000 0000 0000 0000 0000 0000 0000
00000020: 0000 0000 0000 0000 0000 0000 0000 0000
00000030: c7a8 3f3c 1b29 cb3c c7ed 8e3c 64c5 103c
00000040: 1a6b a83c 9be5 fa3c

transformer.layers.1.self_attn.out_proj.weight f4 [6, 6]
-0.056734968 -0.24304597 -0.12558584 -0.3194044 -0.20793353 -0.21621028 0.2580205 -0.18176334
-0.26057744 -0.15534678 -0.26043612 -0.099579215 0.17157046 -0.21300621 0.07092747 0.28826293
0.18928254 0.32205927 0.12657213 0.089178875 -0.2433907 0.027630547 0.100910336 -0.032465883
-0.33748114 -0.0032655022 -0.00057617924 -0.068371944 0.21378112 0.1518794 -0.29182896 0.1532763
0.02838137 0.14110339 0.08215584 -0.041526057
00000000: ed62 68bd 0be1 78be 9399 00be f988 a3be
00000010: 87ec 54be 3a66 5dbe 431b 843e 2b20 3abe
00000020: 686a 85be 3a13 1fbe e257 85be 30f0 cbbd
00000030: 2bb0 2f3e 4d1e 5abe 6c42 913d 3397 933e
00000040: 48d3 413e f4e4 a43e 209c 013e 6aa3 b63d
00000050: 693b 79be 7559 e23c 14aa ce3d f2fa 04bd
00000060: 54ca acbe 0902 56bb bc0a 17ba 9706 8cbd
00000070: 70e9 5a3e 4686 1b3e 9b6a 95be 76f4 1c3e
00000080: 0c80 e83c 687d 103e 5241 a83d 3a17 2abd

transformer.layers.1.self_attn.out_proj.bias f4 [6]
-0.04537693 0.0062789144 -0.016243946 -0.024606489 -0.0074843448 -0.0050792536
00000000: 29dd 39bd 5abf cd3b 0612 85bc 8c93 c9bc
00000010: 3c3f f5bb de6f a6bb

transformer.layers.1.linear1.weight f4 [128, 6]
-0.07811525 -0.36629495 0.3259786 -0.094924554 -0.1892536 0.26544395 -0.07570463 0.3508269
0.29351243 0.11674936 -0.24497434 -0.035403583 0.23280676 0.08566193 0.24339594 -0.045759954
0.08374682 0.20822012 -0.03427892 -0.17243576 -0.06266387 -0.3936947 -0.037786454 0.20311455
0.16614343 0.21788995 0.07556641 -0.19206019 0.100193374 0.044100445 -0.078356385 0.044508174
0.200401 0.12389525 0.31207702 0.1008151 0.019659778 0.18041013 0.08235095 0.26850224
0.119773045 -0.17561276 -0.3276252 -0.24234346 -0.21630985 0.4541623 -0.11343542 0.23916541
-0.35022834 0.23149642 0.33432546 -0.22474027 0.05414157 0.03752377 -0.008630631 -0.27404305
0.16298868 0.2725491 0.16550156 -0.09500647 -0.0802939 0.13651118 0.21520537 0.27778977
0.10710411 -0.14343736 0.25512806 0.043301474 0.3428055 0.22007377 0.05621117 0.3188432
-0.22914074 -0.022795284 -0.261488 -0.27630016 0.2307108 -0.016524699 -0.101111665 -0.22017515
0.25857273 -0.051988874 -0.23951134 0.2780604 -0.27909225 -0.108106025 0.015608362 -0.23805362
-0.32950294 -0.06311258 0.10631817 -0.30161515 -0.060801364 0.019056274 0.23394695 -0.2371265
-0.22146843 -0.23357494 -0.33379397 0.1971883 -0.31837073 0.15079671 0.2428365 -0.39405447
0.29142186 0.09396643 0.10120741 -0.084280916 0.059049405 -0.24463286 -0.3215762 0.05237603
0.1317761 -0.23647977 0.10406948 0.004457063 -0.27855006 0.33998534 0.39431226 -0.40663454
-0.1171089 -0.2553499 0.018677345 0.32674095 0.43909746 -0.04211513 -0.099397436 0.24228111
0.29319957 0.061209742 0.24705818 0.098084964 -0.038195856 -0.13913222 0.25539392 0.27134472
0.035274208 -0.13575284 -0.05018273 -0.068928815 0.32363185 -0.031889644 -0.20300502 0.1345427
-0.32054266 0.4028569 -0.27171025 -0.119545184 -0.0021850145 0.114224896 0.32813215 -0.34990668
0.32134953 0.08062532 -0.06021098 0.25540504 0.06487711 0.017807493 -0.38259625 0.0137989065
-0.3128831 -0.21764366 -0.23822947 0.4318457 0.00024798082 -0.1357018 -0.06252954 -0.31269303
0.21312901 0.122301705 -0.24473633 -0.024113283 -0.30653557 -0.19975883 0.028359354 -0.2236028
-0.2554656 0.08107779 0.19511314 -0.055012107 -0.13641438 0.26419625 -0.18014061 0.10587728
-0.3690853 -0.18262652 0.00046583446 -0.16779442 0.0048119044 0.2870622 -0.15988803 -0.24758619
0.1305181 -0.02945858 -0.15996017 -0.21455608 0.2635677 -0.15456922 0.18680517 0.28290385
-0.13034193 -0.23138428 -0.17115942 -0.16371073 -0.070748486 -0.29562125 -0.32313862 0.09147244
0.32991192 0.09572923 0.06901909 0.029963914 -0.3277492 0.08239103 0.18406555 0.06032312
0.09778384 -0.028745059 0.30494726 -0.28577846 -0.25577992 0.25115174 -0.197696 -0.07650288
0.23219319 -0.041252837 0.19776425 0.27958524 0.06873946 0.062002044 -0.025264138 0.21794976
-0.33378503 0.18888243 -0.42850712 0.17575318 0.19732232 0.24705602 -0.38285398 0.07279424
0.25784358 -0.20954359 0.34923798 -0.08502299 -0.20326446 0.2206201 0.25536373 0.19950041
0.050792105 -0.049558442 -0.15724091 -0.020744363 0.1487931 -0.027873171 -0.135624 0.066053234
00000000: e3fa 9fbd 038b bbbe abe6 a63e ce67 c2bd
00000010: b2cb 41be 45e8 873e 070b 9bbd 959f b33e
00000020: 4347 963e 4a1a ef3d 8eda 7abe 5903 11bd
00000030: e564 6e3e 866f af3d c93c 793e ca6e 3bbd
00000040: 7483 ab3d a837 553e 0e68 0cbd 0093 30be
00000050: ea55 80bd 5a92 c9be f8c5 1abd 43fd 4f3e
00000060: 8121 2a3e 8b1e 5f3e 90c2 9a3d 6dab 44be
00000070: 2f32 cd3d aba2 343d 5079 a0bd 344e 363d
00000080: eb35 4d3e cbbc fd3d 8fc8 9f3e 2678 ce3d
00000090: 8b0d a13c 6fbd 383e 9da7 a83d 2079 893e
000000a0: 924b f53d d5d3 33be 7dbe a7be e228 78be
000000b0: 5480 5dbe f687 e83e d450 e8bd c7e7 743e
000000c0: 2151 b3be 660d 6d3e b52c ab3e 5022 66be
000000d0: 8dc3 5d3d 86b2 193d 7d67 0dbc 5f4f 8cbe
000000e0: 81e6 263e 8e8b 8b3e 3e79 293e c192 c2bd
000000f0: 2171 a4bd 96c9 0b3e cc5e 5c3e 763a 8e3e
00000100: 6659 db3d 3ee1 12be 25a0 823e e35c 313d
00000110: 3484 af3e 055b 613e af3d 663d 6a3f a33e
00000120: dfa3 6abe 2dbd babc c1e1 85be 3777 8dbe
00000130: 743f 6c3e ce5e 87bc a213 cfbd 9875 61be
00000140: a563 843e 49f2 54bd 7642 75be ef5d 8e3e
00000150: 2ee5 8ebe b166 ddbd 37ba 7f3c 54c4 73be
00000160: 9cb4 a8be 2b41 81bd 57bd d93d 4d6d 9abe
00000170: da0a 79bd e71b 9c3c ca8f 6f3e 4ad1 72be
00000180: 9fc8 62be 452e 6fbe 0be7 aabe bbeb 493e
00000190: 7d01 a3be 746a 1a3e 22aa 783e 82c1 c9be
000001a0: 3f35 953e 7971 c03d d545 cf3d 799b acbd
000001b0: cadd 713d 0981 7abe a3a5 a4be 3f88 563d
000001c0: 50f0 063e c127 72be 6122 d53d 8e0c 923b
000001d0: 1d9e 8ebe 8f12 ae3e 4ce3 c93e 6732 d0be
000001e0: cad6 efbd 39bd 82be 3b01 993c 974a a73e
000001f0: 62d1 e03e ea80 2cbd e290 cbbd 8a18 783e
00000200: 411e 963e 11b7 7a3d d2fc 7c3e c5e0 c83d
00000210: 4273 1cbd ad78 0ebe fec2 823e b2ed 8a3e
00000220: b07b 103d cb02 0bbe 688c 4dbd 8d2a 8dbd
00000230: 13b3 a53e b79e 02bd 8ce0 4fbe 90c5 093e
00000240: 2b1e a4be 4243 ce3e 9b1d 8bbe 1bd4 f4bd
00000250: 7632 0fbb beee e93d f000 a83e f826 b3be
00000260: ed87 a43e e31e a53d ca9f 76bd 73c4 823e
00000270: 4ade 843d 05e1 913c a8e3 c3be cf14 623c
00000280: 3732 a0be fbdd 5ebe 6df2 73be e11a dd3e
00000290: 6c03 8239 6af5 0abe 7d0f 80bd 4d19 a0be
000002a0: 7e3e 5a3e 5179 fa3d 299c 7abe 3889 c5bc
000002b0: 3bf2 9cbe 948d 4cbe e051 e83c 22f8 64be
000002c0: 63cc 82be 1d0c a63d bdcb 473e 6054 61bd
000002d0: 36b0 0bbe bb44 873e c876 38be 30d6 d83d
000002e0: c0f8 bcbe 7202 3bbe 3e3b f439 4dd2 2bbe
000002f0: 2ead 9d3b d1f9 923e b0b9 23be 3c87 7dbe
00000300: 89a6 053e 1f53 f1bc 99cc 23be 97b4 5bbe
00000310: 58f2 863e 6547 1ebe db49 3f3e c6d8 903e
00000320: 5b78 05be 00f0 6cbe 6a44 2fbe c9a3 27be
00000330: 95e4 90bd ab5b 97be 6d72 a5be e755 bb3d
00000340: 37ea a83e b00d c43d e159 8d3d e276 f53c
00000350: bece a7be a1bc a83d ae7b 3c3e 6015 773d
00000360: e542 c83d c27a ebbc 0c22 9c3e 8e51 92be
00000370: 96f5 82be f696 803e d270 4abe 8bad 9cbd
00000380: 0dc4 6d3e bcf8 28bd b682 4a3e cc25 8f3e
00000390: 46c7 8c3d dbf5 7d3d bdf6 cebc 392e 5f3e
000003a0: dfe5 aabe 656a 413e 4965 dbbe a4f8 333e
000003b0: dd0e 4a3e 41fc 7c3e 7005 c4be 2615 953d
000003c0: 1304 843e 9892 56be 52cf b23e 8920 aebd
000003d0: 8f24 50be 3cea 613e 09bf 823e d649 4c3e
000003e0: 620b 503d cbfd 4abd c303 21be 15f0 a9bc
000003f0: 385d 183e 4756 e4bc 05e1 0abe eb46 873d

transformer.layers.1.linear1.bias f4 [128]
-0.2747489 -0.117800854 0.15842192 0.28917998 0.3111384 -0.30329368 -0.03065257 -0.3156976
-0.0037254426 -0.108701564 0.28824058 0.009256832 -0.1750169 -0.15851355 0.118257664 0.25837645
0.24124159 0.29315355 -0.13496976 0.10300992 0.195712 0.27219993 0.0020450836 -0.12558575
-0.03891684 0.31458706 -0.096178025 0.08537284 0.16605508 -0.12909622 0.20901263 -0.065537296
-0.014033916 0.1298991 0.13707155 0.13620746 -0.12998833 -0.26787072 -0.33290154 -0.20849414
0.07086629 0.10809494 -0.049124245 -0.29603657 0.33145767 0.17905973 0.14822446 -0.09100724
0.23832771 0.035542175 0.034847267 0.2122181 -0.22600679 -0.02213777 -0.26792333 -0.09652267
-0.33028904 0.13490814 -0.333827 0.18959983 0.15754747 0.21976744 0.22939251 0.23813027
-0.109596506 -0.1191332 -0.09436623 0.005659922 0.17057823 -0.22411804 0.1402688 0.235421
0.21594837 -0.10978889 0.17436862 0.27574027 0.05200422 0.2903851 0.19997625 -0.16042304
0.14947705 0.026361277 -0.23594324 -0.21616839 0.089894064 -0.10140742 0.3028658 -0.01212628
-0.25887176 -0.13320312 -0.2323478 -0.30480936 -0.28060824 -0.20948456 -0.23978604 0.029208051
-0.27696928 0.27883747 -0.24395362 -0.02518541 -0.3232486 -0.037355307 -0.30098683 -0.002601867
0.22554892 0.32230777 -0.015706712 -0.14545682 0.2575187 -0.2676222 0.06573257 0.3383151
0.33353382 0.15290786 0.037895266 -0.34128046 -0.205736 -0.08675778 -0.20571913 0.11020096
0.036458477 -0.105268195 0.1901576 0.22289808 -0.18410167 0.091644116 -0.034544285 -0.017658165
00000000: e3ab 8cbe 9341 f1bd 5b39 223e 660f 943e
00000010: 884d 9f3e 4f49 9bbe 191b fbbc 1ea3 a1be
00000020: 8e26 74bb ed9e debd 4594 933e f8a9 173c
00000030: a137 33be 6051 22be 1331 f23d eb49 843e
00000040: 0908 773e 3918 963e 8335 0abe ddf6 d23d
00000050: ba68 483e ca5d 8b3e cf06 063b 8d99 00be
00000060: 4467 1fbd 8e11 a13e fcf8 c4bd f5d7 ae3d
00000070: 580a 2a3e cd31 04be 6807 563e 6b38 86bd
00000080: 83ee 65bc 4504 053e 7c5c 0c3e f879 0b3e
00000090: a91b 05be 5a26 89be 1272 aabe 7d7f 55be
000000a0: 5822 913d e160 dd3d 8136 49bd 1b92 97be
000000b0: d2b4 a93e 6f5b 373e 27c8 173e 0162 babd
000000c0: 2e0c 743e ac94 113d 02bc 0e3d b44f 593e
000000d0: 536e 67be 455a b5bc 3f2d 89be adad c5bd
000000e0: a51b a9be 5c25 0a3e 5feb aabe 7526 423e
000000f0: 2054 213e b70a 613e dfe5 6a3e 6cd8 733e
00000100: 2274 e0bd 1bfc f3bd 1543 c1bd de76 b93b
00000110: 0fac 2e3e 337f 65be a0a2 0f3e 3412 713e
00000120: 9221 5d3e ffd8 e0bd b08d 323e d42d 8d3e
00000130: 6102 553d 5bad 943e 93c6 4c3e f045 24be
00000140: 8310 193e 9bf3 d73c 1b9b 71be 3f5b 5dbe
00000150: 611a b83d b2ae cfbd 3a11 9b3e 4ead 46bc
00000160: d78a 84be 6666 08be 95ec 6dbe f90f 9cbe
00000170: e2ab 8fbe 1f83 56be 798a 75be b945 ef3c
00000180: ebce 8dbe c9c3 8e3e face 79be a251 cebc
00000190: d780 a5be e101 19bd f21a 9abe 1684 2abb
000001a0: 4cf6 663e 8605 a53e 5dab 80bc a2f2 14be
000001b0: 7ed9 833e c705 89be cc9e 863d a337 ad3e
000001c0: f2c4 aa3e e193 1c3e 1138 1b3d 50bc aebe
000001d0: 75ac 52be 10ae b1bd 09a8 52be 0ab1 e13d
000001e0: 7c55 153d da96 d7bd adb8 423e 653f 643e
000001f0: 2685 3cbe e9af bb3d 4f7e 0dbd dba7 90bc

transformer.layers.1.linear2.weight f4 [6, 128]
-0.09050157 -0.06883473 0.0076630525 0.027589276 0.042747885 -0.040855307 0.01426092 -0.15457833
0.024394153 -0.020345056 0.00041047775 0.0024259577 0.105207935 -0.0065087546 -0.061159525 0.0063327197
-0.026622519 -0.13533404 0.16793723 0.13642736 0.12351248 0.016864466 0.053715304 0.0051378473
-0.17190734 -0.068921424 -0.04068724 -0.049643327 -0.037783567 0.043573238 -0.081646636 -0.045034625
-0.036722697 -0.0043801083 -0.09471942 -0.05648894 0.087323815 0.008819068 0.04537346 -0.18999131
0.037008952 0.02285352 -0.022850625 0.07430246 -0.10022768 0.076017715 -0.043567777 0.04631946
0.14341299 0.030201357 -0.008929489 0.08469748 -0.03370779 -0.007943977 0.025383411 0.066864304
-0.0010454318 0.021188302 0.0708314 -0.0055938256 -0.021754075 0.06527643 -0.07306763 -0.029962357
-0.013211266 -0.014989358 -0.08054855 -0.0342037 -0.029091932 0.07421055 0.05444521 0.0891661
0.06649042 -0.001853108 -0.122362085 -0.01788892 -0.023632744 0.03948532 -0.031480946 0.04039207
0.03242068 -0.049957726 -0.026917862 0.17005128 -0.06361472 0.024091488 0.06062741 0.00084177824
-0.016022265 0.08970009 -0.07162741 0.15123694 0.07518073 0.1370738 -0.36983702 0.13209014
0.19009003 -0.037715223 -0.03268924 -0.04492601 -0.0021942402 0.011504475 0.057478745 -0.10800993
0.01771979 -0.016510718 0.006900346 0.11091305 -0.015243391 0.1732932 -0.053273365 -0.0440501
0.13057244 0.009924414 -0.020193089 0.065384366 0.058847755 -0.042241238 0.060060564 -0.01975392
-0.0922529 -0.043917455 0.019413717 -0.102295466 0.01962111 -0.027373413 -0.0020437457 0.072393276
0.03670124 0.109709404 -0.0695496 -0.015364238 -0.03525203 0.011341149 -0.17338857 0.044804856
0.008277563 -0.033618573 0.01642826 0.031063925 0.047970954 -0.023794454 0.019576855 -0.084271155
0.043267857 0.02104702 0.082700685 -0.12714636 -0.12649372 0.0529543 -0.006875396 -0.011566735
0.041055534 0.02674211 -0.05085031 0.029398927 -0.021392245 0.07029314 -0.05432071 0.038907822
0.051422685 -0.020309217 0.062432095 -0.010311778 -0.031032048 -0.025388116 0.037842296 0.06604415
0.010047755 -0.033705667 0.0071178125 0.03877004 0.036379006 0.09036273 0.078954294 0.04009273
0.028559681 0.071288645 -0.10401568 -0.062902726 -0.046956025 -0.02603382 0.068897225 -0.032667868
0.09009706 0.069310114 -0.06782854 -0.050028116 0.0933515 -0.038423873 0.031072954 -0.034707118
0.08548952 0.012646968 -0.0018991537 0.0036007245 0.04160292 -0.002883186 -0.022742333 -0.07044134
-0.04652581 0.00071487814 0.03529922 0.05060216 -0.07586022 -0.09286388 -0.029691132 0.063341625
0.040280536 0.113516234 0.07660087 -0.07089446 0.032197658 0.065729745 -0.10901068 -0.019442812
-0.031666115 -0.0033673532 -0.02221536 0.017345842 -0.15436465 -0.054248504 0.1321574 -0.11076795
-0.014680799 0.08640926 0.12411907 -0.040721245 -0.10886208 -0.053350206 -0.020328067 0.029914124
0.047504507 -0.04655278 0.06906875 0.025528923 -0.058287747 -0.06097257 -0.014163837 -0.056599487
0.0039120726 -0.024945872 -0.03336201 0.016890962 0.09712752 -0.07179693 0.015951382 -0.02851546
0.08898394 -0.028966233 0.007502734 0.021927174 0.022865491 -0.047634102 0.00019351352 0.086010136
00000000: e358 b9bd 39f9 8cbd 581a fb3b e802 e23c
00000010: 6818 2f3d e557 27bd a2a6 693c c849 1ebe
00000020: 3fd6 c73c adaa a6bc 6435 d739 d1fc 1e3b
00000030: 4277 d73d 6447 d5bb 6982 7abd b482 cf3b
00000040: 7817 dabc 0295 0abe bdf7 2b3e 9db3 0b3e
00000050: 1cf4 fc3d 5927 8a3c 9404 5c3d 635b a83b
00000060: 7a08 30be ad26 8dbd aaa7 26bd cd56 4bbd
00000070: f1c2 1abd da79 323d 5a36 a7bd 3a76 38bd
00000080: 8a6a 16bd 0387 8fbb 41fc c1bd f260 67bd
00000090: d4d6 b23d da7d 103c 85d9 393d 158d 42be
000000a0: b396 173d 4e37 bb3c 3c31 bbbc e32b 983d
000000b0: 2b44 cdbd 2daf 9b3d 2074 32bd 79b9 3d3d
000000c0: dbda 123e d668 f73c fe4c 12bc df75 ad3d
000000d0: 2e11 0abd 7427 02bc dff0 cf3c 27f0 883d
000000e0: df06 89ba 1793 ad3c 0e10 913d 694c b7bb
000000f0: 9a35 b2bc a6af 853d 7ba4 95bd 9e73 f5bc
00000100: 1174 58bc ed95 75bc a3f6 a4bd 2e19 0cbd
00000110: 3452 eebc b3fb 973d f101 5f3d b79c b63d
00000120: 212c 883d fde3 f2ba f998 fabd c98b 92bc
00000130: 7599 c1bc 5cbb 213d 2af2 00bd 2872 253d
00000140: 8ccb 043d 79a0 4cbd d982 dcbc ec21 2e3e
00000150: 6f48 82bd 835b c53c 7254 783d c8aa 5c3a
00000160: 2041 83bc aeb4 b73d 64b1 92bd dbdd 1a3e
00000170: 5bf8 993d 135d 0c3e 475b bdbe a342 073e
00000180: f6a6 423e 477b 1abd 27e5 05bd 5604 38bd
00000190: 3ecd 0fbb 447d 3c3c d56e 6b3d 4f34 ddbd
000001a0: 1829 913c 7c41 87bc 4c1c e23b 6226 e33d
000001b0: 6abf 79bc c673 313e 2c35 5abd e16d 34bd
000001c0: c8b4 053e 029a 223c fa6b a5bc 3de8 853d
000001d0: 580a 713d 2605 2dbd 1102 763d f9d2 a1bc
000001e0: 17ef bcbd cae2 33bd 8409 9f3c 4980 d1bd
000001f0: 73bc a03c 353e e0bc 5df0 05bb ed42 943d
00000200: 0a54 163d 53af e03d 0570 8ebd 49ba 7bbc
00000210: 6f64 10bd 3ad0 393c c68c 31be 4c85 373d
00000220: 9e9e 073c a1b3 09bd 8f94 863c c679 fe3c
00000230: 317d 443d 96ec c2bc a45f a03c 5b96 acbd
00000240: a339 313d cd6a ac3c fa5e a93d a832 02be
00000250: 9287 01be 9ce6 583d 004b e1bb 6782 3dbc
00000260: d929 283d 4512 db3c 6a48 50bd 05d6 f03c
00000270: ca3e afbc daf5 8f3d 657f 5ebd cf5d 1f3d
00000280: 98a0 523d 845f a6bc ccb8 7f3d bbf2 28bc
00000290: ec36 febc bdfa cfbc 8600 1b3d 2842 873d
000002a0: 579f 243c f40e 0abd 8a3c e93b 55cd 1e3d
000002b0: 2702 153d 1810 b93d cab2 a13d 4638 243d
000002c0: fef5 e93c c8ff 913d 2c06 d5bd 25d3 80bd
000002d0: f654 40bd e144 d5bc fd19 8d3d bece 05bd
000002e0: cf84 b83d 76f2 8d3d b1e9 8abd 48ea 4cbd
000002f0: 122f bf3d 5a62 1dbd b58c fe3c 0d29 0ebd
00000300: 2115 af3d 3a35 4f3c 06ed f8ba 22fa 6b3b
00000310: d367 2a3d d6f3 3cbb 214e babc 8d43 90bd
00000320: d991 3ebd a966 3b3a ea95 103d 3644 4f3d
00000330: 9a5c 9bbd 6b2f bebd d13a f3bc 41b9 813d
00000340: 34fd 243d 337b e83d ebe0 9c3d 1d31 91bd
00000350: b1e1 033d 519d 863d fe40 dfbd 8846 9fbc
00000360: 54b4 01bd d0ae 5cbb fdfc b5bc de18 8e3c
00000370: c411 1ebe ae33 5ebd 4554 073e 4fda e2bd
00000380: bc87 70bc 57f7 b03d 2432 fe3d 52cb 26bd
00000390: 15f3 debd bf85 5abd 0c87 a6bc 770e f53c
000003a0: 1694 423d 21ae 3ebd eb73 8d3d 0822 d13c
000003b0: 22bf 6ebd 60be 79bd 700f 68bc ddd4 67bd
000003c0: d830 803b 495b ccbc 9aa6 08bd ea5e 8a3c
000003d0: cbea c63d 450a 93bd 79ac 823c 4199 e9bc
000003e0: 363d b63d 984a edbc 7fd9 f53b 9ea0 b33c
000003f0: 6950 bb3c fa1b 43bd e4e9 4a39 1526 b03d

transformer.layers.1.linear2.bias f4 [6]
0.04929465 0.014087447 0.023010636 0.0653788 0.05692984 -0.07259623
00000000: 30e9 493d 09cf 663c cd80 bc3c 52e5 853d
00000010: 442f 693d 55ad 94bd

transformer.layers.1.norm1.weight f4 [6]
1.0772299 1.0691543 0.9386463 0.9421589 1.0020397 0.87994266
00000000: abe2 893f 0cda 883f 204b 703f 5331 713f
00000010: d642 803f ec43 613f

transformer.layers.1.norm1.bias f4 [6]
0.0061577205 0.010696797 -0.015879536 -0.02562962 0.030480044 -0.025350533
00000000: b4c6 c93b 9e41 2f3c cd15 82bc 35f5 d1bc
00000010: 49b1 f93c ecab cfbc

transformer.layers.1.norm2.weight f4 [6]
1.0717207 1.0076156 0.91543144 0.9507093 0.9749576 0.9552342
00000000: 252e 893f 8cf9 803f b759 6a3f af61 733f
00000010: d296 793f 3b8a 743f

transformer.layers.1.norm2.bias f4 [6]
0.03302373 0.005073627 -0.0045116954 -0.034534756 0.02269759 -0.0366733
00000000: e443 073d ab40 a63b d8d6 93bb 5174 0dbd
00000010: 4cf0 b93c be36 16bd

classifier.0.weight f4 [6]
1.0852666 1.0685644 1.0173702 1.0005542 1.0261929 1.0158678
00000000: 04ea 8a3f b8c6 883f 3039 823f 2912 803f
00000010: 4a5a 833f f507 823f

classifier.0.bias f4 [6]
-0.040481135 0.043482564 -0.02706094 0.0036376403 -0.054203738 0.018920634
00000000: 8ccf 25bd c61a 323d e8ae ddbc 7a65 6e3b
00000010: bd04 5ebd 72ff 9a3c

classifier.1.weight f4 [128, 6]
0.32175487 -0.3802231 0.06557012 0.19589314 0.18173692 0.20909706 -0.1649414 0.0038680977
-0.020394104 -0.0045811883 0.29874638 -0.32844317 -0.2553554 -0.1669444 0.17385305 -0.1925191
0.09940062 -0.16138083 -0.32404086 -0.4353226 0.27931532 0.12517236 -0.26331857 -0.25611308
-0.27149308 0.35884932 -0.14169769 -0.25422803 0.25415808 0.15180287 -0.13694774 0.3772865
-0.30905837 -0.071250945 0.071183905 0.022503985 -0.31600007 -0.32678285 0.28110752 -0.31217188
0.08939618 -0.1424237 -0.29127172 -0.019676613 0.39196882 -0.29260328 -0.27120468 -0.23532955
-0.05891622 -0.2715716 -0.31244758 -0.1505997 0.075460866 -0.14446886 -0.2405929 0.23741443
-0.32743102 0.4415151 0.27946836 0.3559898 -0.047287654 -0.22843426 -0.32541987 0.37954584
0.086982824 0.24369322 -0.2290157 0.3945185 0.107034504 -0.32117355 -0.35684904 -0.088401355
0.15444367 -0.07881442 0.31698114 0.19163834 0.058498386 -0.20196709 -0.10375962 0.10009221
-0.039878443 0.3427166 -0.21246041 0.18812971 0.21087372 0.18818204 -0.22927529 0.22288679
-0.15546393 0.3578132 0.015329598 -0.2539082 -0.019882198 -0.21745294 0.17380063 0.27367613
-0.07006465 -0.3435782 -0.14255783 -0.2787876 0.2808078 0.10199559 0.16734265 -0.3088933
0.05785172 0.13903941 0.25799155 0.40239826 0.10526872 -0.1919655 -0.08121897 0.3455666
-0.045629676 -0.30836782 0.17689545 -0.1370158 0.29076833 0.36530006 0.14234741 -0.15394737
0.21217659 -0.27524617 0.15133171 0.06618963 0.40244925 0.35054672 0.18611361 -0.2099013
-0.28054386 -0.30700326 -0.35404304 -0.12766695 -0.28014764 -0.37864524 0.09518279 0.15419519
0.246484 -0.026592476 0.0019160126 0.11715657 0.16963056 -0.27378905 -0.26959562 0.2477803
0.08884559 -0.31960174 0.32960597 0.14835031 0.38453376 0.1676024 0.15715745 0.14859995
-0.34130922 0.14716963 -0.044218257 0.26007694 -0.33866975 -0.28027454 -0.08800576 0.37242892
-0.21336006 -0.2340631 -0.04740976 -0.20376538 0.27165723 0.08081931 -0.3372555 0.06965983
0.115612276 -0.42668045 -0.09292685 -0.239243 0.03257567 -0.122858286 0.4086835 -0.39873105
-0.26276803 0.07770138 -0.19611205 0.15895763 -0.36769518 -0.05180924 0.13032566 -0.23665187
-0.34772012 0.30991572 0.24208316 0.19263917 0.32152045 -0.045738406 -0.12094887 -0.1710169
-0.045927536 -0.009554151 0.1917934 0.3364778 -0.16885862 -0.25305098 -0.058347 -0.2694229
-0.058355294 0.27930236 -0.38479614 0.35979837 -0.32035074 -0.35203734 0.04966844 0.37434414
-0.11185911 0.29053766 0.08191873 -0.36448103 0.3804362 0.35400543 0.37137058 0.330256
0.13415068 0.22965622 -0.21717526 -0.13631317 -0.3874724 0.044695597 0.350512 -0.28928083
-0.14952996 0.1582248 0.31765553 0.20213631 -0.08321565 0.20892084 -0.06530812 0.23150644
0.35918105 0.22214594 -0.055689473 0.3698646 0.28926486 0.017874293 0.020068811 0.41243812
-0.1087357 -0.239204 -0.18164435 0.22710969 0.05430832 -0.18572146 0.08422234 0.19513758
0.26262793 0.33078808 -0.0021223424 -0.006547897 -0.17952083 0.17551568 -0.28041065 0.3696609
00000000: 0ebd a43e 9aac c2be a149 863d 3698 483e
00000010: 3e19 3a3e 8a1d 563e 66e6 28be e97f 7d3b
00000020: 8911 a7bc cb1d 96bb 49f5 983e b429 a8be
00000030: f1bd 82be 79f3 2abe 8906 323e ba23 45be
00000040: 8d92 cb3d 0441 25be afe8 a5be 9be2 debe
00000050: 6b02 8f3e 2f2d 003e b1d1 86be 4121 83be
00000060: 2401 8bbe 19bb b73e 3319 11be 2d2a 82be
00000070: 0221 823e 3672 1b3e 073c 0cbe b22b c13e
00000080: e63c 9ebe 04ec 91bd dec8 913d 475a b83c
00000090: c3ca a1be 1550 a7be 53ed 8f3e fed4 9fbe
000000a0: 5815 b73d 85d7 11be 9121 95be d930 a1bc
000000b0: 23b0 c83e 19d0 95be 57db 8abe 3bfa 70be
000000c0: 2252 71bd 6f0b 8bbe 21f9 9fbe cf36 1abe
000000d0: 3a8b 9a3d a5ef 13be fc5d 76be c51c 733e
000000e0: 0aa5 a7be 440e e23e 7a16 8f3e 4c44 b63e
000000f0: b3b0 41bd acea 69be 6f9d a6be d553 c23e
00000100: 0d24 b23d b78a 793e 1783 6abe 54fe c93e
00000110: e834 db3d dc70 a4be ebb4 b6be c50b b5bd
00000120: 7b26 1e3e 7469 a1bd 5a4b a23e d73c 443e
00000130: 019c 6f3d 76d0 4ebe ec7f d4bd 25fd cc3d
00000140: 9457 23bd 8d78 af3e 398f 59be 13a5 403e
00000150: 48ef 573e cbb2 403e 24c7 6abe 6f3c 643e
00000160: f031 1fbe 4b33 b73e ff28 7b3c 4100 82be
00000170: fedf a2bc fcab 5ebe cbf8 313e 471f 8c3e
00000180: 0e7e 8fbd 7be9 afbe aefa 11be 40bd 8ebe
00000190: 0ac6 8f3e 10e3 d03d df5b 2b3e 4327 9ebe
000001a0: edf5 6c3d 5960 0e3e 7817 843e 2507 ce3e
000001b0: 2097 d73d 9b92 44be 2256 a6bd 1bee b03e
000001c0: 2fe6 3abd 63e2 9dbe 1524 353e df4d 0cbe
000001d0: 96df 943e 9c08 bb3e 85c3 113e 61a4 1dbe
000001e0: d244 593e 11ed 8cbe b3f6 1a3e 6e8e 873d
000001f0: d40d ce3e dc7a b33e 9194 3e3e 5ef0 56be
00000200: 72a3 8fbe 882f 9dbe 2145 b5be 20bb 02be
00000210: 836f 8fbe cadd c1be 32ef c23d 58e5 1d3e
00000220: 4d66 7c3e 77d8 d9bc b722 fb3a c9ef ef3d
00000230: a2b3 2d3e 142e 8cbe 7008 8abe 1eba 7d3e
00000240: adf4 b53d d7a2 a3be 1dc2 a83e 25e9 173e
00000250: 9ce1 c43e f79f 2b3e e2ed 203e 962a 183e
00000260: 15c0 aebe a3b3 163e 341e 35bd ce28 853e
00000270: 1f66 adbe 2580 8fbe 5d3c b4bd 01af be3e
00000280: 0f7b 5abe 3dae 6fbe bd30 42bd dfa7 50be
00000290: a816 8b3e 9884 a53d c1ac acbe d0a9 8e3d
000002a0: 21c6 ec3d dc75 dabe 6f50 bebd 1efc 74be
000002b0: 116e 053d 209d fbbd f73e d13e 7a26 ccbe
000002c0: 8889 86be e721 9f3d 99d1 48be cac5 223e
000002d0: 8b42 bcbe ed35 54bd 1774 053e de54 72be
000002e0: 5f08 b2be 46ad 9e3e a6e4 773e 3443 453e
000002f0: 549e a43e 3258 3bbd 0bb4 f7bd 0e1f 2fbe
00000300: 831e 3cbd 0489 1cbc 7d65 443e d146 ac3e
00000310: 46e9 2cbe e68f 81be 44fd 6ebd ccf1 89be
00000320: f605 6fbd b800 8f3e 0004 c5be 7e37 b83e
00000330: 0305 a4be 3d3e b4be 2271 4b3d 09aa bf3e
00000340: 6416 e5bd 5ac1 943e 02c5 a73d 429d babe
00000350: 89c8 c23e 3340 b53e 4924 be3e 5017 a93e
00000360: cc5e 093e 002b 6b3e 3163 5ebe ae95 0bbe
00000370: c862 c6be bb12 373d 4f76 b33e 9e1c 94be
00000380: 621e 19be af05 223e bfa3 a23e d2fc 4e3e
00000390: f76c aabd 58ef 553e 43c0 85bd 0610 6d3e
000003a0: 94e6 b73e 3a7a 633e a51a 64bd e55e bd3e
000003b0: 861a 943e 1c6d 923c 5967 a43c 172b d33e
000003c0: d3b0 debd e5f1 74be fa00 3abe 718f 683e
000003d0: 6772 5e3d c42d 3ebe c37c ac3d 25d2 473e
000003e0: 2b77 863e 0e5d a93e ff16 0bbb be8f d6bb
000003f0: 4fd4 37be 62ba 333e fc91 8fbe 3244 bd3e
