checkpoints/ensemble_refiner_5s_2labels_2025-07-07-154128.pth (torch, 64590 bytes, 32 tensors)

transformer.layers.0.self_attn.in_proj_weight f4 [18, 6]
000000 78 8b a1 bd 0f 9c c2 bd b9 f9 ba bd 88 84 ca b9
       -0.0788793 -0.09502422 -0.09129662 -0.00038627186
000010 80 94 e4 b1 44 bf 18 3d e8 54 f6 bd 3e 79 2d bb
       -6.652556e-09 0.03729178 -0.12027913 -0.002646997
000020 41 27 65 ba 0a e7 0f a7 f1 4d 3c bd ba 9d ef 2d
       -0.0008741506 -1.9970483e-15 -0.04597277 2.7241199e-11
000030 b3 38 8b 29 64 31 ce 3d a4 98 3c ba d3 2c e7 3c
       6.182676e-14 0.10068014 -0.0007194376 0.028219616
000040 12 e7 11 bc 53 89 94 31 ac 12 02 3d aa 23 5f bd
       -0.008905189 4.322979e-09 0.03175609 -0.05447737
000050 8f d3 cd 3d 50 e6 65 ba 72 f1 89 bd 07 41 20 b0
       0.10050117 -0.0008769976 -0.06735505 -5.830007e-10
000060 00 d3 99 bc 8f 86 3f bd 02 2c 8d 3d d0 cd e4 bd
       -0.01877737 -0.046759184 0.068931594 -0.11172068
000070 25 29 47 3a aa 9b 2c 3d 0d 62 d1 30 cb 11 a8 bd
       0.00075973786 0.04214064 1.5234619e-09 -0.08206519
000080 72 5c cb 3c 78 f2 b1 28 7d 95 05 3d a8 3a 98 3c
       0.024824355 1.9756102e-14 0.032613266 0.018582657
000090 03 ad bd 3c e7 92 85 3c 0e 26 b6 39 e1 36 20 bd
       0.023153787 0.0163054 0.00034742098 -0.039114837
0000a0 a4 b2 d8 bd 62 9e 81 39 08 4d ad 3b 50 15 26 3d
       -0.10580948 0.00024722802 0.005288724 0.04054767
0000b0 44 d5 e5 bc e9 19 b6 a9 0f 56 3a 3d f3 61 98 ab
       -0.028055795 -8.086918e-14 0.045492228 -1.0827436e-12
0000c0 89 dd 6a bc ae e2 a8 3c e8 99 f6 bd 8e 1a 94 a8
       -0.014335045 0.020615902 -0.12041074 -1.6442817e-14
0000d0 4b e8 b8 3d d6 bc d5 a9 40 df 97 35 bc 0a bb 39
       0.09028681 -9.491858e-14 1.1315351e-06 0.00035675417
0000e0 36 07 ca bb 30 e1 bb 3d 94 af 27 3a 34 d5 fe 3c
       -0.0061654104 0.091738105 0.00063967076 0.031107523
0000f0 41 2f b4 ab cb 9b a2 bc 36 e3 dc 3d fe 59 84 3d
       -1.2802885e-12 -0.019849679 0.107855245 0.06462477
000100 ac ef fa bd 6f fe d1 bc e3 56 40 3c a2 7b d1 3b
       -0.12252745 -0.025634019 0.011739465 0.006392912
000110 05 78 b0 bd ee bc 0d aa 61 bf d6 3c 93 c8 11 bd
       -0.08616642 -1.2588864e-13 0.026214303 -0.035591673
000120 1f c6 83 be 6a ee a8 3b d1 74 65 3e ff c8 ab be
       -0.25737092 0.0051553743 0.22407843 -0.33551785
000130 45 e2 81 be 66 21 31 3e 04 5c b4 be dc 9f f4 bd
       -0.25367942 0.17297897 -0.35226452 -0.11944553
000140 41 65 38 3e 08 bc a0 be 2c 04 45 3e f7 5f 9c 3e
       0.18007375 -0.31393456 0.19239873 0.30541965
000150 5f 96 95 3e ea ad cf 3e 2c 48 99 be 1a ea ee bd
       0.29216287 0.40562373 -0.29937875 -0.11665745
000160 aa 5c db 3e 9e 5c 0d be 18 a1 46 3e 44 f2 92 be
       0.42844135 -0.13804862 0.1939739 -0.2870046
000170 bf f2 9b 3e 38 56 43 be d6 91 fe be 6c d2 f4 3d
       0.30458638 -0.19075859 -0.4972064 0.11954197
000180 b3 5e 3f 3e c5 4c d0 bd 4b 33 f6 3d c5 c9 8a 3d
       0.18688469 -0.101708926 0.12021502 0.06776766
000190 22 2f ba be e7 e0 02 3c f5 d7 05 be 23 cf 25 3e
       -0.36364084 0.007988191 -0.13070662 0.16192298
0001a0 cc f6 af be e2 06 1d bd 69 e1 41 3e 6f af ff be
       -0.3436798 -0.038336642 0.18933643 -0.49938533

transformer.layers.0.self_attn.in_proj_bias f4 [18]
000000 00 00 00 00 00 00 00 00 00 00 00 00 00 00 00 00
       0.0 0.0 0.0 0.0
000010 00 00 00 00 00 00 00 00 00 00 00 00 00 00 00 00
       0.0 0.0 0.0 0.0
000020 00 00 00 00 00 00 00 00 00 00 00 00 00 00 00 00
       0.0 0.0 0.0 0.0
000030 d5 04 99 bb 18 79 93 3c 05 97 91 bd d8 95 23 3d
       -0.0046697655 0.018002078 -0.07108883 0.039937824
000040 e8 78 c1 3a ef ea 97 bc
       0.0014760764 -0.018544642

transformer.layers.0.self_attn.out_proj.weight f4 [6, 6]
000000 15 27 8a be 9f f3 5e 3e 42 d5 67 3e 6c 37 35 3e
       -0.26982942 0.21772622 0.22639945 0.17696923
000010 50 6c b7 3e 5a 5c aa be ff 10 17 bd 39 a7 27 be
       0.35824823 -0.33273584 -0.036881443 -0.16372384
000020 90 c3 b2 be 5d e6 04 3b e4 dd 9f 3e 0b b1 67 3e
       -0.34914827 0.0020278909 0.31223977 0.2262613
000030 1f 40 0b be ec da 84 be f3 9a 56 be 35 84 07 3e
       -0.13598679 -0.25948274 -0.20957546 0.13234027
000040 37 47 53 bd a8 d1 8f 3e 0f a3 56 3d 4f 0a dd be
       -0.051581588 0.28089643 0.0524016 -0.43171927
000050 b1 b3 5f 3e d5 7b 09 bd 57 c9 16 3e 7c e9 ae bd
       0.2184589 -0.03356536 0.14725243 -0.08540627
000060 fe 4b 8c be f4 b7 43 3e f3 40 a3 3e 98 29 90 be
       -0.27401727 0.19113141 0.3188549 -0.28156734
000070 e5 5b 36 be 96 ec 88 be 9c 62 f4 3d 76 d1 90 3e
       -0.17808492 -0.26743 0.11932871 0.28284806
000080 8c b8 98 3d f0 10 65 bd 4e 63 c5 3e 94 48 70 bd
       0.074570745 -0.055924356 0.38552326 -0.058662966

transformer.layers.0.self_attn.out_proj.bias f4 [6]
000000 b3 80 56 bc 04 bd 39 3c f5 40 f3 bb b4 3d a5 3c
       -0.013092208 0.011336569 -0.007423515 0.020171024
000010 0e af 89 3b 58 a2 4e 3b
       0.0042017763 0.003152987

transformer.layers.0.linear1.weight f4 [128, 6]
000000 f3 13 5b be 36 c2 5e 3c d0 c4 ad 3e 4d 91 0e 3c
       -0.21394329 0.013596108 0.3393922 0.008701635
000010 a8 84 8b bd 18 88 f6 3d 88 16 95 bd bb 35 36 3e
       -0.068124115 0.120376766 -0.07279688 0.17793934
000020 c0 f5 54 3d d0 61 9b be ae cd 12 be 49 62 12 3e
       0.051992178 -0.30348063 -0.14336273 0.14295305
000030 1a 98 9c bd 50 6a a2 be 67 47 f9 3e 96 8e 3a be
       -0.076461986 -0.31721735 0.48687288 -0.18218455
000040 cd 5d 7e bd 61 46 12 3e 31 92 81 3d bb 06 72 3e
       -0.062101174 0.1428466 0.06326712 0.2363538
000050 c9 af 49 be 9d 1e 8e be 5b d3 24 3d 19 cc 15 be
       -0.19695963 -0.2775773 0.040240627 -0.14628638
000060 af be 30 3e ef e0 1e 3e 49 c3 9e be af 35 e3 3c
       0.1726024 0.15515493 -0.31008366 0.02773556
000070 f6 54 79 3e 88 86 2b 3e 63 4e 1e bd f5 29 9d 3e
       0.24348816 0.16750538 -0.038648974 0.30696073
000080 2f 37 cd bd 06 c4 e1 3e c1 50 05 3e 23 d0 97 3e
       -0.10020291 0.44094867 0.13019086 0.29650983
000090 a8 0f 32 3e c0 f8 36 be 41 97 59 3e cd 75 7b be
       0.17388785 -0.17868328 0.21249105 -0.24556656
0000a0 d5 e9 93 bc 55 05 21 3e fa 7a e9 3c 25 e7 72 bd
       -0.018055836 0.1572469 0.028501023 -0.059302468
0000b0 a0 a9 c3 3e 6c 3d 63 be 13 5c 44 3e e4 9c 9b 3d
       0.3821535 -0.221914 0.19175749 0.07598284
0000c0 46 7c 96 3e 84 8e f3 bd 88 a5 36 3e d8 e6 14 be
       0.29391688 -0.11892417 0.17836583 -0.14541185
0000d0 3e b9 a4 bc 92 54 a1 be 8e 30 ba be 01 28 5e bd
       -0.020107862 -0.31509835 -0.3636517 -0.05423737
0000e0 ba a3 3c bd 7e 5d b0 3e ba f4 c1 3d 3c 67 d0 3e
       -0.04605458 0.3444633 0.09470506 0.40703762
0000f0 c2 f5 87 3e 13 8f 90 be da 2f d1 be 7d 57 e0 3d
       0.26554686 -0.28234157 -0.4085682 0.10954187
000100 a9 f2 2a 3e c4 86 95 be fe 4c 34 3e 41 e6 d3 3d
       0.1669413 -0.2920438 0.17607495 0.10346652
000110 ef e1 54 be e9 d6 60 bc c3 2b 93 be 7e be 81 3b
       -0.20789312 -0.013723114 -0.28744325 0.003959476
000120 6b 36 87 bd 58 b2 f6 bd d7 52 4a be 20 2f 59 be
       -0.06602176 -0.12045735 -0.19758163 -0.21209383
000130 f2 1f 24 3e f1 50 0e 3e 77 d2 1a be 4f c5 bc 3e
       0.16027811 0.13898064 -0.15119348 0.36869285
000140 ab 66 96 be 8a b2 c3 3d 13 1a bd 3e cf c1 13 be
       -0.29375204 0.09555538 0.36933956 -0.14429401
000150 fb 84 8f 3e 5f 83 17 3e fe bf ee 3e 88 74 a1 be
       0.28031144 0.14796208 0.46630853 -0.3153422
000160 a4 b1 f8 bd 3f 4b a4 be 5b 98 ea bd 60 c9 7e ba
       -0.12143257 -0.32088658 -0.11454841 -0.0009719338
000170 e1 fc 68 3e 41 52 46 3e 86 b0 93 3d c0 c6 84 be
       0.22752716 0.19367315 0.072114035 -0.25932884
000180 af f4 5d be 2a bc 4d 3e aa 19 ae be 95 9f 35 bd
       -0.2167537 0.2009131 -0.34003955 -0.044341642
000190 9b 54 0a 3d c8 f1 a5 bd d5 16 53 be 6c 7d f7 bd
       0.033772092 -0.08102757 -0.20614178 -0.12084469
0001a0 aa 02 b8 3e a9 0e a8 3e 02 78 83 be 2b d3 16 3e
       0.35939533 0.32823685 -0.25677496 0.14728992
0001b0 d8 e3 af be a5 38 88 be 1a 90 90 3e f6 f9 2b 3e
       -0.34353518 -0.26605716 0.2823494 0.16794571
0001c0 1b 38 67 be 52 64 94 3e 0a 82 c8 be 00 20 3c 3e
       -0.22579996 0.28982788 -0.39161712 0.18371582
0001d0 9c db 2f 3e 4c 9e ae 3e 4e 0f ec 3d c3 23 67 be
       0.17173618 0.34105146 0.11526357 -0.22572236
0001e0 e2 3c 82 3d de e1 53 3d ed 38 44 bd 20 0c 1d be
       0.06359269 0.051729076 -0.04790585 -0.15336657
0001f0 9d cb 80 be 23 69 00 3d e5 0a 95 be c1 1b 02 3d
       -0.25155345 0.031350266 -0.29109874 0.03176475
000200 fe c7 18 3e 05 55 9f b9 47 d5 af be b0 5a 01 3e
       0.14920041 -0.00030390188 -0.34342405 0.12632251
000210 30 6f 62 28 52 39 bc 2c 96 8b d0 39 6b a5 65 3b
       1.256963e-14 5.349645e-12 0.0003977685 0.0035041224
000220 42 44 dd ae bf f8 08 2c 2c 25 26 be 50 4f 71 3e
       -1.00620415e-10 1.9464844e-12 -0.16225117 0.23565412
000230 6b 1f c9 3d 17 75 9a 3e c7 2a a7 3e 5d e6 25 be
       0.098204456 0.30167457 0.32649824 -0.16201158
000240 4f 73 16 3e e3 93 8a 3e 70 fb c1 be 84 dd 6e 3e
       0.14692424 0.27065954 -0.37887144 0.23326689
000250 fd 46 e5 3c f6 39 50 be 12 bd 19 be be d5 82 3e
       0.027987951 -0.2033461 -0.15013531 0.25553697
000260 e1 eb a1 3e 5a 72 90 be 20 ee 9a bd 3a dd 59 3e
       0.31625274 -0.28212243 -0.0756495 0.21275797
000270 e2 e5 b1 be 9a 1f ea bc cc 3c 9d bd 45 d7 44 bd
       -0.347457 -0.028579522 -0.07677612 -0.04805686
000280 33 5f c3 3e 31 f2 9f 3e e2 28 a5 3d b5 9f 9e be
       0.3815857 0.31239465 0.080644384 -0.30981222
000290 df 08 eb bd a0 6a bc 3e 91 80 b6 be a7 3e 2c 3e
       -0.114763014 0.36800098 -0.35644963 0.16820775
0002a0 d4 bc 09 3d b5 0d ed 3d 75 77 22 ba 11 68 9b 3e
       0.033627346 0.1157488 -0.000619761 0.30352834
0002b0 78 4d 9a be e9 74 90 be 6e ab 76 3e b6 e8 a3 be
       -0.3013723 -0.28214195 0.24088833 -0.32013482
0002c0 9e 97 af be 52 d8 73 3e d1 c1 2b 3e 06 c4 36 be
       -0.34295362 0.23812988 0.16773154 -0.17848215
0002d0 f7 51 7c be 30 ba c0 bd c6 8b a3 3d 98 30 29 be
       -0.24640642 -0.094105124 0.07985644 -0.16522443
0002e0 31 45 41 3e 2b c7 c4 be 75 9d 8a 3e 85 ba 8a be
       0.1887405 -0.38433203 0.27073255 -0.27095428
0002f0 8b 1d ce be 4b b6 6e 3e 44 30 28 3e 8d 86 93 be
       -0.40256914 0.23311727 0.16424662 -0.28813592
000300 9b 47 98 be 36 e4 66 3e ed ad 1e 3e 9f 93 8a 3e
       -0.2974213 0.22547993 0.15496035 0.2706575
000310 8f 17 7e be 54 31 a9 3e 7b fa 07 be e8 e1 6a 3e
       -0.24813674 0.33045447 -0.13279144 0.22937739
000320 64 a6 1d bd 8c 38 ad be 96 34 ca be 2b ac 42 3d
       -0.03848876 -0.33832204 -0.39493245 0.047527473
000330 b8 7f 02 bc c9 df 97 3e 1a 1d dc 3e 9c b1 9c be
       -0.007965021 0.29662922 0.42990953 -0.30604255
000340 e5 e6 1c be de 31 86 3e 37 ac 91 be 8b 69 3d be
       -0.15322454 0.2620992 -0.28451702 -0.18497293
000350 9b ac 02 be 34 59 2c 3e 02 c1 8f be 1f 01 81 3d
       -0.12761156 0.16830903 -0.2807694 0.06299042
000360 d7 32 2c bd 9b 40 c9 bc 0c 7a b9 3a bb 31 17 30
       -0.042040672 -0.02456694 0.0014150753 5.500415e-10
000370 e0 e7 99 ab fa 58 db ad 7b 1d c5 bd b3 05 88 3e
       -1.0935662e-12 -2.4936931e-11 -0.096247636 0.26566848
000380 42 bb 04 be 24 a5 a5 3e 62 a8 e3 bd ab 43 63 3e
       -0.12962058 0.32352555 -0.11116101 0.22193782
000390 aa d9 1b 3e 16 d4 69 3e ba fb 2e be 66 c7 48 be
       0.15219751 0.2283481 -0.17088214 -0.19607314
0003a0 9a 18 3d bd f1 9e 75 3e 7f 08 57 3e b8 89 f1 3d
       -0.04616604 0.23986413 0.20999335 0.11793846
0003b0 2b e0 92 be b3 23 a4 be 83 09 9c 3e 0e 59 b0 3e
       -0.28686652 -0.32058486 0.30476007 0.34442943
0003c0 5b fd 43 3e 2c 9d 62 3d 49 b7 7a 3e 3f 59 90 be
       0.19139616 0.055325672 0.2448398 -0.2819309
0003d0 99 45 66 3e ec 86 b8 bd fd 64 5e 3e ac 67 e5 3c
       0.22487487 -0.09010109 0.21718211 0.028003536
0003e0 f7 16 2d be 70 55 88 bd c9 97 ae 3e eb e0 3d be
       -0.16903292 -0.06656921 0.34100178 -0.1854283
0003f0 55 40 20 be 84 f1 8d 3e 50 40 51 3e 9c 86 99 be
       -0.1564954 0.27723324 0.2043469 -0.2998551

transformer.layers.0.linear1.bias f4 [128]
000000 70 aa 4b 3e 30 a0 47 3e da e2 1d bd 08 8d d1 bc
       0.19889235 0.194947 -0.03854642 -0.025579944
000010 36 57 8f be d3 4a 7c 3e a5 cd 10 3e 08 59 84 bb
       -0.27996224 0.24637918 0.14140947 -0.0040389337
000020 54 ea 72 3e e2 c6 d4 bd 61 c1 89 3e 94 2a 72 3d
       0.23722202 -0.103894964 0.2690535 0.059122637
000030 eb b6 18 3e a6 4d 6f 3d cf 92 d0 be 4e ce df bd
       0.14913528 0.05842366 -0.40737006 -0.10928021
000040 8d 40 0f be ca c4 01 3e 4a 31 9e bc 24 34 a2 3e
       -0.13989468 0.12672725 -0.019310612 0.31680405
000050 2d 92 78 3d d8 be b4 3e 2a 6b 8a bb 2d ce b2 bc
       0.06068628 0.35301852 -0.0042242007 -0.021826828
000060 f8 e9 dc bc c6 a1 3c 3d ee 8f a2 bd f7 83 b1 be
       -0.026967034 0.046052717 -0.07937609 -0.34670994
000070 42 97 42 3e ae cd 40 be ca 05 85 3e a9 28 8c be
       0.19003013 -0.1882846 0.2598098 -0.2737477
000080 c7 f6 8b 3e 9f 39 93 be 3b d3 c7 3d a1 bb cc 3d
       0.27336714 -0.287549 0.09757086 0.09996725
000090 6c 40 da bc 28 70 46 3e 33 ac 6d be 60 24 97 3e
       -0.026642047 0.19378722 -0.2321022 0.2951994
0000a0 01 d6 05 be bf 46 c9 be 82 db 0c be 24 0e 78 bd
       -0.13069917 -0.39311787 -0.1375561 -0.06056036
0000b0 9a 0c 81 3d 4d e1 23 bc ba 67 4f 3e 79 b3 69 be
       0.06301232 -0.010002446 0.20254412 -0.2282237
0000c0 ef 27 f6 bd e3 c6 13 be 02 5d ac 3e f7 23 a5 3c
       -0.120193355 -0.14431338 0.3366471 0.020158751
0000d0 3a 78 02 bd 76 52 2f bd f2 4d 00 bd a7 35 e5 be
       -0.03185294 -0.04280325 -0.031324334 -0.44767496
0000e0 37 b7 39 3d dc 1b 06 be 57 e1 86 3e 50 01 f6 3d
       0.045340743 -0.13096565 0.26343796 0.12011969
0000f0 fe a5 39 3e 37 43 2d be 6d 1c 94 be 1d 02 d1 bd
       0.18129727 -0.16920172 -0.28927937 -0.10205481
000100 0c bf 2b 3e 36 b4 9b 3e 7b 61 3f be 01 45 46 bb
       0.16772097 0.30410928 -0.1868953 -0.0030253532
000110 f0 9f 06 3e 87 97 f9 bd e2 f6 c9 bd 65 33 b3 3e
       0.13146949 -0.12187105 -0.09861542 0.35000148
000120 a4 48 97 bd a0 f8 58 3e 8b d7 34 3e 10 2e 1b 3e
       -0.07386902 0.21188593 0.17660348 0.1515429
000130 17 fa 92 be d8 1d b9 be 5a 21 90 3e 2d 04 b8 3e
       -0.28706428 -0.3615558 0.28150445 0.35940686
000140 12 d4 0a 3e 46 11 5f 3e 1b 03 33 3e 9e 21 c9 3d
       0.13557461 0.21783933 0.17481653 0.09820865
000150 e2 92 5e 3e 81 26 42 be a6 15 1a be 98 3d 35 3e
       0.21735719 -0.1896 -0.1504732 0.17699277
000160 87 5c ac bd d0 33 4f bd ca 20 9e 3c b0 49 57 3e
       -0.08416086 -0.05058652 0.019302744 0.21024203
000170 49 ab 19 be 3c a8 81 3e ed c8 92 3c 3b 60 35 be
       -0.15006746 0.25323665 0.017918075 -0.1771249
000180 74 44 d2 3d 0d 76 b2 be f1 97 77 be a5 61 c2 3e
       0.10266963 -0.3485569 -0.24179055 0.37965122
000190 b8 f7 78 3e b7 f5 44 3e fd d1 82 3e d8 74 00 be
       0.24313247 0.19234358 0.25550833 -0.12544572
0001a0 a2 b9 55 3e 09 f7 b9 3e 04 d8 b1 3e 81 3c aa be
       0.20871595 0.36321285 0.3473512 -0.33249286
0001b0 33 24 39 be a8 6d 81 be 75 85 3e be 32 2e d4 bd
       -0.18080215 -0.25278974 -0.18605597 -0.103603736
0001c0 0d c7 54 be 8a 0a 84 be 2b cb 96 3d e3 88 90 be
       -0.20779057 -0.2578929 0.0736297 -0.28229436
0001d0 d0 59 a0 be 20 69 ad 39 a9 b9 55 be f3 6b a9 ba
       -0.31318521 0.00033075456 -0.20871605 -0.0012925848
0001e0 86 90 85 3e 02 3e 7c be 46 52 4f be 12 d2 c8 bc
       0.26086825 -0.24633029 -0.20246229 -0.024514232
0001f0 c9 53 85 be 5a 35 54 bd f4 72 15 3e 1a 25 8e 3e
       -0.26040486 -0.051808693 0.14594632 0.2776268

transformer.layers.0.linear2.weight f4 [6, 128]
000000 54 cd b6 ba 55 19 38 3c 40 cc 9f bc 58 6a 99 3c
       -0.0013946691 0.011236508 -0.019506574 0.018727466
000010 d6 ee 49 bd 84 53 08 bc 65 fb 53 bd 79 97 7c bb
       -0.049300037 -0.008320693 -0.05175342 -0.0038542433
000020 83 8c 42 bd 54 0b 3f 3d c7 23 da ba 00 36 3b bd
       -0.047497284 0.046641663 -0.0016642743 -0.045705795
000030 08 d6 5e 3d 45 86 a1 bd 7c c5 f9 bc 6d 91 85 bd
       0.054403335 -0.07886938 -0.030489676 -0.065218784
000040 92 d1 ce 3d 05 a5 f1 bd a4 5f 4b bc 66 7a 28 be
       0.10098566 -0.11799053 -0.012412939 -0.16452941
000050 12 06 b0 3d 4b 46 ba bd e5 1b bb 29 85 2b 69 be
       0.08594908 -0.090954386 8.309307e-14 -0.22770508
000060 f8 e2 ef bc c9 e2 cd 3d 45 aa 61 3d d7 83 e5 3c
       -0.029283032 0.100530215 0.055094022 0.028016968
000070 8b 67 13 be 02 15 e9 3c 26 b9 88 bd e6 2b de bc
       -0.14394967 0.0284524 -0.06675939 -0.027120542
000080 33 20 50 bd 85 04 31 3e 4b 54 b9 3d 94 38 86 bd
       -0.050811958 0.1728688 0.09049281 -0.0655376
000090 b4 52 bf 2d 83 8c 83 bc 25 37 86 bd f7 0b d2 3d
       2.1750914e-11 -0.016058212 -0.06553487 0.10256188
0000a0 d6 97 fe bc 1d 72 bf 3d ef 32 4d 3d a5 27 b4 3d
       -0.03107826 0.09347937 0.050097402 0.08796624
0000b0 44 78 83 3d 89 9d a3 bd 63 c2 29 be ba 8f ed bd
       0.06419423 -0.07989032 -0.16578059 -0.11599679
0000c0 71 1d 22 be f6 bf de ba ad dc 7b 3d 41 a5 b9 bc
       -0.15831544 -0.0016994465 0.06148975 -0.022661807
0000d0 7a 75 6b bc 03 ef 07 3d 66 37 38 3d c1 ea ec bd
       -0.01437127 0.033186924 0.044974707 -0.11568213
0000e0 81 4c 0a be 5c f6 b2 3d 41 2b ec 3c 90 41 7c bd
       -0.13505746 0.087383956 0.028829219 -0.061585963
0000f0 36 d0 3c bb 95 3d b8 3d 5b c5 2d be a8 7c 83 3d
       -0.0028810627 0.08996121 -0.16969816 0.06420261
000100 58 30 98 bd 89 24 3a 3d 23 aa 2d bd 0d b7 91 3d
       -0.07431096 0.045445 -0.042398583 0.07114992
000110 b4 82 7d bd cd 92 74 3d da 7a 8b 3d 30 1e d5 3b
       -0.061892226 0.059710313 0.068105415 0.006503843
000120 aa d9 92 bd 5b d3 1c bb e5 bf 0e 3d 16 9f 12 bd
       -0.071704224 -0.0023929689 0.034850974 -0.035796247
000130 05 54 a9 3d 35 25 c3 3b 66 4f ac bd 66 7b cc bd
       0.082679786 0.005955363 -0.084135816 -0.09984474
000140 1c f9 1b bc 27 87 36 bd 7f be c9 3b dd 61 cb 3d
       -0.0095198415 -0.044562485 0.006156742 0.09930775
000150 b4 6d 94 bd 41 19 42 3c 03 02 75 bd 03 d2 73 bd
       -0.07247487 0.011846841 -0.05981637 -0.059526455
000160 e8 65 b8 3d 3e 35 37 be c2 39 5e bd 83 7e aa bc
       0.09003812 -0.17891404 -0.0542543 -0.020812279
000170 93 eb 0d bd 4d 70 d2 bb 13 3e ee bc 6b 86 77 3d
       -0.03464849 -0.0064220787 -0.029082334 0.060430925
000180 83 0c 9a bd 0f a5 97 3d 15 1d 15 3d 63 b8 d1 3b
       -0.07521918 0.07404529 0.036404688 0.0064001544
000190 6b 99 a6 bd b8 e7 84 bc 32 98 c7 3c cd fc 9d bd
       -0.08134731 -0.016223773 0.024364565 -0.077142335
0001a0 d6 25 03 bd 60 3a 28 be bc 36 1e be 94 11 29 3d
       -0.032018505 -0.16428518 -0.15450567 0.04127653
0001b0 c6 29 54 bd 4c a6 b7 3d 47 20 90 bc 8a b3 7e bd
       -0.05179765 0.089672655 -0.017593516 -0.06218294
0001c0 22 ba 30 be ac 35 1d bc 35 d9 7d 3d 49 c8 9c bc
       -0.17258504 -0.009595316 0.061974723 -0.019138472
0001d0 38 d1 67 bd 5c 2e 44 3c 74 3c c7 3d 6f 9b 8c 3c
       -0.05659601 0.011973944 0.097283274 0.01716396
0001e0 da 47 4c 3c 68 66 63 bd 14 98 41 bd 0e d9 60 bd
       0.012468303 -0.055517584 -0.047264174 -0.0548945
0001f0 14 90 60 bd db bc 69 3d 65 df a1 bd 20 30 0f bd
       -0.054824904 0.057064872 -0.07903937 -0.034958005
000200 02 4e 19 bd 2d 93 ab 3b 49 e7 1c 3d 3c 31 dc bc
       -0.03742791 0.0052360506 0.03830651 -0.026878946
000210 1a 90 54 bd fa 73 68 3d ba f9 df bc 55 b6 94 bd
       -0.05189524 0.05675123 -0.027340759 -0.072613396
000220 2b 2a c3 3c 32 77 dc bd 70 cf 9d bc 6d 12 1f 3d
       0.023823818 -0.10764922 -0.019263953 0.03883593
000230 3b 85 a0 bb b3 be b9 bd cb 7c 55 bc 23 40 33 3d
       -0.004898695 -0.09069576 -0.013030241 0.043762337
000240 3c 99 40 3d 4f 52 fe bd 92 fa 6e bd c5 6f 39 3e
       0.047021136 -0.12418043 -0.05834443 0.18109043
000250 35 63 94 3d 4b 82 3f bd 49 a2 a1 a9 27 c8 35 3e
       0.07245485 -0.046755116 -7.177988e-14 0.17752133
000260 e5 4e 98 3c 4e 1d 25 be a7 55 54 3e b3 be cd bd
       0.018592307 -0.1612446 0.20735799 -0.100461386
000270 ec 1f ac 3d 37 31 eb 3d 0f 73 15 bd 5b 52 d9 3c
       0.08404526 0.11483996 -0.03648668 0.026528528
000280 9e 77 84 3d 6e 40 55 bd 6d 39 9c bd e0 c1 26 3d
       0.06468128 -0.052063398 -0.076281406 0.040712237
000290 8c 55 88 27 3e 6e 8a b9 ac d4 24 3d c0 43 81 3d
       3.7840333e-15 -0.00026403548 0.040241882 0.063117504
0002a0 45 bb 7b 3d 42 45 65 bd ae 82 f7 3b c2 99 37 3c
       0.06145789 -0.055974253 0.00755342 0.011206092
0002b0 b5 f6 57 3c 38 f3 04 bb 58 c0 9e 3d ce 1f 47 bd
       0.013181378 -0.0020286571 0.077515304 -0.048614316
0002c0 ea 59 72 3d d9 f3 2d 3c 63 73 50 3d 87 46 d0 bc
       0.05916778 0.01061722 0.05089129 -0.025424255
0002d0 85 d4 0b 3d fb 2b 78 bd cc fb 15 bd 1c d3 96 bd
       0.03413822 -0.060588818 -0.036617085 -0.07364485
0002e0 b7 09 c6 3d c7 94 12 bd 02 b2 d5 bb 77 bf 23 bc
       0.09669822 -0.035786416 -0.0065214643 -0.009994379
0002f0 b4 0b 36 3d c7 9d 73 3c 56 38 b8 3c da 70 5b 3b
       0.044444755 0.01486916 0.0224878 0.0033484013
000300 f0 33 27 3d d7 20 16 bd 41 52 82 3d 15 d6 a2 bd
       0.040821016 -0.036652412 0.06363345 -0.07950989
000310 d2 5a 88 3d 11 46 8d 3d 4b 9a 6f bd 35 81 14 bc
       0.066579476 0.0689813 -0.058496755 -0.0090640085
000320 d9 84 fb 3d 4c 6f e9 bb b3 47 0a bd 81 a3 84 bd
       0.12281198 -0.0071238633 -0.033759784 -0.064764984
000330 11 54 8c bd 6f 66 1d bd e6 59 ae 3d 35 46 b5 3d
       -0.06851972 -0.038427766 0.085132405 0.088512816
000340 1c 36 4d be 69 7e d8 3d 22 d7 7e bd 2b b4 12 3d
       -0.20040172 0.10570986 -0.062216885 0.035816353
000350 d8 b4 63 bd de dd 88 bd e7 55 3e 3e 95 d0 44 bb
       -0.055592388 -0.06682943 0.18587457 -0.003003155
000360 3b fb ee 3c b2 7c cf 3c 8e 03 18 3c ec c5 64 bc
       0.02917253 0.025328014 0.009278191 -0.013963204
000370 e1 d3 dd 3c 93 c6 9f bb 92 7a 0e 3e b1 79 ca bd
       0.02707857 -0.004875967 0.13913944 -0.09886492
000380 a7 ef 21 3e 4b 1f 90 3c 01 9d 92 bd dc ca 55 bd
       0.15814076 0.017593047 -0.07158852 -0.052195415
000390 85 5d 61 3d 83 24 95 bd 44 eb a3 bc 3b ee 8b 3e
       0.055020828 -0.07282355 -0.020009644 0.27330193
0003a0 2d 07 ba 3c b0 a9 7d 3d 75 f3 84 3e 13 cd cd bc
       0.0227085 0.061929405 0.25966993 -0.025122201
0003b0 21 5e c6 bd 6a 63 47 bd d3 83 55 3d f3 85 02 3e
       -0.096859224 -0.048678793 0.05212767 0.1274641
0003c0 54 c6 9a 3d 66 99 9a bd 6a 2c 57 bd c1 41 5e 3d
       0.07557359 -0.0754879 -0.05253259 0.054261927
0003d0 35 46 38 bd a1 e9 4b bd bc 94 08 bb 39 f7 93 bd
       -0.04498883 -0.049783353 -0.0020840606 -0.07224888
0003e0 eb 8a 1f bd 28 5e a5 3d df d4 c1 3d 9e 9e ef 3d
       -0.038950842 0.080745995 0.0946443 0.11700176
0003f0 9c a9 02 3d d9 c0 82 bd 93 ed 8b bc 14 e0 b9 39
       0.031900033 -0.06384439 -0.017081058 0.000354529

transformer.layers.0.linear2.bias f4 [6]
000000 61 fb 10 bd 2f 6c cd ba 9b 64 6d 3c 88 9e 2e 3d
       -0.035395984 -0.00156725 0.014489318 0.042631656
000010 8a 93 f1 3c 08 5a 2d bd
       0.029489297 -0.04232219

transformer.layers.0.norm1.weight f4 [6]
000000 20 22 7f 3f 00 9e 74 3f 8f 3b 89 3f 94 68 6c 3f
       0.99661446 0.9555359 1.0721301 0.92347074
000010 da c5 82 3f 45 76 7e 3f
       1.021663 0.99399215

transformer.layers.0.norm1.bias f4 [6]
000000 4c 1c c7 bd d5 eb c3 bc e6 ba a6 3c e1 b1 c0 3d
       -0.09722194 -0.023916164 0.020352792 0.09408928
000010 ee 0b 2d bd 80 9a d8 3b
       -0.042247705 0.0066102147

transformer.layers.0.norm2.weight f4 [6]
000000 0a c9 7d 3f 57 60 79 3f 10 b4 7c 3f 0a 9b 6e 3f
       0.99134886 0.9741263 0.98712254 0.9320532
000010 19 4f 80 3f 8b 82 7e 3f
       1.0024139 0.9941794

transformer.layers.0.norm2.bias f4 [6]
000000 c6 55 e5 bd 90 73 3a bd ca d6 e9 3d 1e 12 95 3d
       -0.111980006 -0.045520365 0.11417921 0.07278846
000010 2c d2 35 bd e4 3b 9d 3b
       -0.04438989 0.0047983993

transformer.layers.1.self_attn.in_proj_weight f4 [18, 6]
000000 78 8b a1 bd 0f 9c c2 bd b9 f9 ba bd 88 84 ca b9
       -0.0788793 -0.09502422 -0.09129662 -0.00038627186
000010 80 94 e4 b1 44 bf 18 3d e8 54 f6 bd 3e 79 2d bb
       -6.652556e-09 0.03729178 -0.12027913 -0.002646997
000020 41 27 65 ba 0a e7 0f a7 f1 4d 3c bd ba 9d ef 2d
       -0.0008741506 -1.9970483e-15 -0.04597277 2.7241199e-11
000030 b3 38 8b 29 64 31 ce 3d a4 98 3c ba d3 2c e7 3c
       6.182676e-14 0.10068014 -0.0007194376 0.028219616
000040 12 e7 11 bc 53 89 94 31 ac 12 02 3d aa 23 5f bd
       -0.008905189 4.322979e-09 0.03175609 -0.05447737
000050 8f d3 cd 3d 50 e6 65 ba 72 f1 89 bd 07 41 20 b0
       0.10050117 -0.0008769976 -0.06735505 -5.830007e-10
000060 00 d3 99 bc 8f 86 3f bd 02 2c 8d 3d d0 cd e4 bd
       -0.01877737 -0.046759184 0.068931594 -0.11172068
000070 25 29 47 3a aa 9b 2c 3d 0d 62 d1 30 cb 11 a8 bd
       0.00075973786 0.04214064 1.5234619e-09 -0.08206519
000080 72 5c cb 3c 78 f2 b1 28 7d 95 05 3d a8 3a 98 3c
       0.024824355 1.9756102e-14 0.032613266 0.018582657
000090 03 ad bd 3c e7 92 85 3c 0e 26 b6 39 e1 36 20 bd
       0.023153787 0.0163054 0.00034742098 -0.039114837
0000a0 a4 b2 d8 bd 62 9e 81 39 08 4d ad 3b 50 15 26 3d
       -0.10580948 0.00024722802 0.005288724 0.04054767
0000b0 44 d5 e5 bc e9 19 b6 a9 0f 56 3a 3d f3 61 98 ab
       -0.028055795 -8.086918e-14 0.045492228 -1.0827436e-12
0000c0 89 dd 6a bc ae e2 a8 3c e8 99 f6 bd 8e 1a 94 a8
       -0.014335045 0.020615902 -0.12041074 -1.6442817e-14
0000d0 4b e8 b8 3d d6 bc d5 a9 40 df 97 35 bc 0a bb 39
       0.09028681 -9.491858e-14 1.1315351e-06 0.00035675417
0000e0 36 07 ca bb 30 e1 bb 3d 94 af 27 3a 34 d5 fe 3c
       -0.0061654104 0.091738105 0.00063967076 0.031107523
0000f0 41 2f b4 ab cb 9b a2 bc 36 e3 dc 3d fe 59 84 3d
       -1.2802885e-12 -0.019849679 0.107855245 0.06462477
000100 ac ef fa bd 6f fe d1 bc e3 56 40 3c a2 7b d1 3b
       -0.12252745 -0.025634019 0.011739465 0.006392912
000110 05 78 b0 bd ee bc 0d aa 61 bf d6 3c 93 c8 11 bd
       -0.08616642 -1.2588864e-13 0.026214303 -0.035591673
000120 ae 20 4f be da 6a 06 bd 80 c1 46 3e 84 6f c4 be
       -0.2022731 -0.032816745 0.19409752 -0.3836633
000130 3f 18 62 be aa 9c 2c 3e 84 51 9f be f7 4d 05 be
       -0.22079562 0.16856638 -0.3111688 -0.13018022
000140 67 3b 49 3e 8c 10 97 be 73 62 4d 3e 25 81 88 3e
       0.19651566 -0.29504812 0.20057087 0.2666103
000150 a5 e5 96 3e 62 48 f6 3e 65 ed 83 be 4b 77 47 be
       0.2947208 0.481021 -0.25767055 -0.194791
000160 3e da ca 3e 8f 83 fe bd d3 6f 56 3e 76 b7 b2 be
       0.3961963 -0.124274366 0.20941095 -0.34905595
000170 15 4d 5c 3e 3e 5e 36 be 81 47 d7 be fb e2 e5 3d
       0.2151378 -0.17809388 -0.4204674 0.11224934
000180 8d 26 1e 3e e4 90 0b be 71 1d ab 3d 10 c5 cf 3d
       0.15444393 -0.1362949 0.08355225 0.101450086
000190 37 1c a9 be 79 e9 8e 3c 19 b9 26 be 2c 9b ae 3d
       -0.3302934 0.017445313 -0.16281547 0.085256904
0001a0 bd 64 b1 be ee ca 9f 3c 39 ce 31 3e d1 16 e4 be
       -0.3464717 0.019505944 0.17363824 -0.44548658

transformer.layers.1.self_attn.in_proj_bias f4 [18]
000000 00 00 00 00 00 00 00 00 00 00 00 00 00 00 00 00
       0.0 0.0 0.0 0.0
000010 00 00 00 00 00 00 00 00 00 00 00 00 00 00 00 00
       0.0 0.0 0.0 0.0
000020 00 00 00 00 00 00 00 00 00 00 00 00 00 00 00 00
       0.0 0.0 0.0 0.0
000030 33 57 9a 3d ea 50 0b bd 5b d9 26 be 48 36 a8 3c
       0.07536163 -0.034012713 -0.16293852 0.020533696
000040 e0 08 7d bb 43 3f 0c 3d
       -0.0038610026 0.03424002

transformer.layers.1.self_attn.out_proj.weight f4 [6, 6]
000000 75 9b a8 be 09 d3 54 3e 0c 4f 98 3e 4e 1c 77 3e
       -0.32931104 0.20783629 0.29747808 0.24131891
000010 87 b0 36 3e 79 7e 45 be 4e 6c a2 3c 4b c5 1a be
       0.17840777 -0.19286527 0.019827034 -0.15114324
000020 1a f9 a3 be 7d 23 64 bc f9 08 bd 3e 62 8f 28 3e
       -0.32025987 -0.013924477 0.36920908 0.16460946
000030 df a6 50 be e9 fd 95 be 1b 66 b8 be 9b 43 8a 3c
       -0.20376156 -0.2929528 -0.360154 0.01687794
000040 8c fc 5c bc f0 ed 8d 3e 75 94 4c 3e 16 27 8c be
       -0.013487946 0.27720594 0.19978507 -0.2737357
000050 1c ff 8b 3e fd 18 07 bd 43 a6 6b 3d b5 62 a1 bd
       0.2734307 -0.032982815 0.057531606 -0.07880155
000060 22 87 45 be b8 d0 81 3e 48 10 8d 3e 16 e2 66 be
       -0.1928983 0.25354552 0.27551484 -0.22547182
000070 80 8d 26 be 91 41 90 be e2 15 54 3c 24 bd 5c 3e
       -0.16264915 -0.28175023 0.01294467 0.21556526
000080 95 83 7d 3d 48 fd 88 bd 77 43 f1 3e 75 86 dc bd
       0.061893065 -0.066889346 0.47121784 -0.10767833

transformer.layers.1.self_attn.out_proj.bias f4 [6]
000000 76 3a 75 bd 5c 12 0c 3d 3b 80 06 3d 4e 69 34 bc
       -0.059870206 0.034197196 0.032837134 -0.011011435
000010 4b 17 1f bd 5f f5 83 3c
       -0.038840573 0.016108213

transformer.layers.1.linear1.weight f4 [128, 6]
000000 2d 0b 3d be 4e a2 39 bd 2a b9 ba 3e c2 b5 57 bc
       -0.18461294 -0.0453208 0.36469394 -0.013165893
000010 6b 7a 06 bd 4c 17 ed 3d ef 9c 4f bd ec c0 eb 3d
       -0.03283159 0.11576709 -0.050686773 0.11511406
000020 40 b5 05 3d f6 bd 85 be c0 e7 e7 bd ed 43 2a 3e
       0.032643557 -0.2612149 -0.113235 0.16627474
000030 b9 4a 9b bd 68 3f 5c be e2 57 d1 3e d7 97 5f be
       -0.075826116 -0.21508563 0.40887362 -0.21835266
000040 3a f8 32 3a 96 79 22 3e ee 01 77 3d 31 e7 a1 3e
       0.000682715 0.15866694 0.060304575 0.31621698
000050 b0 d0 76 be 2c 13 91 be cc f8 89 bb 81 87 ab bd
       -0.24103045 -0.2833494 -0.004210567 -0.08375455
000060 3b d7 9f 3e 55 76 eb 3d 67 b3 af be 56 a2 37 bd
       0.31218895 0.114971794 -0.3431656 -0.04483255
000070 59 ae 9b 3e 99 b8 8c 3d ca 3f 83 bd 96 2d 94 3e
       0.30406454 0.06871147 -0.06408651 0.2894103
000080 cb e0 98 bd cd 96 d3 3e 6c 01 60 3e f6 c6 94 3e
       -0.07464751 0.4132599 0.21875542 0.29058045
000090 9b 6f 22 3e 88 27 aa bd 2b 6c 1a 3e 85 d5 66 be
       0.15862887 -0.08308321 0.15080325 -0.22542389
0000a0 2d a0 f4 bc a6 a8 49 3e fe 23 d8 3c 4c df b6 3b
       -0.029861534 0.1969324 0.02638435 0.0055808183
0000b0 a4 c5 83 3e 25 3d 2c be fd 9e 50 3e 58 9f 77 3d
       0.25736725 -0.168202 0.20373149 0.060454696
0000c0 9b c5 98 3e 56 5f b5 bd 31 0c 2b 3e 2d bc 0c be
       0.2983826 -0.088560745 0.1670387 -0.13743658
0000d0 b2 ad 08 bc d0 e5 9f be 6e 49 91 be cd 2b 8a bd
       -0.008342193 -0.3123002 -0.28376335 -0.067466356
0000e0 05 93 6d bb 1b 4b 36 3e 66 f7 27 3e 46 89 c7 3e
       -0.003625096 0.17802088 0.16402969 0.3897192
0000f0 79 6f 97 3e c6 fb 94 be a9 eb c3 be 00 9d 9c 3c
       0.29577234 -0.29098338 -0.38265732 0.019117832
000100 84 1f 59 3e 11 3d 91 be 69 82 47 3e ef 41 36 3d
       0.21203429 -0.28366902 0.19483341 0.044496473
000110 06 10 33 be ac db 0c bd 0f ee 9d be 01 75 46 3d
       -0.17486581 -0.034389183 -0.30845687 0.048451427
000120 6e 1e 1c bd 8e 78 c6 bd ac 8d 16 be 8a 96 89 be
       -0.038114958 -0.09690963 -0.14702481 -0.26872665
000130 9b 1a 05 3e f6 d8 fe 3d 50 cf 6b bd c9 dd 8d 3e
       0.1299843 0.12443726 -0.057570755 0.2770827
000140 59 f6 91 be ee cc fa 3c 27 ed 9a 3e f5 14 20 be
       -0.2850826 0.030615296 0.30259058 -0.15632994
000150 9d 4b 7c 3e a7 a3 72 3e 8e 00 ae 3e b6 95 7b be
       0.24638219 0.23695241 0.33984798 -0.24568829
000160 62 75 25 be d0 35 85 be d2 bb 6b be 55 a0 0d 3e
       -0.16158059 -0.26017618 -0.23020867 0.13830693
000170 b7 4e 32 3e 3b 46 ab 3e ee f6 f5 3d 89 54 b3 be
       0.1741284 0.3345202 0.12009989 -0.35025433
000180 5f a5 89 be b0 91 46 3e 52 cb a3 be d0 83 30 bc
       -0.2688398 0.19391513 -0.3199106 -0.010773614
000190 ce d4 42 3c ce 27 41 bd 2e 19 9c be d1 5c e9 bd
       0.011891557 -0.0471571 -0.3048796 -0.113946564
0001a0 af 82 cb 3e 3f a5 ba 3e a6 b8 40 be 0c 67 e5 3d
       0.3974814 0.36454198 -0.18820438 0.11201295
0001b0 2c 26 ae be 71 cb 91 be 32 90 97 3e 95 0a 18 3e
       -0.34013498 -0.28475526 0.296022 0.14847787
0001c0 dd b0 4f be 12 6a 94 3e 4f e0 9e be ba c6 0b 3e
       -0.20282312 0.28987175 -0.3103051 0.13650027
0001d0 94 f6 48 3e b6 40 91 3e f6 0a 67 bc c4 ce 10 be
       0.19625312 0.28369683 -0.014101734 -0.14141375
0001e0 73 0a d7 3d d1 f6 0b 3a d7 f3 26 bd 94 be 41 be
       0.1050004 0.0005339208 -0.040759888 -0.18920356
0001f0 8c b7 55 be 52 fa 5f 3d b2 fc 58 be 36 62 7d bd
       -0.20870799 0.054682083 -0.21190146 -0.06186124
000200 c2 70 6a 3e 7a e5 5b bd 6b 29 ba be a4 a6 df 3d
       0.22894576 -0.053685643 -0.36359724 0.10920456
000210 85 f5 a2 2c ab 9d aa b0 e7 84 e1 39 41 17 64 3b
       4.631575e-12 -1.241394e-09 0.00043014364 0.00348039
000220 c2 bd a7 b1 8e 68 47 30 92 09 1b bd 8b 5a 16 3e
       -4.8819127e-09 7.254436e-10 -0.037850924 0.14682977
000230 ce 02 d8 3d 7f 85 51 3e b2 e0 85 3e 74 68 6c bd
       0.1054741 0.20461081 0.2614799 -0.0577168
000240 21 cc 27 3e 3f cb 78 3e 09 d3 c0 be 9e b6 46 3e
       0.16386463 0.24296282 -0.37661007 0.194056
000250 98 ea 8d bd 7d 15 2a be b6 b7 49 be 1e 5c 5b 3e
       -0.06929511 -0.1660976 -0.19698986 0.21421859
000260 3b 75 c2 3e f2 07 58 be 78 d2 87 bd 66 d1 5d 3e
       0.37980065 -0.21096781 -0.066319406 0.2166191
000270 14 ef 7c be 00 a2 a1 bb e0 df bf bd 35 50 86 bd
       -0.24700576 -0.004932642 -0.09368873 -0.06558267
000280 39 20 b9 3e ad 4f 85 3e d3 d0 09 3e 17 9a 6a be
       0.36157396 0.2603735 0.13458566 -0.22910343
000290 3b 58 50 be 29 86 44 3e 61 e9 bc be 1f 50 92 3e
       -0.20346157 0.19191803 -0.36896804 0.28576753
0002a0 31 f9 c7 3c 88 f6 3a 3d 29 81 36 3d 26 4f 7b 3e
       0.024410816 0.045645267 0.04455677 0.24541911
0002b0 dc 3d 9f be 77 01 6c be 3c 37 13 3e 0f ba a7 be
       -0.31101882 -0.23047434 0.14376539 -0.3275914
0002c0 86 d0 79 be 6f 1e 83 3e a5 44 48 3e fb 13 43 be
       -0.24395952 0.25609156 0.19557436 -0.1905059
0002d0 22 6a 9e be c9 35 82 bd 9c 5a 24 3d 16 c2 6f bd
       -0.30940348 -0.06357915 0.040125474 -0.058534704
0002e0 df 58 3a 3e 68 0c ac be cf 66 52 3e e8 73 81 be
       0.18197964 -0.33603215 0.20547031 -0.25283742
0002f0 c5 7d b7 be 0c fa 7f 3e 15 63 2f 3e f0 8e 92 be
       -0.35838142 0.24997729 0.1712764 -0.28624678
000300 04 8e 51 be 6c 6a 6d 3e 86 4a f2 3d d7 79 73 3e
       -0.20464331 0.23185128 0.118306205 0.23776947
000310 70 d0 8b be 91 d5 8c 3e e5 bb 70 be ea 8b 34 3e
       -0.27307463 0.27506688 -0.23509176 0.17631498
000320 6c c7 b8 3d 85 47 83 be 8f 6c a9 be 03 c8 4e bc
       0.09022412 -0.25640503 -0.33090636 -0.012620929
000330 8a 43 67 bd 26 b5 9a 3e ff 4f e8 3e 27 f1 75 be
       -0.056460895 0.3021633 0.45373532 -0.24017774
000340 30 0a 98 bd a0 36 38 3e 8c 64 97 be 89 05 2c be
       -0.07423818 0.17989588 -0.295689 -0.16798986
000350 27 c0 ec bd 5c 9c 11 3e 9a 76 88 be 46 73 92 3c
       -0.11560088 0.14219803 -0.26652986 0.017877232
000360 35 71 5b be c7 de 0d be 3a 8f a5 3d 80 56 a1 bb
       -0.21429904 -0.13854514 0.08083959 -0.0049236417
000370 58 5a 98 bc 34 e7 8d bb 89 34 32 be 6a 60 85 3e
       -0.018597767 -0.00433054 -0.17402853 0.2605012
000380 29 92 04 be 4f 81 cb 3e 4d 41 8c 3b 2a ce 0d 3e
       -0.1294638 0.39747092 0.0042802454 0.13848177
000390 3c 3b 57 3e 10 f2 13 3e 58 08 01 be e7 33 68 be
       0.2101869 0.14447808 -0.12600839 -0.22676049
0003a0 5f f3 2e bd 6d da 93 3e 6a f1 5c 3e 9d 33 0e 3e
       -0.042712566 0.28877583 0.21576467 0.13886876
0003b0 44 00 89 be d0 16 a6 be ab 51 8b 3e 0e d7 ad 3e
       -0.26758015 -0.3243928 0.27210745 0.33953136
0003c0 e8 c4 5b 3e 6c ef 8f 3d 46 fe 5a 3e 24 81 96 be
       0.21461833 0.07028088 0.2138606 -0.293954
0003d0 a0 5b 85 3e f8 00 c4 bd 97 49 57 3e 4d d5 c6 3d
       0.26046467 -0.09570497 0.21024166 0.09708653
0003e0 47 08 39 be c8 aa 93 bd e8 72 94 3e ab 7d 3e be
       -0.18069564 -0.07210308 0.28993917 -0.18602626
0003f0 a7 0e 9e bd d7 32 41 3e 0e 8b 8b 3e 8d 61 9d be
       -0.077176385 0.1886705 0.27254528 -0.30738488

transformer.layers.1.linear1.bias f4 [128]
000000 4a b2 eb 3d 06 d8 09 3e b0 bd e9 bc 06 08 39 bd
       0.11508615 0.13461313 -0.028532833 -0.045173667
000010 d8 fb a3 be 60 86 57 3e 2a 4d 37 3e f6 82 a2 3c
       -0.3202808 0.21047354 0.1790053 0.019837838
000020 37 5c 81 3e 7d f0 38 be 0c e6 6e 3e 59 47 34 3d
       0.25265667 -0.18060489 0.23329943 0.044013355
000030 52 c9 26 3e c5 89 bc 3d 25 11 b9 be 25 cb ca bd
       0.16287735 0.09205965 -0.36145893 -0.09902028
000040 1d ed 12 be e3 f6 eb 3d dc 4e 0e bd 7a 15 a0 3e
       -0.14348264 0.11521699 -0.034743175 0.31266385
000050 9c 6a 4c 3d a7 ab a9 3e b9 3c a3 bb 73 b1 5d bd
       0.049906358 0.33138773 -0.004981604 -0.054124307
000060 f5 b4 21 bd c8 c4 41 3d df fe a8 bd 93 35 91 be
       -0.039479215 0.047306806 -0.08251738 -0.28361186
000070 3c be 3f 3e c1 e0 95 be a3 b6 56 3e a8 3a ae be
       0.18724912 -0.29273036 0.20968108 -0.34029126
000080 da 03 8d 3e 38 43 a0 be e9 f7 de 3b 3f 89 93 3d
       0.27542 -0.31301284 0.0068044555 0.07203912
000090 ef e6 45 be 8b 4c 29 3e 30 38 84 be d8 cc a0 3e
       -0.19326375 0.16533105 -0.25824118 0.31406283
0000a0 bd 1d c8 bd 14 8a d3 be 07 c1 d8 bd 62 7f 04 3d
       -0.09771297 -0.41316283 -0.10583692 0.032348044
0000b0 e9 e0 b6 3d a3 2e 07 bc cf 83 6f 3e 21 60 2c be
       0.08929617 -0.008250865 0.23390125 -0.16833545
0000c0 21 48 bc bd 04 f0 04 be 4c bf ad 3e 72 0e 36 3c
       -0.09193445 -0.12982184 0.3393501 0.0111118425
0000d0 a8 3e 84 bb e7 34 cc bc 58 63 7e 3c d8 7d ce be
       -0.0040357895 -0.02492757 0.015526615 -0.40330386
0000e0 5c 92 f0 3d 77 c9 df bd c7 e2 8e 3e 01 d4 cd 3d
       0.11746666 -0.10927098 0.27907392 0.10050202
0000f0 be 63 2b 3e 1c cb 1c be 4d 37 8e be a0 70 ab bd
       0.16737267 -0.15311855 -0.27776566 -0.08371091
000100 78 7e 26 3e e5 03 8d 3e f0 3c 65 be 3c 7f 61 bd
       0.16259181 0.27542034 -0.22386527 -0.05505298
000110 a2 bf ff 3d 13 a7 c8 bd e4 89 16 be 54 5c b1 3e
       0.12487723 -0.09797492 -0.14701039 0.34640753
000120 3b cd dc bd 4d d5 9a 3e 4e 62 8d 3e 73 0e 37 3e
       -0.10781332 0.3024086 0.27614063 0.17876606
000130 a3 9d 87 be 99 6c a4 be f2 6a ce 3e a0 81 a0 3e
       -0.26487455 -0.32114103 0.40315968 0.31348896
000140 ff 3d 1f 3e a4 37 5e 3e c5 e3 1d 3e 34 bf 58 3c
       0.15550993 0.21700913 0.15418918 0.01322918
000150 9f 02 61 3e ea 86 22 be 3e 89 e1 bd 59 a4 56 3e
       0.21973656 -0.15871778 -0.11012505 0.20961131
000160 0b b7 44 bd 97 f6 47 bd 3d c0 0e 3d 7a c4 62 3e
       -0.048026126 -0.04881915 0.0348513 0.22145262
000170 ae 7b 09 be 6e d2 8e 3e 12 76 08 3d fe ff 36 be
       -0.13426086 0.2789492 0.033315726 -0.17871091
000180 5f 95 91 3d de 5c ae be 57 5b 50 be 65 d6 96 3e
       0.071085684 -0.34055227 -0.20347343 0.29460445
000190 e8 4a 69 3e 4f 96 36 3e da 07 94 3e 23 b4 33 be
       0.2278248 0.17830776 0.2891224 -0.17549185
0001a0 42 86 56 3e 50 8b 73 3e 4e 14 8a 3e f0 18 ab be
       0.20949653 0.23783612 0.26968616 -0.33417463
0001b0 eb 49 6d be 38 78 60 be 93 de 12 be fe 8e ef bd
       -0.23172729 -0.2192086 -0.14342718 -0.116971955
0001c0 c1 61 4e be 0f 68 8b be 68 65 15 3e 26 1d 93 be
       -0.20154478 -0.27227828 0.14589465 -0.28733176
0001d0 4b dd 7e be 31 0a 78 bc 51 84 5b be 07 af 60 3a
       -0.24889104 -0.015139149 -0.21437193 0.0008571003
0001e0 ea da 5c 3e 10 5d 4e be 89 d4 33 be 93 8a 1c 3c
       0.21567884 -0.20152688 -0.17561544 0.009554523
0001f0 e8 5a 90 be 66 31 90 bc be de 4f 3e dc fc 6d 3e
       -0.28194356 -0.01760168 0.20299813 0.2324099

transformer.layers.1.linear2.weight f4 [6, 128]
000000 4c 16 4a 3c 59 85 cf bb 1d 21 f9 bc 06 a3 85 bc
       0.012334418 -0.006333035 -0.030411297 -0.016313087
000010 b1 f3 f9 bc 6c bf 8a 3b b8 ba 87 bd 57 6f 20 bc
       -0.030511709 0.004234245 -0.06627411 -0.0097921705
000020 c2 1d 30 bd 38 d8 84 3d 22 c9 93 3b 55 4b 16 bd
       -0.04299713 0.06486553 0.004510061 -0.036692936
000030 b9 ec 40 3d 8d bd 8d bd 9b 56 82 3b 72 d7 81 bd
       0.047100756 -0.069209196 0.0039776093 -0.06339921
000040 9b 1b db 3d 84 cf 8d bd 1a ed 46 bd a9 18 a1 ba
       0.10698625 -0.06924346 -0.04856596 -0.0012290674
000050 58 14 a4 3d bc a0 59 bd c8 da 74 2b c8 56 92 bb
       0.08011693 -0.053131804 8.6989834e-13 -0.0044659115
000060 fe ee 52 3c 0e 95 91 bc d0 e4 a2 3d 75 7a ee bc
       0.012874363 -0.01777127 0.07953799 -0.029111126
000070 8a d0 9b bd 8a 8f b9 bb 7a be c5 bd c4 01 33 bd
       -0.07608135 -0.005662863 -0.09655471 -0.043702856
000080 22 0a b3 bc 7e 87 e1 3d 23 17 85 3d 3e c5 47 bd
       -0.021855418 0.11012171 0.064985536 -0.04877209
000090 74 ba d1 3d 71 99 74 bc ec cd 94 bd 3f b0 cd 3d
       0.10240641 -0.014929161 -0.07265839 0.10043382
0000a0 70 e2 f8 bb c1 2b 46 3d 75 b4 ff 3d 42 ca b3 3d
       -0.007595353 0.04838157 0.12485591 0.08778812
0000b0 01 71 4a 3d fd d9 8d bd 21 96 8c bd 10 66 9c bd
       0.049424175 -0.069263436 -0.06864572 -0.076366544
0000c0 fb a1 f0 bd 2e 1e d0 3b 5e 81 86 3d 7f 6e dc 3a
       -0.11749645 0.006351254 0.065676436 0.0016817598
0000d0 7a 2e cf 3b af 31 80 3c 48 0d 42 3d d6 7d 1a be
       0.006322679 0.015648691 0.047375947 -0.15087065
0000e0 74 c1 90 bc aa 01 a0 3d f9 ae 84 3d 8a 17 5d bd
       -0.01767037 0.078128174 0.06478686 -0.053977527
0000f0 22 20 d3 ba c7 07 d4 3d 1d 5e 97 bd 33 64 8d 3d
       -0.0016107599 0.10353046 -0.073909976 0.06903877
000100 8a 8e a5 bd d4 01 24 3d e6 9d ba bc 85 64 f1 3d
       -0.08083828 0.040040806 -0.02278037 0.11786751
000110 b6 6e ff bc b1 e8 65 3d 76 ca 07 3d 2e 86 0e bb
       -0.03118072 0.056130115 0.033152066 -0.0021747458
000120 e5 3d 43 bc 6d 05 55 3c 2e 7a e8 3c e0 bc fe bc
       -0.011916612 0.013001782 0.028378572 -0.031095922
000130 6f 9c ec 3d 66 a0 1e bd a8 18 7e bd 6f 2b 54 bd
       0.11553275 -0.038727187 -0.062035233 -0.051799234
000140 f5 c6 8e bc 2f 82 39 bd 25 2f 0f 3b 71 8a d1 3d
       -0.017428854 -0.04529017 0.0021848169 0.10231484
000150 13 b5 52 bd 75 40 c5 3c eb ca 9c 3d 7b 96 64 bd
       -0.051442217 0.024078587 0.07655891 -0.05580757
000160 26 b6 59 3d 81 06 8c bd 67 ea b7 bd 9d 2d 55 bd
       0.053152226 -0.06837178 -0.089802556 -0.052045453
000170 96 10 db 3c f7 c4 08 3d 66 f2 9a ba 23 27 33 bd
       0.026741307 0.033390965 -0.0011821508 -0.043738496
000180 fe 6f 98 bc 04 7f 4a 3d 96 d8 d5 3c d1 8d 8f 3d
       -0.01860809 0.049437538 0.026104253 0.07009471
000190 d8 37 94 bd ae 2f a7 39 ea 74 e3 3c 31 28 57 3d
       -0.07237214 0.00031888246 0.02776571 0.052528564
0001a0 7a 3c 11 3c ea dc a8 bd 33 6e 88 bd bf d0 4f 3d
       0.008864516 -0.08245261 -0.06661644 0.050736185
0001b0 1c 45 c9 bd f5 13 ef 3d 63 47 8d 3a 13 00 ae bc
       -0.09827635 0.116737284 0.0010778721 -0.02124027
0001c0 cf 40 ac bd bc 5f ba 3b 86 14 ad 3d a4 d8 13 be
       -0.08410799 0.005687682 0.0845118 -0.1443811
0001d0 9a 59 29 bd 71 23 c8 bb ba fe 47 3d c8 ad a2 3c
       -0.041345216 -0.0061077406 0.04882691 0.019858256
0001e0 57 ac 6d bc 7d cb 24 bd 72 a5 00 bd 9d 7e 0d 3d
       -0.014506421 -0.040233124 -0.03140778 0.034544576
0001f0 f5 2c 83 bd 8f 21 9d 3d a3 90 ba bd 6b 00 e1 bc
       -0.06405059 0.076724164 -0.091096185 -0.02746602
000200 e7 5b 1b bc c5 62 07 3d e2 41 51 3d 5a 94 57 bc
       -0.00948236 0.03305318 0.05108822 -0.013157928
000210 b7 0e 60 be 89 48 59 3d dc 2a 4f 3b 5f 62 91 bd
       -0.21880613 0.05304769 0.003161124 -0.07098841
000220 9f 9c ac 3b 65 dd b0 bd 69 6c 97 bd 78 a2 f3 3c
       0.005267694 -0.08635978 -0.073937245 0.029740557
000230 ab db 56 3c 57 88 64 bd 19 14 23 bd c1 70 7b 3d
       0.013113896 -0.055794086 -0.03981409 0.061386827
000240 54 86 87 3d 0e d9 30 be ef 02 f0 bc 01 20 ca ba
       0.06617418 -0.172703 -0.029298274 -0.0015420915
000250 67 9a c8 3d e8 e0 07 bd 27 52 e6 2d 11 de 46 3c
       0.09795075 -0.03317347 2.6184456e-11 0.012137906
000260 77 e1 62 3c 5b e9 11 be 78 86 04 3e 06 5e 6b bb
       0.0138477 -0.14249174 0.12941921 -0.0035914197
000270 78 bf 8e 3d ba 38 1f 3d 15 dd 47 bd 08 ad 7e bd
       0.069701135 0.038872458 -0.048794825 -0.062176734
000280 82 1d 2f 3d 4f 75 81 bd d8 c9 87 bd b9 97 5c 3d
       0.04275275 -0.06321203 -0.066302955 0.05385563
000290 d6 92 b0 bd 7a b8 65 3b ef 92 93 3d c5 4d 8c 3d
       -0.08621757 0.0035052584 0.0720576 0.06850771
0002a0 39 26 2f 3d db f5 a7 bd 27 90 1b bc 3c a4 46 3d
       0.04276106 -0.0820119 -0.009494818 0.04849647
0002b0 cf ed 6d 3d 46 18 5c bd a2 e6 8d 3c eb 5e 3b bd
       0.05808812 -0.053734086 0.017321888 -0.045744818
0002c0 d9 e1 f5 bb 37 47 a5 3d 80 99 99 3d 74 c1 77 bc
       -0.00750373 0.08070224 0.07499981 -0.015121806
0002d0 d0 c1 84 3c 0a 07 f9 bd 9f 3f 37 bd 89 3a 51 3d
       0.016205698 -0.12159546 -0.04473841 0.051081214
0002e0 73 2f 41 bc 61 7a 22 bb 29 ce b7 bd c6 2a 91 bc
       -0.011791098 -0.0024792182 -0.08974869 -0.017720591
0002f0 06 86 96 3b fb ee 9e 3c 61 74 9c bd bb 87 94 3d
       0.0045936136 0.019401064 -0.07639385 0.07252451
000300 1b 2d 83 3d 4e d6 12 bd cc 4b 0c 3d e8 2a 96 bd
       0.064050876 -0.035848908 0.034251973 -0.073324025
000310 33 e0 08 3d 08 34 91 3d 42 7c 33 3d 6c 03 22 bb
       0.033416938 0.07090002 0.043819673 -0.0024721278
000320 88 d4 42 3d bf 53 83 3b 47 e2 cd bc 8e ae b7 bc
       0.047565967 0.004007786 -0.025132312 -0.022422101
000330 3b d2 87 bd 0a c2 88 bd f3 af b0 3d df 7b 7f 3d
       -0.06631895 -0.06677635 0.0862731 0.062373992
000340 ad 6f 9c bd 5b fb 58 3d fe 78 bd bd 03 ff c2 3c
       -0.07638488 0.052974086 -0.09251593 0.02380324
000350 47 88 44 bd 7b 19 f0 bd cd ba e3 bc 54 83 7b bd
       -0.047981527 -0.1172361 -0.027799034 -0.06140454
000360 b8 a4 81 3d 8f 5b 90 bd 8c 4d 50 3d 04 1a 01 bd
       0.06330246 -0.070487134 0.050855204 -0.03151895
000370 2a 63 d8 bb 4b 9c 1d bd 2d 9a 1c 3e e1 14 84 bd
       -0.006603618 -0.03847913 0.15293188 -0.06449295
000380 5a c6 22 3e 9c 02 60 bd af ba 33 be 78 6e 81 bd
       0.15895978 -0.05468999 -0.17551683 -0.06319898
000390 b6 a4 56 3d e4 f2 96 bd b4 50 a6 3c 16 2b 5b 3e
       0.052403174 -0.073705465 0.020302154 0.21403155
0003a0 42 52 a4 3c 5f fa ec bc de 63 de 3d 12 9c 1d bd
       0.020058755 -0.02892798 0.10858892 -0.03847892
0003b0 00 64 08 3d 17 c6 2b bd fc f0 fc 3c 2f 95 46 bb
       0.033298492 -0.04193696 0.030876629 -0.0030301323
0003c0 ce da 80 bd b7 57 b1 bd 07 d6 f2 bd 87 59 75 3e
       -0.06291734 -0.086593084 -0.11857229 0.23959933
0003d0 35 a3 16 bb 86 17 da bd b0 98 ce 3c 45 fb 4b bd
       -0.0022985463 -0.10649018 0.025219291 -0.049800176
0003e0 b4 89 0a bd 1f 33 be 3d c3 51 ac 3d fe f8 a4 3d
       -0.03382273 0.09287094 0.08414032 0.08055304
0003f0 a1 06 2b 3d 0c 61 13 be 14 24 dd bc ad 1b 47 bb
       0.04175437 -0.14392489 -0.026994742 -0.0030381486

transformer.layers.1.linear2.bias f4 [6]
000000 38 89 21 bd ee 9a 70 bb 90 23 99 3c bd 85 1c 3c
       -0.039437503 -0.003671344 0.018693715 0.00955337
000010 b9 77 c7 3c cf 28 37 bd
       0.02434908 -0.044716652

transformer.layers.1.norm1.weight f4 [6]
000000 43 b1 80 3f ad c5 75 3f be f8 82 3f dc dd 6c 3f
       1.0054096 0.96004754 1.023216 0.9252603
000010 60 7b 7b 3f b5 f0 80 3f
       0.9823513 1.0073458

transformer.layers.1.norm1.bias f4 [6]
000000 dd bb 8f bd 61 2e 3e 3c e3 43 81 3d 55 10 2b 3c
       -0.07018254 0.011607737 0.063117765 0.010440906
000010 54 9e ec bc ba 6d 2f 3b
       -0.02888409 0.0026768283

transformer.layers.1.norm2.weight f4 [6]
000000 32 4d 78 3f 97 03 83 3f 8a a8 83 3f 1a 32 64 3f
       0.9699279 1.023547 1.0285809 0.8913895
000010 5d 88 7a 3f 9e 51 80 3f
       0.97864324 1.0024908

transformer.layers.1.norm2.bias f4 [6]
000000 e2 c1 49 bd a4 f1 5c 3d 6c 1b d0 3c d7 e2 a5 bc
       -0.049257167 0.053941384 0.0254037 -0.020249767
000010 8d 47 be bc 45 90 21 3b
       -0.023227477 0.0024652642

classifier.0.weight f4 [6]
000000 91 86 81 3f 43 b5 82 3f 17 52 76 3f 04 3d 72 3f
       1.0119191 1.0211567 0.9621901 0.9462435
000010 5e 61 84 3f d3 c2 82 3f
       1.0342214 1.0215706

classifier.0.bias f4 [6]
000000 3d 60 64 3d 50 3c 69 bc e7 f2 44 3c dc 62 f9 3c
       0.055755842 -0.014235571 0.012020803 0.030442648
000010 df 61 29 3c 95 49 50 bb
       0.010338276 -0.003178214
