checkpoints/ensemble_refiner_1s_3labels_2025-07-07-153859.pth (torch, 74958 bytes, 32 tensors)

transformer.layers.0.self_attn.in_proj_weight f4 [27, 9]
000000 26 91 70 bd 60 79 12 2c aa c3 23 ab 00 16 4e 3b
       -0.058732174 2.0815225e-12 -5.818077e-13 0.0031446218
000010 b9 d6 08 bb e2 0e 83 bd cc 3a 70 bd 71 25 d4 3a
       -0.0020879938 -0.06399323 -0.058649823 0.0016185475
000020 9e da 4c bb 0c 6d b1 bc e0 ab d0 3b cc 5d 21 bc
       -0.0031258236 -0.021658443 0.0063681453 -0.009849023
000030 71 47 7f bb 79 89 bf 3c 55 56 ef a8 5a dd e1 ba
       -0.0038952495 0.023380982 -2.657177e-14 -0.0017232106
000040 30 56 6e 3c ff aa 3b ae 7a 5f e6 3b 6e 42 11 bd
       0.014546916 -4.2670752e-11 0.0070304247 -0.035463743
000050 68 b4 a7 b9 50 c8 6d 3c 7b 23 e4 29 5a a3 11 3b
       -0.00031987135 0.01451309 1.0131389e-13 0.002222261
000060 1c 49 04 bd e6 e4 9d 3b ff 6c 5a bb c4 41 1c b2
       -0.032296285 0.0048185466 -0.0033329127 -9.0953485e-09
000070 63 6c 55 3d fc ea 81 39 a1 e6 62 bc 65 f2 b9 3c
       0.05210532 0.00024779874 -0.0138489315 0.02269859
000080 46 d8 54 3d 68 fc 83 aa d4 81 e2 39 8c ab 88 3d
       0.051964067 -2.3445417e-13 0.0004320281 0.06673345
000090 de 3b c6 b9 a6 26 66 bd 83 24 24 a9 48 af 8c bc
       -0.00037810107 -0.0561892 -3.6446984e-14 -0.017173424
0000a0 86 43 21 30 62 60 1a b6 26 92 17 bd f4 a3 86 3c
       5.8667415e-10 -2.300389e-06 -0.037004612 0.0164356
0000b0 fb 3a 8e 39 da 16 3a 3d 8f 48 8d b1 df 6f 34 bc
       0.00027128294 0.04543195 -4.111889e-09 -0.011013
0000c0 63 71 ce 29 2a df 05 b0 4c d1 66 2c 7b 17 84 3c
       9.167907e-14 -4.8702253e-10 3.280115e-12 0.016124478
0000d0 6d ee 38 bc 34 e8 76 b3 71 97 20 3a 8f a3 f4 3c
       -0.011287314 -5.7487526e-08 0.0006126082 0.029863147
0000e0 4e 38 6a ba 17 c5 9c b8 82 68 72 3b 48 95 de aa
       -0.00089347817 -7.4753705e-05 0.003698856 -3.9538707e-13
0000f0 23 69 ee af 3a b4 41 bc 30 62 f7 3c 8c a3 87 2c
       -4.3366652e-10 -0.0118227545 0.030198187 3.855088e-12
000100 93 70 a1 a9 de 41 38 29 63 53 a6 bb c9 dc e4 bc
       -7.169365e-14 4.0913338e-14 -0.0050758584 -0.02793731
000110 25 5b 91 bc bb 91 6c ab 74 e4 d0 b6 ea 58 72 38
       -0.017743656 -8.4046284e-13 -6.2254785e-06 5.7780104e-05
000120 96 41 8a ac 28 0c d4 b9 72 b9 97 37 9b 63 f4 36
       -3.9294774e-12 -0.00040444848 1.8086957e-05 7.2833623e-06
000130 49 ab 42 b5 a2 f9 00 3d 72 ac e6 bc 91 88 8c bd
       -7.2519884e-07 0.03148807 -0.0281584 -0.068619855
000140 5d 0e 1c 3d 53 b6 bb 38 6b 5f c6 39 a2 54 a7 b6
       0.038099635 8.9508154e-05 0.00037836595 -4.9868404e-06
000150 43 80 83 39 78 2e 5b 29 f5 5c fe 3a 7e a6 15 ac
       0.0002508183 4.8668074e-14 0.0019406365 -2.1266595e-12
000160 dc 91 42 3d 0b ca 26 30 4f 55 19 b0 69 36 24 29
       0.047502384 6.067757e-10 -5.5782307e-10 3.646251e-14
000170 37 60 91 3b 2a 22 13 2f 96 33 10 3b 2f de 42 b9
       0.0044365185 1.338171e-10 0.0022003404 -0.00018584052
000180 cf 84 00 bc c1 1a 79 bd a0 a1 c7 a7 34 05 89 2a
       -0.007844164 -0.06081653 -5.540883e-15 2.43397e-13
000190 20 21 01 bb 63 27 a4 bc e8 6a ee bb b1 cb d7 bb
       -0.0019703582 -0.020038312 -0.007275928 -0.006585561
0001a0 ae e1 1a 3b c3 9c 77 3d cf df 57 bd dc a5 c6 af
       0.002363305 0.060452234 -0.052703675 -3.613384e-10
0001b0 c5 fb 32 3d 9b c8 bc 3c 48 e9 bc b6 4d ac d8 29
       0.043697137 0.023044875 -5.629994e-06 9.6222164e-14
0001c0 5a 41 d4 3b 68 e8 60 3c 1b 7e 2b bd c6 3d 1e 39
       0.006477517 0.013727285 -0.04186831 0.00015091067
0001d0 4c 8d 7c bc f3 22 19 3b 9b 19 24 ab bc 16 36 33
       -0.015414547 0.0023366779 -5.830004e-13 4.2395854e-08
0001e0 a9 68 2e 3d 06 fa 7f bc 3b 26 04 bb 03 d5 6f bd
       0.04258028 -0.015623575 -0.0020164389 -0.058552753
0001f0 7f c3 36 bc 7c 1b 26 38 a8 05 5d bc 48 4c f9 b9
       -0.011155008 3.960308e-05 -0.013490118 -0.00047549815
000200 58 56 95 bb 53 a9 97 3c 18 1c 66 bd 96 c9 f2 37
       -0.004557412 0.018513357 -0.056179136 2.8942519e-05
000210 96 fe 34 3d 9e 94 00 3a d9 fb fa 3c 41 a8 d3 2a
       0.044188105 0.0004904958 0.030637668 3.759788e-13
000220 97 a7 c5 39 72 67 e2 39 60 b5 88 bb eb 0b 2b b9
       0.00037699632 0.00043183152 -0.004172012 -0.0001631227
000230 7e 0a 29 3a e8 e2 e2 3b e6 43 4c 3a 60 c9 cf a6
       0.0006448402 0.006924022 0.00077921 -1.4418093e-15
000240 e2 56 17 3d 66 34 ce b9 80 e9 c7 af 85 7a b2 b9
       0.036948092 -0.00039330422 -3.63638e-10 -0.0003404209
000250 b6 29 27 3d fb 6f 58 b9 ab 0a 9b 2c 6d cf f7 3c
       0.040811263 -0.00020641081 4.4065493e-12 0.030250276
000260 f9 b4 7e 3d b0 b1 b1 bc 3a 39 40 b5 f8 3b e2 ad
       0.062184308 -0.021691173 -7.160885e-07 -2.5719857e-11
000270 32 d2 26 36 0b 7c 83 3c e2 51 40 3d 8f cf e5 bc
       2.4858277e-06 0.01605036 0.04695309 -0.028053073
000280 1c 72 1b 3c 43 8d 5c ae f5 7a 82 be ad 5c c0 bd
       0.009487655 -5.0147674e-11 -0.25484434 -0.093926765
000290 7c c0 c2 3d ae 91 87 be b0 a1 dc 3c d7 1b 81 3e
       0.0950937 -0.26478332 0.026932567 0.25216553
0002a0 a4 9b 91 be a9 29 e2 bd d8 1c 87 3d eb f2 38 3e
       -0.28439057 -0.11043102 0.065972984 0.18061416
0002b0 b5 cc 5a 3e 33 00 a8 3e 43 9b e3 3d aa 93 3e bd
       0.21367152 0.32812652 0.11113598 -0.046527542
0002c0 e0 6f 12 3e 95 00 88 3d 8f 48 5c be ab f8 1e 3e
       0.1430049 0.06640736 -0.21512054 0.15524547
0002d0 3c 8c 8b be 5f 6e 8e 3d e9 4f bb 3e c2 b4 85 3e
       -0.27255428 0.06954645 0.36584404 0.2611447
0002e0 6d a9 4c 3d 77 e5 05 3e 12 60 bb be 0c 15 8e 3e
       0.049966265 0.13075815 -0.36596733 0.27750432
0002f0 e7 6e 26 3e f9 19 00 3e 92 4b 67 be 35 8c a8 bb
       0.16253243 0.12509908 -0.22587422 -0.005143667
000300 f7 5b 85 3e 73 b8 b2 be fe 2f 0d 3d b6 e8 c5 3e
       0.26046726 -0.3490635 0.034469597 0.38654107
000310 bd 5e 98 bd e6 bc af be a6 ae 21 bd f3 f6 b1 be
       -0.07439945 -0.34323806 -0.0394732 -0.3475872
000320 13 b6 f8 bd cb 07 8f bd 9d 81 8e 3e ce b4 f5 3d
       -0.12144103 -0.06983908 0.27833262 0.119973764
000330 4a f7 ae be 1a dd 87 3e 19 58 94 be bb a7 d1 bd
       -0.34173042 0.26535875 -0.28973463 -0.1023707
000340 07 12 28 3c b1 4b 82 be af ba c3 be 73 df 23 3e
       0.010258204 -0.25448373 -0.38228366 0.16003208
000350 cb ed b6 3d 98 f3 d9 3e 16 d9 1c be a0 ab ee 3d
       0.08932074 0.4256866 -0.15317187 0.116538286
000360 f8 ae e3 bd 81 43 41 be 4c c4 7b be 1a be 5a be
       -0.11117357 -0.18873407 -0.245866 -0.2136158
000370 e3 7e 08 3e 95 68 a7 3e 8c 67 0a 3e ec c8 3d 3e
       0.13329653 0.32696977 0.13516062 0.18533677
000380 be 22 2a 3a 1f ea b6 3d 78 0d 08 bd d6 2e f1 bd
       0.00064901623 0.08931374 -0.03321597 -0.11776511
000390 a8 4f 9a be ec 59 bc bd ae a5 8f bd e9 ad 71 3e
       -0.30138898 -0.09196839 -0.07014023 0.23601498
0003a0 0c a8 59 3d cc 72 d8 bd 46 a6 bc bb 9d 4f 8c 3e
       0.053138778 -0.10568771 -0.005757126 0.2740449
0003b0 f2 28 23 bd 07 ad ac bd ed a8 8e be 88 66 85 be
       -0.03983397 -0.0843144 -0.27863255 -0.26054788
0003c0 3f 26 65 be ff 06 56 be a5 20 bd 3e
       -0.22377871 -0.20901106 0.36938968

transformer.layers.0.self_attn.in_proj_bias f4 [27]
000000 00 00 00 00 00 00 00 00 00 00 00 00 00 00 00 00
       0.0 0.0 0.0 0.0
000010 00 00 00 00 00 00 00 00 00 00 00 00 00 00 00 00
       0.0 0.0 0.0 0.0
000020 00 00 00 00 00 00 00 00 00 00 00 00 00 00 00 00
       0.0 0.0 0.0 0.0
000030 00 00 00 00 00 00 00 00 00 00 00 00 00 00 00 00
       0.0 0.0 0.0 0.0
000040 00 00 00 00 00 00 00 00 5c 81 22 3d 58 d6 20 3d
       0.0 0.0 0.039674148 0.039266914
000050 5b 2c 02 3e 9a 3f 76 3d 7e 1e 88 3c ed b6 ee 3c
       0.12712233 0.06011925 0.016616102 0.02913996
000060 90 0d 1e be 9a db 24 bb 83 19 26 3d
       -0.15434861 -0.0025155307 0.040551674

transformer.layers.0.self_attn.out_proj.weight f4 [9, 9]
000000 3b fd 4c bd db 0d 09 3d b4 34 03 be 80 e2 9b 3d
       -0.050046187 0.03346048 -0.12813073 0.07611561
000010 9c 90 21 3e af 77 e0 3d 26 99 1b 3d 6b 69 81 3e
       0.1577782 0.10960328 0.03798785 0.2527574
000020 02 fa 3c be f9 26 c2 3c 8a df 60 be e5 1e 0f be
       -0.18454745 0.023700224 -0.21960273 -0.13976629
000030 68 cd e0 bd 72 e7 87 be 9e de 1f 3d 90 46 b0 bc
       -0.10976678 -0.26543766 0.039030664 -0.021518022
000040 0b de 97 be cb 39 5c be f4 c5 e3 bd 72 dd 35 3e
       -0.29661593 -0.21506421 -0.11121741 0.17760256
000050 39 80 af 3e d3 86 0e 3e eb 1a 7a 3e ff 8b a2 3d
       0.34277514 0.13918619 0.24424331 0.079368584
000060 24 a1 81 3e f6 e8 93 be a9 fc a5 be c0 e5 06 bd
       0.25318253 -0.28888673 -0.32419327 -0.03293395
000070 59 3b 80 3e f5 08 31 3e 8e 44 4f be 58 39 89 be
       0.2504528 0.17288573 -0.20240995 -0.26801562
000080 3d a7 20 bc 79 ed 42 3d fa 5f 5d be 7c 60 d8 3d
       -0.009805498 0.047589753 -0.21618643 0.10565278
000090 4b d9 16 3c f5 ea 9e 3d ec c3 08 bd 58 cb f5 bc
       0.00920708 0.07759658 -0.03338997 -0.030004188
0000a0 75 06 af 3d 5f 37 10 be 89 36 d5 bd 86 c5 e1 3d
       0.085461535 -0.14083622 -0.104107924 0.11024003
0000b0 bb 54 39 bd 23 35 34 be 81 d1 7c 3e c9 3b 64 bd
       -0.04524682 -0.17598395 0.24689294 -0.055721078
0000c0 93 6a 10 bd e1 6f 5f bd 0c 99 04 bd c1 41 36 3e
       -0.035257887 -0.054550055 -0.03237252 0.1779852
0000d0 a0 15 5c 3c 05 c1 be bd 8d 80 da 3c 94 63 82 be
       0.01343289 -0.09314159 0.026672626 -0.25466597
0000e0 71 22 2b 3d 89 ec 06 3e aa 43 c6 bc e8 a2 8f 3e
       0.041780893 0.13176169 -0.024202187 0.28053975
0000f0 6f 44 af 3b 45 08 ee 3a 28 8b 57 be 56 cc d5 3d
       0.005348734 0.0018160423 -0.21049178 0.104393646
000100 ed 35 fd 3d ba f3 29 3e 1a c8 4f be 68 76 14 3e
       0.12363801 0.1659688 -0.20291176 0.14498293
000110 39 72 8a be 18 c7 f6 3b 9d 4e 96 bd 99 0a 2d 3e
       -0.2704027 0.007531058 -0.07339213 0.16898574
000120 83 d1 94 bd 64 a3 e4 3d b6 3c 3f 3e c3 ce e7 bd
       -0.07266524 0.11163977 0.18675503 -0.113187335
000130 db e4 e7 bd 65 4e a5 bd b9 97 e8 3c df 34 dc bd
       -0.113229476 -0.08071593 0.02839266 -0.10752272
000140 ec f4 0d 3e
       0.13862962

transformer.layers.0.self_attn.out_proj.bias f4 [9]
000000 e6 c0 9f bd d6 25 bb bd 4d 1c 69 3d 76 de 72 3b
       -0.07800464 -0.09138076 0.056911755 0.0037058867
000010 91 95 79 3d 33 01 c0 bd eb 39 1f 3c 2a 1e 9c bc
       0.060933653 -0.09375229 0.009718399 -0.019057352
000020 49 2a 23 bd
       -0.03983525

transformer.layers.0.linear1.weight f4 [128, 9]
000000 9a af 8e 3d 73 b5 3d bd 7e 5e 7e 3d 4e 42 c2 bd
       0.06967087 -0.04631562 0.062101834 -0.09485303
000010 60 62 e7 bd 5a 9e 52 3c 3e c1 68 3e d9 1c 63 be
       -0.112980604 0.012855137 0.22729966 -0.22178973
000020 52 f4 71 3d e8 08 1b 3e ab 61 8d 3e dc 42 51 be
       0.059070893 0.15140116 0.27613577 -0.20435661
000030 6d ab b0 bd af 03 80 bc 67 ae 43 3e f8 fb 1a 3e
       -0.08626447 -0.015626756 0.19109498 0.15135181
000040 9f fb 22 be 37 17 20 be 69 d4 9e 3d 1a e7 23 be
       -0.15916298 -0.15633856 0.07755358 -0.16006127
000050 e0 65 3f bd 1e 44 dc 3d f3 f0 33 bc 26 ef 0f 3e
       -0.046728015 0.1075518 -0.01098274 0.14056072
000060 db f6 58 3c c2 9a b3 bd dc ee 19 be d6 b5 44 be
       0.013242449 -0.08769752 -0.15032524 -0.1920999
000070 c5 24 0c be 94 80 2b bd ac 4f 4e bd 38 e1 80 3e
       -0.13685901 -0.04187067 -0.05036895 0.25171828
000080 80 61 22 be 51 41 5d be 93 b5 08 3e 65 3f 90 3e
       -0.15857506 -0.21606947 0.13350515 0.28173366
000090 12 36 44 3e b1 14 dc 3d 5b 72 a1 be 80 58 45 bd
       0.19161251 0.10746134 -0.3153256 -0.048180103
0000a0 eb 16 2a 3e f1 8b 1d bd db 63 39 be ef e9 ce bd
       0.16610305 -0.038463537 -0.18104498 -0.10103213
0000b0 ca 53 5d be 75 f3 d5 3d 2b ea 6e be 11 ff 0a be
       -0.21613994 0.10446826 -0.23331515 -0.13573863
0000c0 a1 05 af bc 9a eb c3 bd f3 a0 88 be 24 01 bb be
       -0.021364989 -0.09566422 -0.26685295 -0.36524308
0000d0 1d fd 9c be 11 10 97 3d 88 d4 4e be 47 bd db bd
       -0.3066186 0.07376111 -0.20198262 -0.10729461
0000e0 d8 29 4b 3e 46 9a 94 be 23 c9 67 be a6 45 98 3e
       0.19840181 -0.2902395 -0.22635321 0.29740638
0000f0 bb ec 97 bd 4f 5b 43 3e 8a a0 4a be c0 d3 82 bd
       -0.074182 0.190778 -0.19787803 -0.06388044
000100 a3 49 fa 3d 95 a5 6a 3e 65 27 23 3d 44 6f 42 bd
       0.12221076 0.22914727 0.03983249 -0.047469392
000110 b9 d3 7d be 18 a2 3c be 57 6f 00 3e f5 65 d3 bd
       -0.24787797 -0.18421209 0.12542473 -0.10322181
000120 49 5d d6 3d af 94 89 bc 7e c6 21 3d d6 48 81 3d
       0.104670115 -0.01679453 0.039495938 0.063127205
000130 72 74 9c bd e7 93 43 be 1e 49 63 3d 15 77 29 3e
       -0.07639398 -0.19099389 0.05548965 0.16549332
000140 28 0b 9a be 45 c9 d3 3d f3 3b 15 be 98 cc 8e be
       -0.30086637 0.103411235 -0.1457365 -0.27890468
000150 56 ef 7d be 14 c3 95 be 2f 5a c1 3d 94 4b 88 be
       -0.2479833 -0.29250395 0.09441029 -0.26620162
000160 44 72 4f 3c b0 c6 a1 3e 29 cf f8 3d 6c 0c 99 bd
       0.01266152 0.315969 0.12148888 -0.074730724
000170 1d 7d 58 3e d8 57 8c 3e 3b a3 a8 3a 00 1e 58 b8
       0.21141477 0.2741077 0.0012866029 -5.1526353e-05
000180 00 88 6c 3e 8d 05 8c 3e f3 e6 6b be 10 d5 95 3e
       0.23098755 0.27347985 -0.23037319 0.29264116
000190 00 73 dc 3d c1 b0 70 be c2 ba 13 3d 27 cf c4 bd
       0.10764122 -0.23504926 0.036066778 -0.09609824
0001a0 e8 4a 50 be 23 2e 23 be 8e 1b 3c 3b 12 3b e3 bb
       -0.20341074 -0.15935569 0.0028702947 -0.006934532
0001b0 cc 4d 68 3d a7 bb 5b 3e db 76 ab be eb b7 2c 3e
       0.056714818 0.21458302 -0.33489117 0.16867034
0001c0 14 41 88 be 8b 4f 62 3e 90 fe 24 be 7a d7 83 be
       -0.2661215 0.22100656 -0.16112733 -0.25750333
0001d0 86 14 f8 38 a7 be 9f be 5a 57 56 3d e9 81 e3 bc
       0.00011829384 -0.31200144 0.0523294 -0.027771907
0001e0 8b 5b 94 bd 92 40 95 bd 29 5f be bd 03 25 55 3e
       -0.07244023 -0.072877064 -0.09295494 0.208149
0001f0 3d 0b 65 be 98 80 82 be 32 03 a7 bd 5c 15 39 be
       -0.22367568 -0.25488734 -0.08154906 -0.18074554
000200 cb 6b fb 3d 1c f3 70 be 86 f9 df 3d 45 86 25 be
       0.12276419 -0.23530239 0.10936265 -0.16164501
000210 d8 ab 39 bd f9 1a b7 bd 8b 60 a8 be a2 81 06 3e
       -0.0453299 -0.089406915 -0.32886156 0.13135388
000220 ca d4 6f 3e c3 2a 7f 3e fa f6 5d 3e f4 03 b2 be
       0.23421016 0.24918656 0.21676245 -0.3476864
000230 58 df 8b be b2 59 87 be cd a5 3f bd 80 55 35 3e
       -0.27318835 -0.2643562 -0.04678898 0.17708397
000240 04 a8 52 3d 8c 2b 26 39 ee 6b 4d 3c 0a 7c 8c 3e
       0.051429763 0.00015847216 0.0125379395 0.27438384
000250 e2 04 a3 be 35 05 5c be 83 cd c6 be 66 15 00 3e
       -0.31839663 -0.21486361 -0.38828668 0.12508163
000260 13 ee af 3e 66 3f 12 be e3 9a 0a be 57 c2 c2 bd
       0.34361324 -0.14281997 -0.13535647 -0.09509724
000270 c2 92 39 be 98 c6 66 bd cb f0 a0 3d f3 d6 0c 3e
       -0.1812239 -0.056341738 0.078584276 0.13753872
000280 fa d0 46 be 43 28 5c be ee 96 85 be b2 a5 98 3d
       -0.19415656 -0.21499734 -0.26091713 0.07453479
000290 ad ca 18 be 8a 26 7c 3c 69 01 27 3d 01 82 0b be
       -0.14921065 0.015390048 0.04077283 -0.13623811
0002a0 43 fd 51 3d ba 4e 1a 3d b7 f0 59 be ba 9e 8d 3d
       0.05126692 0.037672736 -0.21283232 0.0691504
0002b0 70 26 7d be 63 e6 1f 3e 96 ff b8 3d 29 3d 11 3e
       -0.24721694 0.1561523 0.09033124 0.14183487
0002c0 74 e6 75 be 8d 68 44 be ef f9 35 3d 76 72 6f 3e
       -0.24013692 -0.19180508 0.04442781 0.23383507
0002d0 36 11 99 3e 34 6d 54 3e d9 f2 b0 bd 54 0b 9e bc
       0.29895943 0.20744783 -0.086400695 -0.019292511
0002e0 a5 57 24 bc 3a bc 4c 3e be 2f 2a 3e 5a 5d 80 3e
       -0.010030662 0.19993678 0.16619775 0.25071222
0002f0 8f 19 28 3e 0d 35 8e be 1a 5e 04 bd c4 6a 9d 3d
       0.16416 -0.2777485 -0.032316305 0.076863796
000300 81 c8 98 3d 71 77 6e bd 17 52 96 be 28 67 98 3c
       0.07460118 -0.058219377 -0.29359505 0.018603876
000310 44 21 1b be d0 cc 8c bd 3d 4b 95 3e 93 cd 03 be
       -0.15149409 -0.068750024 0.29158965 -0.12871389
000320 b0 7e 45 be fa 86 73 3e 64 a0 b4 be 74 17 75 3e
       -0.19286609 0.23781958 -0.35278618 0.23934728
000330 7c 18 42 3e 9b 85 83 be 6e 98 dd bd ec 63 a4 be
       0.18954653 -0.2568787 -0.10820089 -0.32107484
000340 bb 9c 0c 3e 9d a6 19 3e b0 12 38 be c3 ee 8d 3d
       0.13731663 0.15004964 -0.17975879 0.06930306
000350 7c 58 0a bd 52 5a 9f be 62 f5 71 3e 0f 49 a1 3e
       -0.03377579 -0.31123596 0.23628762 0.31501052
000360 a3 91 b0 3d 7b 86 67 bd f2 f0 ff bd db a3 15 3b
       0.08621528 -0.056524735 -0.124971285 0.0022833261
000370 ee 78 ef bc 3b c4 b8 3e fe cb 42 be 0e 7a 96 3e
       -0.029232468 0.36087212 -0.1902313 0.29389995
000380 b4 99 d6 3a fe e5 07 3e a4 8f 29 3d 4b ed f2 bd
       0.0016372711 0.13271329 0.041396752 -0.11861666
000390 dd 02 a7 3e e1 11 2f 3e 3b 15 f6 bc 5f fd 8b 3c
       0.32619372 0.17096664 -0.03003942 0.01708859
0003a0 64 ae 8e be 35 25 97 3e c8 d5 93 be f3 75 26 3e
       -0.27867424 0.29520574 -0.2887404 0.16255932
0003b0 0d b9 81 3e 8c b1 74 bd 38 20 96 bd 7c 0d ec 3d
       0.25336495 -0.059739634 -0.07330364 0.115260094
0003c0 eb 65 c8 bd 8d e5 ab be ae 79 76 be f5 93 85 be
       -0.09785064 -0.3357357 -0.24069855 -0.26089445
0003d0 25 1e 6b 3e e4 19 7d bd 40 47 39 bc 2c 69 ed bd
       0.22960718 -0.06179227 -0.011308491 -0.115923256
0003e0 7c 97 53 bd 2b 93 44 3e 51 6f 24 be 4d e3 57 be
       -0.05165814 0.19196765 -0.16058089 -0.21082802
0003f0 3a da 34 bd e4 ec 13 be 31 7b 28 3e 06 80 43 be
       -0.04415343 -0.14445835 0.16453244 -0.19091806

transformer.layers.0.linear1.bias f4 [128]
000000 8b 15 09 3e a0 09 17 be 4a f3 d5 3c 33 5a bb 3c
       0.13387124 -0.14749765 0.026116986 0.022870159
000010 0a 84 33 be 29 49 c9 bd 80 ac 20 3b 52 7f 67 3e
       -0.17530838 -0.09828407 0.002451688 0.22607163
000020 43 b0 f3 3d 33 21 ad 3d 72 b8 2b 3e 15 24 17 3e
       0.11898854 0.08453598 0.16769579 0.14759858
000030 ab 9e 8f 3d b7 e4 c5 3d 46 27 27 3e 31 b6 e2 bc
       0.070126854 0.096627645 0.16323575 -0.027674766
000040 e2 70 1e 3c 43 b0 77 3e c9 aa 5a 3e 45 9e 05 3c
       0.009670468 0.24188332 0.21354212 0.00815541
000050 7f 39 8e 3d be 9f 97 3e 49 d0 92 be e7 9e a5 be
       0.0694456 0.2961406 -0.28674534 -0.32347795
000060 f4 02 59 be 8e c6 8d bc 75 97 a5 3d 16 24 a5 be
       -0.21192533 -0.017306592 0.08085529 -0.32254094
000070 9c 2a a0 be eb f2 53 3e a1 56 db bc 7e b3 60 be
       -0.31282508 0.20698135 -0.026774706 -0.21943471
000080 9f ca a3 3e d9 b7 97 be 80 c0 e5 bc 59 f3 32 be
       0.31990525 -0.29632452 -0.028045893 -0.17475642
000090 9a fa 30 be 1d f2 24 be 09 be 81 be b8 d7 3a 3e
       -0.17283097 -0.16107984 -0.25340298 0.18246353
0000a0 48 c3 bb bd 46 64 bd 3d a7 95 6f be 24 b3 8a be
       -0.09168106 0.09247641 -0.23396932 -0.27089798
0000b0 49 49 ea bb 89 55 79 be c9 28 55 be c9 b6 be 3d
       -0.0071498496 -0.24349035 -0.2081634 0.09312207
0000c0 6e c6 8e be 1b 47 42 be ca 05 b9 bd a8 d9 eb 3d
       -0.27885765 -0.18972437 -0.09034307 0.11516124
0000d0 13 96 f6 3d b0 99 23 3d 09 b4 82 3e 2f 87 20 bd
       0.12040343 0.03994149 0.2552798 -0.03919142
0000e0 12 6a 25 be f6 2c 81 3e 20 32 3b 3e ff 6c 93 3e
       -0.16153744 0.25229615 0.1828084 0.28794095
0000f0 e5 7e 7f 3e b6 dc d1 bd b7 27 7a 3e d8 49 7d 3e
       0.2495075 -0.102471754 0.24429213 0.247352
000100 5b 28 9e bd 76 ac 24 be 62 04 8d 3d ba 15 a3 bd
       -0.07722541 -0.16081414 0.068856016 -0.079631284
000110 7b d5 de bd 95 3f 35 3e 2e 5e 06 3e ff 05 ac 3b
       -0.10880562 0.17700036 0.13121864 0.005249738
000120 b6 a3 60 be e8 e8 55 be 9c f9 af be ed 3c 19 3e
       -0.21937451 -0.20889628 -0.34370124 0.14964648
000130 5c 5a aa be 0f 30 b6 bc 96 b8 5e be 75 67 53 3e
       -0.33272064 -0.022239713 -0.21750101 0.20644934
000140 48 2b a9 bd 13 3f 95 3e 29 9f 38 3e a6 82 25 3e
       -0.08260208 0.29149684 0.18029465 0.1616312
000150 56 81 b9 bd f5 58 6c be 11 d5 49 be 4a 0c 58 3e
       -0.09057872 -0.2308081 -0.19710185 0.21098438
000160 af 6d 7e be 72 e5 fb 3d 9d 42 b6 bd b4 e2 1f be
       -0.24846528 0.122996226 -0.08899424 -0.15613824
000170 6d 3c 9d be 31 f2 2c 3e d2 dd 76 be 00 2c 93 be
       -0.30710164 0.16889264 -0.24108055 -0.28744507
000180 c1 68 24 be 36 9f 9a be 2f 72 2d 3d ef 0b 9d be
       -0.16055585 -0.30199593 0.042345222 -0.30673167
000190 9b 2b 2d bd 2a 7d 6f 3e b0 89 89 3b 44 ca 27 be
       -0.042277914 0.2338759 0.004197322 -0.16385752
0001a0 b0 dc 43 be 3b 72 73 be 88 c3 03 be 15 20 00 be
       -0.19127154 -0.23774044 -0.12867558 -0.12512238
0001b0 51 da 8b be a4 f4 92 be 8b 70 c6 3d 83 d8 1c be
       -0.27315 -0.2870227 0.096894346 -0.15316968
0001c0 29 ac a4 bd 0d fd 87 bd 06 d5 b3 3d 69 7b 96 be
       -0.080406494 -0.066400625 0.08780865 -0.2939103
0001d0 14 d2 0b be a1 7b 16 be 52 47 83 3e 97 1f 16 be
       -0.13654357 -0.14695598 0.2564035 -0.14660488
0001e0 d7 7b b2 3c f2 bc 83 3e b4 40 60 3d f7 f5 6d 3e
       0.021787567 0.2573009 0.054749206 0.2323836
0001f0 9d e5 13 3d 98 8d 4c be 61 8c 3e 3d 1f b8 58 be
       0.03610765 -0.19975889 0.046520595 -0.21163987

transformer.layers.0.linear2.weight f4 [9, 128]
000000 53 92 af bd fa b1 33 3e 35 4a cd 3d 4b 91 18 bd
       -0.08572831 0.17548361 0.100239195 -0.037247937
000010 5e b7 5f bc d2 2a da bd 93 3d df 3a 10 da e8 bc
       -0.013654558 -0.106526986 0.00170319 -0.028424293
000020 2a 7f 6b bd 27 cf b9 bc fe 8f a9 bc 80 bb ac bd
       -0.05749432 -0.022681786 -0.020698544 -0.084342
000030 05 5e 48 3e 31 e5 7e 3d 52 f9 ef 3d 9e 98 da 3d
       0.19567116 0.062230293 0.11717476 0.10673641
000040 85 39 9c 3d a5 d4 8d bd ad 2d 21 3d c0 b9 3b bd
       0.076281585 -0.06925324 0.0393502 -0.045831442
000050 dd 78 1a 3d c3 f8 90 bc 55 2f 56 3b 69 04 83 3b
       0.03771292 -0.017696744 0.003268202 0.0039983285
000060 1b 74 f3 3d ea bc 7c 3c 49 30 a6 bc 6c 3a f3 3c
       0.1188738 0.0154259 -0.020286696 0.029690944
000070 07 e0 34 bd 57 6a be bd 4d 6e ee 3d 9e 4a 11 bb
       -0.04415896 -0.092976265 0.11642132 -0.002216972
000080 f5 90 2b bc 5b e8 0a 3e 45 29 99 bd 03 17 cf bd
       -0.010471572 0.13565199 -0.07478575 -0.10111811
000090 22 d3 53 3e 9b 8e bd 3c 45 ad 93 3d 16 a6 7f 3d
       0.2068601 0.023139289 0.07210783 0.06241425
0000a0 31 c8 3a 3c 6d 39 90 bd 5a 63 4e bd 02 56 04 3d
       0.011400268 -0.07042203 -0.050387718 0.032308586
0000b0 f8 22 21 bd c5 71 29 3b ab 83 b8 bc 59 9d 2b be
       -0.03933999 0.0025855165 -0.022523722 -0.16759242
0000c0 ec fc 55 bc 36 7d ab 3c 36 37 6e bd ad 3a 66 bd
       -0.01306079 0.020933729 -0.058158122 -0.0562083
0000d0 de fd 8d bd 0b 3d 76 bc a8 b4 a2 bd 2b 69 8d 3e
       -0.06933187 -0.015029202 -0.07944614 0.276193
0000e0 f2 2e f0 ba 8c 71 42 bc ec 9b 46 bd 09 d6 51 bd
       -0.0018324538 -0.011867892 -0.048488542 -0.05122951
0000f0 57 ea ba 3c e3 4a 25 3d 3b 20 db bd 6b 46 04 3d
       0.02281682 0.04035462 -0.10699507 0.03229372
000100 51 8a 2a 3c ca e4 32 be 59 9f f7 3c 88 0e a2 3d
       0.010408954 -0.17470089 0.03022735 0.07912928
000110 8b 2c 64 bd 1d 6e fa 3c 1d 7b 02 3e e5 70 90 3d
       -0.055706542 0.030570084 0.12742276 0.07052783
000120 e9 83 eb bb 69 b3 5b bc 8b c4 22 3d 92 34 2b be
       -0.007187356 -0.013409474 0.03973822 -0.16719273
000130 17 f1 30 be 7f ba 24 bc ea 83 d0 3c 8b 59 8a bd
       -0.17279468 -0.01005423 0.025453527 -0.0675536
000140 98 8f 49 bd c9 b4 1d 3d 8a 8b 03 3e af c6 7d bc
       -0.049209207 0.03850249 0.12846199 -0.015489264
000150 fd 9a 01 3e ce 55 c8 3d 5e 04 a6 bd 43 c3 fe bd
       0.1265678 0.09781991 -0.08106302 -0.12439587
000160 0d cf bb 3e c4 30 0d 3d 38 be c9 bc 71 01 3f be
       0.36681405 0.034470335 -0.024626836 -0.18652894
000170 7e c0 1b bb d3 fe a5 bc a0 b6 75 3e 9f a7 9d 3d
       -0.0023765857 -0.020263111 0.23995447 0.07697987
000180 eb 75 e4 bd 18 40 29 bd 00 1e 04 3d b4 73 a5 bc
       -0.111553036 -0.04132089 0.032255173 -0.020196773
000190 fc 1b 24 be c3 d4 b5 bc a2 19 a9 bc 75 6e 6d 3c
       -0.160263 -0.02219618 -0.020642105 0.014491667
0001a0 52 f7 6f 3c 55 80 34 bd 05 08 5c be 1f 8a 41 bc
       0.014646368 -0.0440677 -0.21487434 -0.011812716
0001b0 a1 73 d8 3c 9d 5b 0d be bb ad a8 3d c9 4a 49 3e
       0.026422324 -0.13804479 0.082362615 0.19657435
0001c0 7e dd c5 3d 0f 07 71 bd 6e 70 9a bd 44 22 aa 3d
       0.09661387 -0.058844622 -0.075409755 0.08307317
0001d0 fa 4e f6 3b 43 dd af 3e 2d 5b 1e bd 8f 2e cc 3c
       0.007516739 0.34348497 -0.03866117 0.024924545
0001e0 fb 25 24 bc 1e 0a 32 3d ae b4 e6 3d 39 8e 0d 3e
       -0.010018821 0.04346668 0.11264931 0.13823785
0001f0 9e 71 93 3d ee c8 15 bd 24 d9 36 3d 69 d0 88 3d
       0.07199405 -0.036568575 0.044640675 0.06680376
000200 e7 c1 36 3c 64 b5 43 3d 23 49 ce 3a d0 d9 e5 bd
       0.011154628 0.04778041 0.0015738349 -0.11223185
000210 93 a7 c3 3c 54 08 11 3e 6b a4 fc 3c d0 80 ab 3d
       0.023883617 0.14163333 0.03084012 0.083741784
000220 cf 9f a2 3d f9 4f 1c bc 40 35 79 3d f4 ee 38 3d
       0.07940637 -0.009540551 0.0608418 0.04514976
000230 f8 ab ad bc 5f 49 16 bd ed 7f 28 3c df 58 02 3e
       -0.021200165 -0.036691066 0.010284406 0.12729214
000240 81 c2 70 3c 8a e0 77 3c 22 3c 4e bd 81 33 7a 3c
       0.014694811 0.015129218 -0.050350316 0.015271069
000250 55 eb 96 3d 2a e9 92 3d db 43 f6 bd 8b 67 ad 3d
       0.07369105 0.07173379 -0.12024661 0.08467015
000260 1e 44 55 bd ba 40 72 bd ad d8 e4 bd 3c 0c 0a 3e
       -0.052066915 -0.05914376 -0.1117414 0.1348123
000270 fd dc 3a 3d 86 f6 07 bd 93 65 1b 3d 40 88 be 3b
       0.045620907 -0.033194087 0.037938666 0.005814582
000280 c6 54 9c 3d 5a 96 05 3e 5b 1b 0b 3d 41 d8 94 bc
       0.07633357 0.13045636 0.033961635 -0.018169524
000290 ae 66 52 3e e1 a2 a9 bd 36 97 68 3e 60 93 9f 3d
       0.20546982 -0.0828302 0.22713932 0.077917814
0002a0 6a 7c 42 3d 88 e1 89 bd 43 d2 37 3d 82 5f 1d 3b
       0.04748193 -0.0673247 0.044878256 0.0024013226
0002b0 49 7c 1d 3d 71 7e 90 3d 1c ab 04 3e ad 72 d9 bd
       0.038448606 0.07055367 0.12955898 -0.10617576
0002c0 39 6c 04 be 8e 01 1a 3d 80 b8 86 3d 68 08 07 3d
       -0.12931909 0.03759914 0.06578159 0.032967
0002d0 49 30 d1 bc 7b 75 a8 bc 6c 6e 52 3d ae 2c 55 3e
       -0.02553572 -0.020563832 0.051374838 0.20817825
0002e0 30 fc e4 bd d0 9f 7d bd 80 84 56 bc ae 51 d7 3c
       -0.111809134 -0.061919987 -0.013093114 0.026284065
0002f0 65 7a 07 3d 16 11 a1 3c 48 78 9f bd 53 dd a9 bd
       0.03307571 0.019661468 -0.07786614 -0.08294167
000300 f4 ae 21 3c 02 51 b7 bb 93 f8 f2 3b f6 14 9f 3d
       0.009868372 -0.0055943737 0.0074148863 0.0776767
000310 50 be 4d bd af a6 0c 3d fd e7 ca bc 7d dc 9a 3c
       -0.050230324 0.03433865 -0.024768824 0.018903965
000320 b7 c5 1c bd 4a dc f7 bc 27 a1 e3 3d 7a 96 87 ba
       -0.038274493 -0.03025641 0.11114722 -0.0010344528
000330 05 e6 b9 bd 44 0e b6 bd 1c b9 67 3c 9e 74 95 3d
       -0.09077076 -0.0888944 0.014143255 0.072976336
000340 ea d8 35 3d fd ef 14 bc fc 58 85 3d 85 61 35 bd
       0.04439632 -0.009090421 0.06511113 -0.044282455
000350 a8 32 86 3d 5b 8e 0a 3e d9 55 3b bc bb de bf 3c
       0.06552631 0.13530867 -0.011434042 0.023421636
000360 f4 db 58 3e c5 1c a1 bd 1b 93 9e bd 1c 7b 53 be
       0.21177655 -0.078668155 -0.07742902 -0.20652431
000370 75 78 b1 3d 8c b6 8e bc 11 e2 7e bd b1 50 81 bd
       0.086655535 -0.01742103 -0.062227312 -0.06314219
000380 74 48 00 3e 66 67 7e bd ce 5a 69 3c 1e f0 24 3d
       0.12527639 -0.062110327 0.014242841 0.040268056
000390 44 29 ba 3d c7 50 26 bd 09 1e 68 3d 56 ad e6 bd
       0.09089902 -0.04060438 0.05666927 -0.1126353
0003a0 5f 84 8f 3d e0 d3 8f 3d 79 d3 30 bd ef 43 9e bc
       0.0700767 0.07022834 -0.043170426 -0.019319503
0003b0 6a d2 74 bc 13 f7 ab bc b8 78 46 bc a0 06 a4 bd
       -0.014942745 -0.020991838 -0.0121137425 -0.08009076
0003c0 15 f5 cf 3d ff cd b2 3c 2f 67 00 bd 86 5b 02 3d
       0.101541676 0.021826742 -0.031348404 0.031825565
0003d0 37 cc 6d bd 59 92 38 3e 08 00 9f 3b 5a c5 0c bd
       -0.058056083 0.18024577 0.0048522986 -0.034367897
0003e0 97 79 8d bd a8 f6 83 ba 44 5b cb bd a5 83 b5 3c
       -0.06907957 -0.0010068016 -0.09929517 0.0221575
0003f0 d7 2f 9f 3d ef dd 3d be 1d ef 01 bd 3e 8c 87 3d
       0.077727966 -0.18541692 -0.031722177 0.06618546

transformer.layers.0.linear2.bias f4 [9]
000000 f5 e3 2a 3b af 0e 55 bd 3b 3a 11 3d 53 15 c6 3c
       0.0026075814 -0.052015956 0.035455924 0.02418009
000010 61 b2 ea bc ab d7 65 3d 54 f9 87 3d 1c f0 57 bd
       -0.02864951 0.05611388 0.066393524 -0.05271922
000020 33 2c 40 3d
       0.04691715

transformer.layers.0.norm1.weight f4 [9]
000000 34 53 78 3f 6a 67 7c 3f ba 85 82 3f e4 53 64 3f
       0.9700196 0.985953 1.019706 0.89190507
000010 28 69 7b 3f 6a 03 7d 3f 73 4e 89 3f a1 e4 75 3f
       0.9820733 0.98833334 1.0727066 0.96051985
000020 8d 3b 89 3f
       1.0721298

transformer.layers.0.norm1.bias f4 [9]
000000 73 98 b3 bc 11 15 1a 3d a3 38 88 3d 2c f7 8a bd
       -0.02192328 0.037617747 0.066514276 -0.067854255
000010 00 2f ce bd f9 7b 3b 3d 3d 89 03 bd be f4 20 3d
       -0.10067558 0.045772526 -0.032113302 0.039295904
000020 03 0c fe 3c
       0.031011587

transformer.layers.0.norm2.weight f4 [9]
000000 80 49 7f 3f 55 fb 73 3f 51 6a 81 3f 14 35 6d 3f
       0.9972153 0.9530538 1.011057 0.92659116
000010 6e 65 78 3f c6 16 77 3f 18 f6 86 3f 46 36 7f 3f
       0.9702977 0.96519125 1.0543852 0.9969219
000020 58 cd 87 3f
       1.0609541

transformer.layers.0.norm2.bias f4 [9]
000000 fa a8 02 bd 75 04 01 3d b6 04 40 3d d5 3a cb 3c
       -0.03189943 0.03149839 0.046879493 0.024808327
000010 44 1c c2 bd 0d 6e 1c 3d 7b 1a 8b bc 5a ff fa 3b
       -0.094780475 0.03819089 -0.0169804 0.007659835
000020 a9 f6 4e 3d
       0.050528202

transformer.layers.1.self_attn.in_proj_weight f4 [27, 9]
000000 26 91 70 bd 60 79 12 2c aa c3 23 ab 00 16 4e 3b
       -0.058732174 2.0815225e-12 -5.818077e-13 0.0031446218
000010 b9 d6 08 bb e2 0e 83 bd cc 3a 70 bd 71 25 d4 3a
       -0.0020879938 -0.06399323 -0.058649823 0.0016185475
000020 9e da 4c bb 0c 6d b1 bc e0 ab d0 3b cc 5d 21 bc
       -0.0031258236 -0.021658443 0.0063681453 -0.009849023
000030 71 47 7f bb 79 89 bf 3c 55 56 ef a8 5a dd e1 ba
       -0.0038952495 0.023380982 -2.657177e-14 -0.0017232106
000040 30 56 6e 3c ff aa 3b ae 7a 5f e6 3b 6e 42 11 bd
       0.014546916 -4.2670752e-11 0.0070304247 -0.035463743
000050 68 b4 a7 b9 50 c8 6d 3c 7b 23 e4 29 5a a3 11 3b
       -0.00031987135 0.01451309 1.0131389e-13 0.002222261
000060 1c 49 04 bd e6 e4 9d 3b ff 6c 5a bb c4 41 1c b2
       -0.032296285 0.0048185466 -0.0033329127 -9.0953485e-09
000070 63 6c 55 3d fc ea 81 39 a1 e6 62 bc 65 f2 b9 3c
       0.05210532 0.00024779874 -0.0138489315 0.02269859
000080 46 d8 54 3d 68 fc 83 aa d4 81 e2 39 8c ab 88 3d
       0.051964067 -2.3445417e-13 0.0004320281 0.06673345
000090 de 3b c6 b9 a6 26 66 bd 83 24 24 a9 48 af 8c bc
       -0.00037810107 -0.0561892 -3.6446984e-14 -0.017173424
0000a0 86 43 21 30 62 60 1a b6 26 92 17 bd f4 a3 86 3c
       5.8667415e-10 -2.300389e-06 -0.037004612 0.0164356
0000b0 fb 3a 8e 39 da 16 3a 3d 8f 48 8d b1 df 6f 34 bc
       0.00027128294 0.04543195 -4.111889e-09 -0.011013
0000c0 63 71 ce 29 2a df 05 b0 4c d1 66 2c 7b 17 84 3c
       9.167907e-14 -4.8702253e-10 3.280115e-12 0.016124478
0000d0 6d ee 38 bc 34 e8 76 b3 71 97 20 3a 8f a3 f4 3c
       -0.011287314 -5.7487526e-08 0.0006126082 0.029863147
0000e0 4e 38 6a ba 17 c5 9c b8 82 68 72 3b 48 95 de aa
       -0.00089347817 -7.4753705e-05 0.003698856 -3.9538707e-13
0000f0 23 69 ee af 3a b4 41 bc 30 62 f7 3c 8c a3 87 2c
       -4.3366652e-10 -0.0118227545 0.030198187 3.855088e-12
000100 93 70 a1 a9 de 41 38 29 63 53 a6 bb c9 dc e4 bc
       -7.169365e-14 4.0913338e-14 -0.0050758584 -0.02793731
000110 25 5b 91 bc bb 91 6c ab 74 e4 d0 b6 ea 58 72 38
       -0.017743656 -8.4046284e-13 -6.2254785e-06 5.7780104e-05
000120 96 41 8a ac 28 0c d4 b9 72 b9 97 37 9b 63 f4 36
       -3.9294774e-12 -0.00040444848 1.8086957e-05 7.2833623e-06
000130 49 ab 42 b5 a2 f9 00 3d 72 ac e6 bc 91 88 8c bd
       -7.2519884e-07 0.03148807 -0.0281584 -0.068619855
000140 5d 0e 1c 3d 53 b6 bb 38 6b 5f c6 39 a2 54 a7 b6
       0.038099635 8.9508154e-05 0.00037836595 -4.9868404e-06
000150 43 80 83 39 78 2e 5b 29 f5 5c fe 3a 7e a6 15 ac
       0.0002508183 4.8668074e-14 0.0019406365 -2.1266595e-12
000160 dc 91 42 3d 0b ca 26 30 4f 55 19 b0 69 36 24 29
       0.047502384 6.067757e-10 -5.5782307e-10 3.646251e-14
000170 37 60 91 3b 2a 22 13 2f 96 33 10 3b 2f de 42 b9
       0.0044365185 1.338171e-10 0.0022003404 -0.00018584052
000180 cf 84 00 bc c1 1a 79 bd a0 a1 c7 a7 34 05 89 2a
       -0.007844164 -0.06081653 -5.540883e-15 2.43397e-13
000190 20 21 01 bb 63 27 a4 bc e8 6a ee bb b1 cb d7 bb
       -0.0019703582 -0.020038312 -0.007275928 -0.006585561
0001a0 ae e1 1a 3b c3 9c 77 3d cf df 57 bd dc a5 c6 af
       0.002363305 0.060452234 -0.052703675 -3.613384e-10
0001b0 c5 fb 32 3d 9b c8 bc 3c 48 e9 bc b6 4d ac d8 29
       0.043697137 0.023044875 -5.629994e-06 9.6222164e-14
0001c0 5a 41 d4 3b 68 e8 60 3c 1b 7e 2b bd c6 3d 1e 39
       0.006477517 0.013727285 -0.04186831 0.00015091067
0001d0 4c 8d 7c bc f3 22 19 3b 9b 19 24 ab bc 16 36 33
       -0.015414547 0.0023366779 -5.830004e-13 4.2395854e-08
0001e0 a9 68 2e 3d 06 fa 7f bc 3b 26 04 bb 03 d5 6f bd
       0.04258028 -0.015623575 -0.0020164389 -0.058552753
0001f0 7f c3 36 bc 7c 1b 26 38 a8 05 5d bc 48 4c f9 b9
       -0.011155008 3.960308e-05 -0.013490118 -0.00047549815
000200 58 56 95 bb 53 a9 97 3c 18 1c 66 bd 96 c9 f2 37
       -0.004557412 0.018513357 -0.056179136 2.8942519e-05
000210 96 fe 34 3d 9e 94 00 3a d9 fb fa 3c 41 a8 d3 2a
       0.044188105 0.0004904958 0.030637668 3.759788e-13
000220 97 a7 c5 39 72 67 e2 39 60 b5 88 bb eb 0b 2b b9
       0.00037699632 0.00043183152 -0.004172012 -0.0001631227
000230 7e 0a 29 3a e8 e2 e2 3b e6 43 4c 3a 60 c9 cf a6
       0.0006448402 0.006924022 0.00077921 -1.4418093e-15
000240 e2 56 17 3d 66 34 ce b9 80 e9 c7 af 85 7a b2 b9
       0.036948092 -0.00039330422 -3.63638e-10 -0.0003404209
000250 b6 29 27 3d fb 6f 58 b9 ab 0a 9b 2c 6d cf f7 3c
       0.040811263 -0.00020641081 4.4065493e-12 0.030250276
000260 f9 b4 7e 3d b0 b1 b1 bc 3a 39 40 b5 f8 3b e2 ad
       0.062184308 -0.021691173 -7.160885e-07 -2.5719857e-11
000270 32 d2 26 36 0b 7c 83 3c e2 51 40 3d 8f cf e5 bc
       2.4858277e-06 0.01605036 0.04695309 -0.028053073
000280 1c 72 1b 3c 43 8d 5c ae d1 09 92 be 9c bd f5 3c
       0.009487655 -5.0147674e-11 -0.28523114 0.02999764
000290 ce 04 56 3d fd f3 9a be 0c e3 98 3c de 4f b9 3e
       0.052250676 -0.30264273 0.018662952 0.36193746
0002a0 b7 c7 c9 be d9 9e fb bd 77 f2 32 3d 58 fe 26 3e
       -0.39410183 -0.12286157 0.043688264 0.16307962
0002b0 4c be 50 3e 46 ae 90 3e 69 80 2f 3e b0 97 e0 bd
       0.20385092 0.2825796 0.17138828 -0.10966432
0002c0 0a 1c 88 3d 80 60 37 3e bc a6 8a be 2e 30 fd 3d
       0.06645973 0.17907906 -0.27080333 0.12362705
0002d0 75 7e 8e be 90 29 ab 3d 05 2d a2 3e 53 cb 87 3e
       -0.27830854 0.08357537 0.31674972 0.26522312
0002e0 4f be 92 bd 46 1d 1d 3e cc 69 b7 be 90 a3 6d 3e
       -0.07165205 0.15343198 -0.35822904 0.23206925
0002f0 ff 12 ef 3d 47 42 1c 3e 75 c0 91 be bb 33 45 3b
       0.11673545 0.15259658 -0.28467146 0.0030090648
000300 15 6c 94 3e ae 27 a2 be 32 be 8c bd 19 83 af 3e
       0.2898871 -0.31670898 -0.068722144 0.34279707
000310 af f7 3f bd 4d 21 7f be fc 0f ec bc bd 42 5a be
       -0.04686707 -0.24915047 -0.028816216 -0.21314521
000320 31 dc 78 be 13 21 5b bd 64 18 91 3e 06 7f d6 3d
       -0.24302746 -0.05349834 0.2833892 0.104734465
000330 be bf 95 be 22 b4 ad 3e b7 c2 96 be 30 23 a3 bd
       -0.2924785 0.33926493 -0.2944543 -0.07965696
000340 37 fd 17 be e9 ea 35 be 6c 83 b1 be ed 68 2e 3e
       -0.14842688 -0.17765392 -0.3467058 0.17032214
000350 a4 3a 19 3d d7 48 aa 3e 8c ee 47 be 52 5f 8b 3e
       0.03740944 0.33258697 -0.19524592 0.2722116
000360 eb 82 05 be c7 90 60 be bc 88 49 be 2a 7b 7b be
       -0.13038222 -0.21930228 -0.19681066 -0.24558702
000370 b8 a6 4d 3e 2f 4f a3 3e 6a c2 0e 3e 3d b7 b1 3d
       0.2008313 0.3189635 0.1394135 0.08677528
000380 8c 2e 11 3e 0c c2 fe 3d 89 c5 17 bd 92 25 c6 bd
       0.14177912 0.12439355 -0.03705362 -0.09675135
000390 00 fc ae be 26 60 d2 bd d8 dd 06 bd 53 ea d1 3d
       -0.34176636 -0.10272245 -0.03292641 0.10249772
0003a0 bd 9f 01 3e 45 95 e6 bd b0 17 9b bd db 21 99 3e
       0.12658592 -0.1125894 -0.075728774 0.29908642
0003b0 8b 4b b0 3b 53 8e 08 be 42 3a b2 be 94 6f 35 be
       0.005380099 -0.13335542 -0.34810072 -0.17718345
0003c0 8e 9e 82 be 2b 64 b4 be e1 fc 89 3e
       -0.25511593 -0.35232672 0.26950744

transformer.layers.1.self_attn.in_proj_bias f4 [27]
000000 00 00 00 00 00 00 00 00 00 00 00 00 00 00 00 00
       0.0 0.0 0.0 0.0
000010 00 00 00 00 00 00 00 00 00 00 00 00 00 00 00 00
       0.0 0.0 0.0 0.0
000020 00 00 00 00 00 00 00 00 00 00 00 00 00 00 00 00
       0.0 0.0 0.0 0.0
000030 00 00 00 00 00 00 00 00 00 00 00 00 00 00 00 00
       0.0 0.0 0.0 0.0
000040 00 00 00 00 00 00 00 00 0d dc 09 bd ae d5 8e 3d
       0.0 0.0 -0.033657122 0.0697435
000050 07 e6 5f 3d 40 79 8d 3c 1b cd 6f bd eb fe 6b 3c
       0.05466273 0.01726973 -0.058545213 0.014404039
000060 78 c9 f7 3b 7a 90 a5 bc 4f 1e 49 3d
       0.0075618587 -0.020210493 0.04910117

transformer.layers.1.self_attn.out_proj.weight f4 [9, 9]
000000 b3 28 71 bd b0 3e 44 bd 82 bd 4a bd 4f a4 9a 3d
       -0.058876704 -0.047911346 -0.049497135 0.075508706
000010 3b 5d 48 3e 68 73 03 3c 62 4f 4c 3d fc 0f 9d 3e
       0.19566815 0.00802312 0.049880393 0.30676258
000020 ae ac 45 be c7 03 4b bc 74 b4 27 be 3e ba 1d be
       -0.19304153 -0.012391037 -0.16377431 -0.15403077
000030 4c c5 14 be 28 c2 50 be 58 58 6d 3d c3 a3 2c 3c
       -0.14528388 -0.20386565 0.05794558 0.010537091
000040 6b 99 8b be 97 2f 75 be 72 b3 24 be 94 c8 31 3e
       -0.27265486 -0.23943935 -0.16084078 0.1736167
000050 67 95 80 3e ae 6c a9 3d 75 de 9c 3e be 27 d3 3d
       0.25113985 0.08272682 0.3063847 0.103103146
000060 8e 4f 82 3e 78 15 98 be 22 9d 96 be 2d 8d a7 bd
       0.2545132 -0.2970388 -0.29416758 -0.08181224
000070 ba 0c 8d 3e d8 55 95 3d c4 cc 2d be 23 ac 81 be
       0.27548772 0.07291764 -0.16972643 -0.25326642
000080 e5 91 5f bc fe 06 55 3c 76 54 50 be e0 a0 f8 3d
       -0.013645624 0.013002155 -0.2034472 0.121400595
000090 ec 0c 0e bd 8c 1c a9 3d 59 ad eb bd 46 f7 c3 3c
       -0.034680292 0.08257398 -0.11507673 0.02392162
0000a0 7b 54 dd 3d 06 ec 31 be 77 85 fb bd 66 e9 cd 3d
       0.10807129 -0.17375192 -0.12281316 0.10054283
0000b0 cb fc 94 bd 21 29 37 be 4b a0 61 3e 8b e6 71 bc
       -0.07274779 -0.17886783 0.22033803 -0.014764438
0000c0 8f f7 f6 bc c4 ba 77 bd 1c 22 49 bd 47 43 35 3e
       -0.030147342 -0.060480848 -0.049104795 0.17701446
0000d0 8e 2d d6 bc c0 f8 19 be fc e9 2a 3d be 48 91 be
       -0.026144769 -0.15036297 0.04172705 -0.2837581
0000e0 b0 31 a4 3d 30 e4 07 3e 0d 02 82 ba ef e1 59 3e
       0.0801729 0.1327064 -0.0009918824 0.21277593
0000f0 e3 be 11 bd 67 49 eb bd d1 8c 74 be c4 a8 f9 3d
       -0.035582434 -0.1148861 -0.23881842 0.121903926
000100 90 a7 f3 3d 92 f2 00 3e 89 e7 70 be 36 44 2b 3e
       0.118971944 0.12592533 -0.23525824 0.16725239
000110 6b d6 6f be 31 98 95 3a 9d d6 73 bd 77 74 40 3e
       -0.23421638 0.0011413154 -0.059530843 0.18794428
000120 28 0d d0 bd b7 49 ff 3d 89 4d 3b 3e 4b 59 d8 bd
       -0.10158759 0.12465232 0.18291296 -0.10563906
000130 ef ca 15 be 58 34 65 bd f2 a2 d6 3a d4 d0 2f bd
       -0.14628194 -0.055958122 0.0016375466 -0.042923763
000140 de ab 33 3e
       0.17546031

transformer.layers.1.self_attn.out_proj.bias f4 [9]
000000 64 e4 d0 bc 9d 49 aa bc 2d ed 09 3c 39 9c f1 b9
       -0.02549953 -0.020787055 0.0084183635 -0.00046083497
000010 d6 5d fb bc ad a2 e9 3c c1 6d 27 bd 1d 40 e5 bb
       -0.030684393 0.028519953 -0.040876154 -0.0069961683
000020 e4 57 29 3d
       0.041343585

transformer.layers.1.linear1.weight f4 [128, 9]
000000 86 ea 17 3e 8a 83 74 bd af 8e 02 3d 6c 36 09 be
       0.14835557 -0.059695758 0.031874355 -0.13399667
000010 44 2c 26 bd c6 02 bf 3c d1 b8 3e 3e 5d f4 62 be
       -0.04056956 0.023316752 0.1862519 -0.2216353
000020 3d 11 01 3d 18 3d 59 3e 83 0c 84 3e cc a2 5a be
       0.03151058 0.21214712 0.25790796 -0.21351165
000030 b3 da d4 bd 31 54 b1 3d e0 f4 85 3d 49 7a 09 3d
       -0.10393276 0.08658636 0.06540847 0.033563886
000040 f2 76 f3 bd 06 81 20 be 94 ee 79 3d 2b cd e0 bd
       -0.118879214 -0.15674219 0.06101854 -0.10976633
000050 a4 dc b0 bd 68 c5 ca 3d c8 04 32 3d 42 05 84 3d
       -0.08635834 0.099009335 0.04346159 0.06446315
000060 20 55 8e bd 7a 59 e4 bc fc 9b 1d be 29 22 39 be
       -0.0694983 -0.027874697 -0.15391535 -0.18079437
000070 73 ae 21 be cd 2c 66 bc f5 72 ab bd 11 75 96 3e
       -0.15789203 -0.014048767 -0.08371536 0.2938619
000080 26 a8 05 be 60 85 11 be ae a4 b0 3d 3c 63 8b 3e
       -0.13052425 -0.14211035 0.0862516 0.27224147
000090 fa 53 38 3e 8a bd 17 3e 5a a0 99 be 3b 81 40 bd
       0.18000785 0.14818397 -0.3000515 -0.046998244
0000a0 22 65 54 3e 08 8f 8e bd c8 30 44 be 74 10 7b bd
       0.20741704 -0.06960875 -0.19159234 -0.061294988
0000b0 22 63 9d be ec df 87 3d 93 75 32 be e9 49 2e be
       -0.30739695 0.066345066 -0.17427664 -0.17020382
0000c0 32 16 76 bc c8 62 b0 bd 5f 34 9d be ed 2d 9a be
       -0.01501994 -0.08612591 -0.30704018 -0.30113164
0000d0 40 54 72 be 27 d6 57 3d f6 0a 85 be a0 e6 07 be
       -0.23664951 0.052694466 -0.25984925 -0.1327157
0000e0 a4 b9 4e 3e da 7b 43 be 39 95 b4 be 55 10 97 3e
       0.20188004 -0.19090214 -0.35270098 0.29504648
0000f0 76 ea 24 be c5 05 34 3e 53 3e 42 be 76 7b 74 bd
       -0.16105065 0.17580326 -0.18969087 -0.059688054
000100 e5 e9 9f 3d b0 72 84 3e f6 69 8b bc c2 9b a4 bd
       0.07808284 0.2586875 -0.0170183 -0.08037521
000110 b2 38 53 be 60 71 e3 bd 04 5e 0e 3e 8d da a8 bd
       -0.20627096 -0.11105609 0.13903052 -0.0824481
000120 d4 f4 d4 3d 88 07 d8 bd 62 80 86 3d 4e c2 c3 3d
       0.1039826 -0.105483115 0.06567456 0.09558545
000130 1a 51 82 bd 9c 92 6a be f1 1d 52 bd da 53 52 3e
       -0.06363125 -0.2290749 -0.051298086 0.205398
000140 6c 5b 89 be 0e 65 a5 3d 57 ae 78 bd 78 b8 bd be
       -0.26827562 0.08075915 -0.06071314 -0.370548
000150 a8 99 4b be b9 69 b8 be b0 7b 0a 3d 72 c1 8a be
       -0.19882834 -0.3601816 0.033809364 -0.27100712
000160 07 80 11 3e 96 47 8f 3e 53 91 c9 3d 9b 78 ab bd
       0.14208995 0.27984303 0.098421715 -0.08372613
000170 dc 71 40 3e 26 09 94 3e 01 5b 37 3c 47 06 b8 bc
       0.18793434 0.2891323 0.011191131 -0.02246393
000180 14 f1 44 3e 8a ed 9d 3e 23 f3 4e be ab b7 91 3e
       0.19232589 0.3084529 -0.20209937 0.2846044
000190 73 96 1e 3e 84 60 83 be 93 71 ce 3d 00 99 93 bd
       0.1548708 -0.25659573 0.10080256 -0.07206917
0001a0 be 4d 6a be 80 c1 22 be d1 57 9d bb 25 ab f6 bd
       -0.22881219 -0.15894127 -0.0048017283 -0.12044362
0001b0 71 71 fd 3d c7 2e 50 3e 0a f7 a8 be 74 d9 fc 3d
       0.12375153 0.20330344 -0.33000976 0.123461634
0001c0 a6 c5 15 be c9 3f 33 3e 06 f2 44 be b3 be 6d be
       -0.14626178 0.17504801 -0.1923295 -0.23217277
0001d0 90 98 04 be f5 34 b4 be 00 81 1f 3d 4b 05 e4 bc
       -0.12948823 -0.35196653 0.038941383 -0.027834555
0001e0 3d f1 30 bd a4 77 da bd 20 71 ac bd ce d0 68 3e
       -0.043198813 -0.10667351 -0.084200144 0.22735903
0001f0 de cc 8a be 56 a9 2e be 02 a6 83 bd 64 00 63 be
       -0.27109426 -0.17056784 -0.06428148 -0.22168118
000200 9d 53 f7 3d b9 01 91 be 16 22 63 3d a5 55 01 be
       0.12076495 -0.28321627 0.05545243 -0.12630327
000210 91 72 95 bd aa 35 43 bd c4 08 8c be 21 08 8b bb
       -0.072972424 -0.0476586 -0.27350438 -0.0042429124
000220 18 18 c2 3e eb aa 8b 3d e6 0f 68 3e 85 2e a2 be
       0.37909007 0.068197094 0.22662315 -0.31676117
000230 00 ff 93 be ef 77 00 be 3c f3 66 bc bd 8f 5f 3e
       -0.28905487 -0.12545751 -0.0140960775 0.21832176
000240 b5 65 e8 3d 27 02 13 bd 46 06 7b bd b2 cf 86 3e
       0.11347524 -0.035890725 -0.06128528 0.26330334
000250 00 e8 80 be a4 c6 79 be ae b8 74 be 89 a0 d7 3d
       -0.25177002 -0.24392182 -0.23898575 0.105286665
000260 df 1a 8b 3e 96 07 21 be 27 75 19 be 37 35 80 bd
       0.2716894 -0.1572555 -0.14986096 -0.0626015
000270 cc 24 1d be 84 a5 5c bd 3b f0 22 3d 01 98 31 3e
       -0.15346068 -0.053868786 0.039779883 0.17343141
000280 a4 6a 51 be 00 40 4a be 22 66 b9 be 68 35 e2 3d
       -0.20450836 -0.19750977 -0.36210734 0.11045343
000290 98 2a 29 be ff 56 69 3d 4d 76 7d 3c 39 a7 26 be
       -0.16520154 0.05696773 0.0154701 -0.16274728
0002a0 6c 5a 21 3c fc e2 b3 3d d8 87 19 be 6e ad 17 3e
       0.009848218 0.08783528 -0.14993227 0.14812252
0002b0 a0 6a 86 be 14 54 08 3d 2d d5 16 3e 7c 10 16 3e
       -0.26253223 0.03328331 0.14729758 0.14654726
0002c0 03 5c a4 be 72 bc 91 bd 0b 0e fd 3c 1d 53 5b 3e
       -0.3210145 -0.07116021 0.030890485 0.21418424
0002d0 eb 81 8a 3e 15 c1 7b 3e 80 ea 0a be 9d d8 2b 3d
       0.27052245 0.24585374 -0.13566017 0.041954625
0002e0 c7 de 26 3d 77 fd 17 3e f2 1d e9 3d 14 5e 5a 3e
       0.0407398 0.14842783 0.11382665 0.2132495
0002f0 c4 74 2b 3e 38 e8 45 be 1d 37 06 3b a6 05 92 bc
       0.16743761 -0.19326866 0.0020479627 -0.017824959
000300 a5 58 f5 3d 21 15 92 bd 6a 68 ac be f1 7a 0e 3e
       0.11979798 -0.07132936 -0.33673412 0.13914086
000310 2e 61 03 be cc 09 28 be 86 6b 96 3e a2 2b 01 be
       -0.1283004 -0.16409987 0.2937891 -0.12614301
000320 fd d1 34 be ea 73 85 3e ff 83 a0 be d2 3a 52 3e
       -0.17658229 0.26064998 -0.31350705 0.2053025
000330 b9 09 04 3e f7 ae 84 be b8 be a0 bd bc 14 99 be
       0.12894334 -0.25914738 -0.07848877 -0.29898632
000340 89 f9 cc 3d ee 0a 34 3e 09 6d 3e be be c0 24 3d
       0.100085326 0.17582294 -0.18596281 0.040222876
000350 47 8a 95 3d a1 ae 63 be 5b 94 4d 3e 69 f9 8a 3e
       0.07301765 -0.22234584 0.20076124 0.2714341
000360 8f 13 5a 3e eb a4 9b bd 29 e2 01 be a9 08 b6 3c
       0.21296524 -0.07599815 -0.1268393 0.022220926
000370 74 0a 40 bc 3e aa ac 3e 47 46 38 be ae 1d 7e 3e
       -0.011721242 0.33723634 -0.17995559 0.2481601
000380 b2 e7 50 3c 05 46 1e 3e 2d f5 11 3d 1c ec a5 bd
       0.012750553 0.15456398 0.03563421 -0.08101675
000390 93 93 94 3e c1 51 20 3e f2 1e b1 bc 93 06 a9 3d
       0.2901884 0.15656187 -0.021621201 0.08253207
0003a0 ee 81 92 be f6 3e 85 3e 2a d1 b2 be 02 4f 3f 3e
       -0.28614753 0.26024598 -0.34925205 0.18682483
0003b0 6e 76 76 3e 1d 57 5f bd ec 56 e5 bd 72 3a a2 3d
       0.24068615 -0.054526437 -0.1119822 0.07921304
0003c0 9c bf f0 bd 22 e4 60 be 5b 4d 6f be a8 19 9b be
       -0.117552966 -0.21962026 -0.23369353 -0.30293012
0003d0 7f 42 76 3e 2d d7 8e 3b e4 34 2e be c6 b8 6e bd
       0.24048804 0.004359147 -0.17012364 -0.058281682
0003e0 b3 69 52 bd 8a f5 09 3e d0 d6 9f bd 55 99 73 be
       -0.051370334 0.13472572 -0.07804644 -0.2378896
0003f0 94 b3 c2 bd a0 4b 58 bd d8 d2 24 3e c9 bf 83 bd
       -0.09506908 -0.052806497 0.16096056 -0.064330645

transformer.layers.1.linear1.bias f4 [128]
000000 20 f5 48 3e 34 81 a8 bc 29 3c 06 bc d9 b6 a5 3b
       0.19624758 -0.020569421 -0.008193054 0.0050571975
000010 5d 7f 2b be ac 9c 07 be 82 4c 5f bd 7f 41 86 3e
       -0.16747804 -0.1324336 -0.054516323 0.26221845
000020 9e 50 0a 3e 80 94 10 3e 9f 82 40 3e f2 8c ba 3d
       0.13507316 0.14119148 0.18799828 0.091089144
000030 80 c7 f7 3d bc 05 de 3d 82 da fb 3d c1 8d 80 3d
       0.120985985 0.108409375 0.122975364 0.062770374
000040 fb 18 a5 3d eb f2 78 3e 5b 56 56 3e 67 88 0e bc
       0.08061405 0.24311416 0.2093138 -0.008699513
000050 38 0e ea 3d 9f 4e 85 3e 47 c0 9d be b1 b3 bb be
       0.11428493 0.26036546 -0.30810758 -0.3666053
000060 09 48 83 be b7 94 42 bb 76 a9 83 3d 64 cf a4 be
       -0.25640896 -0.0029690692 0.064288065 -0.32189476
000070 fe 07 a4 be 51 89 8c 3e 7c e1 35 bd 46 84 6e be
       -0.32037348 0.27448514 -0.04440449 -0.23292646
000080 6e b1 53 3e 81 00 61 be 91 4e d5 bc 3b b1 2c be
       0.20673153 -0.21972848 -0.02603844 -0.16864483
000090 af 17 d2 bd 0e 36 50 be 3b e5 45 be 08 32 14 3e
       -0.102584235 -0.2033312 -0.19325726 0.1447221
0000a0 56 e7 0c be 74 47 22 3e ab 42 4b be b6 52 8e be
       -0.13760123 0.1584757 -0.1984965 -0.27797478
0000b0 1a 84 93 39 cf 99 59 be 6e 90 81 be 19 90 e1 3d
       0.00028136448 -0.2125008 -0.25305504 0.110138126
0000c0 f2 31 94 be b5 62 63 be d0 de 5f bd ee 79 2c 3e
       -0.28944355 -0.22205622 -0.05465585 0.16843387
0000d0 0a 3e 20 3e 16 ce e9 3d 65 46 85 3e 81 e1 c4 39
       0.15648666 0.11416261 0.2603027 0.00037552047
0000e0 7d 3e 16 be 90 d6 65 3e a9 74 2d 3e 6a 22 8c 3e
       -0.14672275 0.2244513 0.16939034 0.27370006
0000f0 0e cc 83 3e 75 da 6a bd 0a 00 30 3e d2 aa 8e 3e
       0.2574162 -0.057337243 0.17187515 0.278647
000100 a4 93 04 be 87 bc 52 be 91 95 e9 3d e8 35 33 bd
       -0.12946945 -0.2057973 0.11405481 -0.04375258
000110 61 e2 41 3b 73 cd 58 3e 4e 13 bb 3d 03 85 54 3d
       0.0029584395 0.21172123 0.091345415 0.051884662
000120 ed 5b 64 be 71 0d 59 be 24 92 a3 be ef 6f 0b 3e
       -0.22300692 -0.21196534 -0.31947434 0.13616918
000130 1e a0 96 be 00 d3 ff bc 53 46 74 be a5 ad 8a 3e
       -0.29419035 -0.031228542 -0.23854952 0.27085605
000140 9a 13 bd bd 4f 10 a3 3e f1 d7 57 3e cc c5 06 3e
       -0.09232254 0.3184838 0.21078469 0.13161391
000150 89 9f 1b be a1 e4 75 be 58 db 2e be 47 f1 5a 3e
       -0.15197577 -0.24012996 -0.1707586 0.21381103
000160 ab b6 3d be 6a dd 12 3e e8 aa c5 bd 52 69 1e be
       -0.18526714 0.14342275 -0.096517384 -0.15469864
000170 11 5b 9e be d2 a8 69 3e b8 8f 89 be de 61 93 be
       -0.30928853 0.22818306 -0.2686746 -0.28785604
000180 04 4e 3b be 89 32 9d be d7 80 8d 3d 37 84 8e be
       -0.1829148 -0.30702618 0.0690934 -0.27835247
000190 6c c4 77 bd dd 00 57 3e 51 23 a9 bd 58 ee 51 be
       -0.060490057 0.20996423 -0.08258689 -0.20501077
0001a0 a2 02 5a be d4 64 53 be 3c 2f 2c be fe cc b7 bd
       -0.21290067 -0.20643932 -0.16814893 -0.08974646
0001b0 91 8b 44 be 33 cb 8a be 9f bc a3 3d b5 6c 40 be
       -0.19193865 -0.27108154 0.07994961 -0.18791468
0001c0 1e 2e 17 be 06 0c 32 bd da 93 2d 3e 48 c3 9a be
       -0.14763686 -0.043468498 0.16950932 -0.30227113
0001d0 65 6e 92 bd 7f 6c d8 bd 9e 0b 65 3e b7 bd d4 bd
       -0.07149962 -0.10567569 0.22367713 -0.10387748
0001e0 49 23 dd 3c 61 39 6d 3e 2a af ed 3d ea b2 69 3e
       0.026994364 0.2316642 0.116056755 0.22822157
0001f0 66 92 7e bd b6 d0 52 be 57 f2 94 3d 0d 27 00 be
       -0.062151335 -0.2058743 0.07272785 -0.12514897
